B1u_k_current_L_200_mu_-3_Delta_1_t_J=0.5.npy (npy, 144128 bytes, 1 tensors)

array f8 [75, 240]
000000 0b 5d 7a 4f 2c 31 5a 3f 34 22 45 a9 0f 31 6a 3f
       0.0015986378402084746 0.0031972223170309236
000010 1b b5 43 51 d6 30 7a 3f 4f bb e6 0d 59 a4 83 3f
       0.006394231011865227 0.009590812432035327
000020 96 03 61 ed f0 2f 8a 3f c2 14 f7 09 8b 5d 90 3f
       0.012786752933722483 0.015981838687157753
000030 95 88 18 e6 d5 a2 93 3f 24 c2 3e ae ca e7 96 3f
       0.019175855797705827 0.02236859024532313
000040 a3 bc 02 02 5b 2c 9a 3f 3b e1 c2 7e 78 70 9d 3f
       0.025559827802393752 0.028749354111569075
000050 55 ae 84 5e 0a 5a a0 3f 80 14 59 a8 90 fb a1 3f
       0.031936954534412955 0.035122414160050575
000060 e0 a8 fa e4 c7 9c a3 3f a2 a9 79 d9 a8 3d a5 3f
       0.03830551786571035 0.04148605017401798
000070 0f 06 be 47 2c de a6 3f ea 07 29 ef 4a 7e a8 3f
       0.04466379524002317 0.047838536924714806
000080 25 83 5b 8b fd 1d aa 3f ef 3f e0 d3 3c bd ab 3f
       0.05101005865231504 0.05417814337135939
000090 76 bc 2c 7d 01 5c ad 3f 08 b8 d8 36 44 fa ae 3f
       0.05734257367145627 0.060503131575714575
0000a0 08 2d 1b d6 fe 4b b0 3f ee 52 11 42 93 1a b1 3f
       0.06365959860993453 0.0668117557809855
0000b0 9d 57 ef af db e8 b1 3f ef 32 1b 6e d4 b6 b2 3f
       0.06995938344274895 0.0731022614301755
0000c0 e3 1e 15 c8 79 84 b3 3f 8b d1 5f 06 c8 51 b4 3f
       0.07624016890360567 0.07937288432714788
0000d0 74 ff 89 6e bb 1e b5 3f b0 ff c0 42 50 eb b5 3f
       0.08250018547732713 0.08562184934362338
0000e0 ac 2c 51 c2 82 b7 b6 3f 6f ed cf 28 4f 83 b7 3f
       0.08873765224523095 0.09184736963645944
0000f0 2b 33 12 ae b1 4e b8 3f 22 0f 82 86 a6 19 b9 3f
       0.09495077609808493 0.09804764541518954
000100 4a 09 7d e2 29 e4 b9 3f db 9d 4a ee 37 ae ba 3f
       0.1011377504301311 0.10422086303389426
000110 e9 ef e7 d1 cc 77 bb 3f 60 94 32 b1 e4 40 bc 3f
       0.10729675411852181 0.11036519361603458
000120 fe 35 7b ab 7b 09 bd 3f a6 c0 34 db 8d d1 bd 3f
       0.1134259503989696 0.11647879220686494
000130 c6 ae 28 56 17 99 be 3f e5 2a 00 2d 14 60 bf 3f
       0.1195234856938284 0.12255979632042686
000140 15 ac b2 35 40 13 c0 3f 30 fb ca 0b 2c 76 c0 3f
       0.1255874883839573 0.12860632491898505
000150 06 e6 06 99 cb d8 c0 3f 35 01 fa da 1c 3b c1 3f
       0.13161606761950412 0.13461647693839898
000160 6c 5d 3a cc 1d 9d c1 3f 5e a4 54 64 cc fe c1 3f
       0.13760731193608977 0.1405883302589101
000170 76 91 af 97 26 60 c2 3f c1 2b 74 57 2a c1 c2 3f
       0.14355928808721402 0.1465199400921318
000180 1b a4 86 91 d5 21 c3 3f 19 8f 6e 30 26 82 c3 3f
       0.1494700394225966 0.15240933766210032
000190 dc 58 27 1b 1a e2 c3 3f bd da f7 34 af 41 c4 3f
       0.15533758474220505 0.15825452886902794
0001a0 f8 81 8c 5d e3 a0 c4 3f 70 fd af 70 b4 ff c4 3f
       0.16115991657080975 0.16405349256818225
0001b0 af 3d 4b 46 20 5e c5 3f 7f 27 31 b2 24 bc c5 3f
       0.16693499977416823 0.1698041791990441
0001c0 95 29 f6 83 bf 19 c6 3f dd c3 0c 87 ee 76 c6 3f
       0.1726607698768247 0.17550450891715644
0001d0 d5 95 80 82 af d3 c6 3f 2b 11 c2 38 00 30 c7 3f
       0.178335131379909 0.18115237018003802
0001e0 f2 3a ab 67 de 8b c7 3f ba c3 60 c8 47 e7 c7 3f
       0.18395595609623389 0.18674561771470427
0001f0 b5 54 08 0f 3a 42 c8 3f f5 33 d9 ea b2 9c c8 3f
       0.18952108129511705 0.19228207080087115
000200 67 b3 d9 05 b0 f6 c8 3f 2a ed d0 04 2f 50 c9 3f
       0.1950283077780128 0.19775951132928898
000210 57 54 0b 87 2d a9 c9 3f 80 6c 39 26 a9 01 ca 3f
       0.20047539800603673 0.20317568174764133
000220 4a 2a 72 76 9f 59 ca 3f 77 7a d1 05 0e b1 ca 3f
       0.20586007388586075 0.2085282829675241
000230 bf 63 7f 5c f2 07 cb 3f cc 58 79 fc 49 5e cb 3f
       0.21118001476750511 0.21381497218926027
000240 79 4b 60 61 12 b4 cb 3f 71 42 50 00 49 09 cc 3f
       0.21643285517401603 0.21903336062725345
000250 85 32 c6 47 eb 5d cc 3f d6 2e 62 9f f6 b1 cc 3f
       0.2216161823711397 0.22418101103209293
000260 b8 bf c3 67 68 05 cd 3f f9 bb 6f fa 3d 58 cd 3f
       0.22672753397591605 0.22925543526022787
000270 30 91 73 a9 74 aa cd 3f ca 5b 46 bf 09 fc cd 3f
       0.23176439546581085 0.2342540916403933
000280 3f c5 c1 7e fa 4c ce 3f 0d a8 b4 22 44 9d ce 3f
       0.23672419728567637 0.2391743821584104
000290 bd 0f e3 dd e3 ec ce 3f 33 64 b5 da d6 3b cf 3f
       0.24160431227039494 0.24401364974144854
0002a0 30 56 ec 3a 1a 8a cf 3f 56 df a0 17 ab d7 cf 3f
       0.24640205266102688 0.248769175088223
0002b0 0a e7 7a 40 43 12 d0 3f 63 09 e7 be 54 38 d0 3f
       0.25111466690906126 0.2534381737024402
0002c0 14 ca cf 85 08 5e d0 3f e3 01 23 0f 5d 83 d0 3f
       0.25573933665796855 0.25801779249380113
0002d0 e5 51 ce cf 50 a8 d0 3f bd e4 c3 37 e2 cc d0 3f
       0.2602731732706885 0.262505106409275
0002e0 3f ad b6 b1 0f f1 d0 3f d4 ae fc a2 d7 14 d1 3f
       0.26471321444360635 0.26689711491301904
0002f0 ee 7f 98 6b 38 38 d1 3f 31 23 e0 65 30 5b d1 3f
       0.26905642039673594 0.27119073818953426
000300 8e 76 79 e6 bd 7d d1 3f 82 29 34 3c df 9f d1 3f
       0.27329967028877256 0.2753828132560089
000310 da c1 dd af 92 c1 d1 3f f9 74 27 84 d6 e2 d1 3f
       0.2774397580569975 0.27947008996655104
000320 a1 2c 7a f5 a8 03 d2 3f bd fa c6 39 08 24 d2 3f
       0.2814733884085375 0.2834492267829026
000330 89 14 74 80 f2 43 d2 3f 86 98 35 f2 65 63 d2 3f
       0.2853971723964795 0.2873167863202827
000340 01 7b c1 b0 60 82 d2 3f e8 a7 d6 d6 e0 a0 d2 3f
       0.2892076231127448 0.2910692308456633
000350 a6 02 fe 77 e4 be d2 3f 82 74 45 a0 69 dc d2 3f
       0.2929011508750058 0.2947029175900938
000360 01 8c 3d 54 6e f9 d2 3f 10 04 d7 90 f0 15 d3 3f
       0.2964740584049537 0.2982140936329083
000370 5d 98 f6 4a ee 31 d3 3f 9c 35 76 6f 65 4d d3 3f
       0.2999225360930547 0.3015988911145884
000380 55 e1 04 e3 53 68 d3 3f aa f3 cf 81 b7 82 d3 3f
       0.30324265642004394 0.304853321809612
000390 8a 9e 60 1f 8e 9c d3 3f 54 83 73 86 d5 b5 d3 3f
       0.3064303690357312 0.3079732716560575
0003a0 da 5b dd 78 8b ce d3 3f f2 72 2f af ad e6 d3 3f
       0.3094814949340027 0.3109544955057536
0003b0 9a 48 89 d8 39 fe d3 3f 95 b4 45 1f da 09 c4 3f
       0.31239172121161973 0.15655066039054036
0003c0 31 15 48 1f da 09 c4 bf ff e7 86 d8 39 fe d3 bf
       -0.1565506603948648 -0.31239172120297093
0003d0 56 12 2d af ad e6 d3 bf 5f 4d e3 78 8b ce d3 bf
       -0.31095449549710474 -0.30948149495562477
0003e0 8b 44 78 86 d5 b5 d3 bf b6 7c 59 1f 8e 9c d3 bf
       -0.30797327167335514 -0.3064303690097846
0003f0 24 02 ca 81 b7 82 d3 bf f0 41 07 e3 53 68 d3 bf
       -0.30485332178798985 -0.30324265642869275
000400 38 96 78 6f 65 4d d3 bf 10 68 f5 4a ee 31 d3 bf
       -0.30159889112323723 -0.2999225360887303
000410 ac 64 d9 90 f0 15 d3 bf d4 ad 44 54 6e f9 d2 bf
       -0.29821409364155715 -0.29647405843090024
000420 99 e3 41 a0 69 dc d2 bf 21 11 f8 77 e4 be d2 bf
       -0.2947029175771206 -0.2929011508533837
000430 e8 a7 d6 d6 e0 a0 d2 bf b3 4a c0 b0 60 82 d2 bf
       -0.2910692308456633 -0.28920762310842035
000440 21 f9 37 f2 65 63 d2 bf 5c 36 7b 80 f2 43 d2 bf
       -0.2873167863289315 -0.285397172422426
000450 21 9a c4 39 08 24 d2 bf b7 9b 76 f5 a8 03 d2 bf
       -0.2834492267742537 -0.2814733883955642
000460 95 d5 29 84 d6 e2 d1 bf 8c 91 dc af 92 c1 d1 bf
       -0.2794700899751999 -0.27743975805267307
000470 82 29 34 3c df 9f d1 bf c5 37 7e e6 bd 7d d1 bf
       -0.2753828132560089 -0.2732996703060702
000480 95 c2 dd 65 30 5b d1 bf 04 ef 94 6b 38 38 d1 bf
       -0.2711907381808854 -0.26905642038376265
000490 22 df fd a2 d7 14 d1 bf a3 4c b4 b1 0f f1 d0 bf
       -0.26689711491734347 -0.2647132144349575
0004a0 59 45 c6 37 e2 cc d0 bf 33 82 cf cf 50 a8 d0 bf
       -0.26250510641792385 -0.2602731732750129
0004b0 47 a1 20 0f 5d 83 d0 bf 62 fa d0 85 08 5e d0 bf
       -0.2580177924851523 -0.255739336662293
0004c0 63 09 e7 be 54 38 d0 bf f4 77 7e 40 43 12 d0 bf
       -0.2534381737024402 -0.25111466692203455
0004d0 ba 7e 9e 17 ab d7 cf bf 94 f5 e9 3a 1a 8a cf bf
       -0.24876917508389856 -0.24640205265670245
0004e0 cf c4 b7 da d6 3b cf bf 59 70 e5 dd e3 ec ce bf
       -0.24401364974577297 -0.24160431227471937
0004f0 a8 08 b7 22 44 9d ce bf 07 04 bd 7e fa 4c ce bf
       -0.2391743821627348 -0.2367241972770275
000500 f7 39 3f bf 09 fc cd bf c1 0e 6a a9 74 aa cd bf
       -0.23425409162742003 -0.23176439544851316
000510 cd dd 76 fa 3d 58 cd bf 8b e1 ca 67 68 05 cd bf
       -0.22925543527320116 -0.2267275339888893
000520 72 8f 64 9f f6 b1 cc bf 4d 71 c1 47 eb 5d cc bf
       -0.22418101103641735 -0.22161618236249084
000530 d5 e1 4d 00 49 09 cc bf 4c 6d 67 61 12 b4 cb bf
       -0.21903336062292902 -0.2164328551869893
000540 cc 58 79 fc 49 5e cb bf eb 41 78 5c f2 07 cb bf
       -0.21381497218926027 -0.21118001475453183
000550 db 19 cf 05 0e b1 ca bf 1d 4c 79 76 9f 59 ca bf
       -0.20852828296319967 -0.205860073898834
000560 ad 4a 32 26 a9 01 ca bf 15 b0 fa 86 2d a9 c9 bf
       -0.20317568173466807 -0.20047539797576577
000570 fd 0e d8 04 2f 50 c9 bf d6 35 e3 05 b0 f6 c8 bf
       -0.19775951134226225 -0.1950283077953105
000580 2d f5 dd ea b2 9c c8 bf 51 b5 0a 0f 3a 42 c8 bf
       -0.19228207080952 -0.18952108129944148
000590 1f 63 5e c8 47 e7 c7 bf 56 da a8 67 de 8b c7 bf
       -0.18674561771037987 -0.18395595609190946
0005a0 90 b0 bf 38 00 30 c7 bf a9 b7 87 82 af d3 c6 bf
       -0.18115237017571362 -0.1783351313928823
0005b0 14 85 11 87 ee 76 c6 bf 26 a7 ec 83 bf 19 c6 bf
       -0.17550450892580527 -0.172660769859527
0005c0 3d 83 20 b2 24 bc c5 bf e7 fe 4f 46 20 5e c5 bf
       -0.16980417916877313 -0.1669349997828171
0005d0 44 1f b7 70 b4 ff c4 bf f8 81 8c 5d e3 a0 c4 bf
       -0.16405349258115554 -0.16115991657080975
0005e0 f4 9b fc 34 af 41 c4 bf 41 f8 24 1b 1a e2 c3 bf
       -0.15825452887767677 -0.15533758473788065
0005f0 50 50 73 30 26 82 c3 bf 53 65 8b 91 d5 21 c3 bf
       -0.15240933767074916 -0.14947003943124545
000600 52 a9 6a 57 2a c1 c2 bf 06 0f a6 97 26 60 c2 bf
       -0.1465199400748341 -0.1435592880699163
000610 f9 04 57 64 cc fe c1 bf 3f 7f 41 cc 1d 9d c1 bf
       -0.1405883302632345 -0.13760731194906303
000620 09 23 01 db 1c 3b c1 bf 6b 85 04 99 cb d8 c0 bf
       -0.13461647695137227 -0.13161606761517972
000630 5d d9 c3 0b 2c 76 c0 bf 4d 6d b7 35 40 13 c0 bf
       -0.1286063249060118 -0.12558748839260617
000640 e5 2a 00 2d 14 60 bf bf 57 2c 1f 56 17 99 be bf
       -0.12255979632042686 -0.11952348568517955
000650 6f ff 2f db 8d d1 bd bf fe 35 7b ab 7b 09 bd bf
       -0.11647879220254052 -0.1134259503989696
000660 3e 99 45 b1 e4 40 bc bf 7a 6d de d1 cc 77 bb bf
       -0.11036519363333228 -0.10729675410987297
000670 6b 1b 41 ee 37 ae ba bf b9 8b 86 e2 29 e4 b9 bf
       -0.1042208630252454 -0.10113775043877994
000680 c9 52 90 86 a6 19 b9 bf 09 38 25 ae b1 4e b8 bf
       -0.09804764542816281 -0.09495077611538262
000690 59 27 b8 28 4f 83 b7 bf 05 e9 42 c2 82 b7 b6 bf
       -0.09184736961483732 -0.08873765223225767
0006a0 e8 c0 c5 42 50 eb b5 bf ce bb 7b 6e bb 1e b5 bf
       -0.08562184934794781 -0.08250018546435386
0006b0 8b d1 5f 06 c8 51 b4 bf 8a 62 23 c8 79 84 b3 bf
       -0.07937288432714788 -0.07624016891657895
0006c0 cd 37 2e 6e d4 b6 b2 bf 9d 57 ef af db e8 b1 bf
       -0.07310226144747319 -0.06995938344274895
0006d0 10 4e fe 41 93 1a b1 bf 3f ee 1f d6 fe 4b b0 bf
       -0.06681175576368781 -0.06365959861425895
0006e0 99 35 cf 36 44 fa ae bf e5 3e 36 7d 01 5c ad bf
       -0.06050313157139015 -0.057342573675780696
0006f0 1b cc 0f d4 3c bd ab bf 68 79 35 8b fd 1d aa bf
       -0.05417814339298151 -0.05101005863501734
000700 0c 03 16 ef 4a 7e a8 bf ed 0a d1 47 2c de a6 bf
       -0.04783853691606596 -0.04466379524867201
000710 c4 a4 66 d9 a8 3d a5 bf e0 a8 fa e4 c7 9c a3 bf
       -0.04148605016536913 -0.03830551786571035
000720 ef 96 62 a8 90 fb a1 bf 77 a9 71 5e 0a 5a a0 bf
       -0.035122414164375 -0.03193695452576411
000730 5d dc af 7e 78 70 9d bf 1c d0 4e 02 5b 2c 9a bf
       -0.028749354107244652 -0.025559827819691447
000740 e1 cb 64 ae ca e7 96 bf 1c 75 cc e5 d5 a2 93 bf
       -0.02236859025397198 -0.019175855780408133
000750 49 01 ab 09 8b 5d 90 bf da f9 3a ed f0 2f 8a bf
       -0.015981838669860058 -0.01278675292939806
000760 fd eb a4 0e 59 a4 83 bf 94 c8 8f 51 d6 30 7a bf
       -0.009590812453657444 -0.0063942310161896505
000770 34 22 45 a9 0f 31 6a bf 27 cc fc 58 2c 31 5a bf
       -0.0031972223170309236 -0.0015986378748038628
000780 1a 39 cc 9a ed 02 5a 3f 43 b0 62 d6 cd 02 6a 3f
       0.0015876121862593074 0.0031751652014318245
000790 d0 45 7c 40 8e 02 7a 3f a2 45 6c 31 9b 81 83 3f
       0.006350093528241854 0.00952454800202213
0007a0 e6 28 80 d7 8f 01 8a 3f 42 34 97 9b 82 40 90 3f
       0.012698291553551799 0.01587108683252248
0007b0 97 98 d4 b5 ed 7f 93 3f 06 ba c0 41 f9 be 96 3f
       0.01904269621186269 0.022212881696924945
0007c0 3f 08 b1 3e 95 fd 99 3f 73 92 b1 a2 b1 3b 9d 3f
       0.02538140483034845 0.028548026614219468
0007d0 e3 e8 d9 2c 9f 3c a0 3f cd 97 d9 a1 15 db a1 3f
       0.03171250746250267 0.03487460709293053
0007e0 cf ca 7f 19 34 79 a3 3f 1d 1c b6 75 f2 16 a5 3f
       0.03803408442754163 0.04119069754511193
0007f0 21 87 1d 90 48 b4 a6 3f 4b 4b 9c 39 2e 51 a8 3f
       0.04434420356007097 0.04749435857060876
