k_current_TRITOPS_S_ZKM_L_200_Delta0_0.4_Delta1_0.2_lambda_0.5_mu_2_tJ_0.5_theta_0.npy (npy, 144128 bytes, 1 tensors)

array f8 [75, 240]
0	0xbfa819be3d9291b8	-0.047071404472521505
1	0xbfa808a98ef1f086	-0.04694108838973059
2	0xbfa7e463e599ef7b	-0.04666435411215183
3	0xbfa7bc2e64e5904e	-0.0463575838246305
4	0xbfa7905b73e437ce	-0.046023233315380815
5	0xbfa760fe5ea9d67b	-0.04566187768516002
6	0xbfa72e2a6cfb4279	-0.045274091533092205
7	0xbfa6f7f2ddcf9112	-0.044860448433413094
8	0xbfa6be6ae38fa0df	-0.044421520498703286
9	0xbfa681a59f846e63	-0.04395787784798413
10	0xbfa641b61ef15634	-0.043470088269412704
11	0xbfa5feaf586765ba	-0.04295871690892335
12	0xbfa5b8a4285a7b3e	-0.04242432587238064
13	0xbfa56fa74f033b35	-0.041867473979087334
14	0xbfa523cb6ee2aedc	-0.04128871658880737
15	0xbfa4d5230a74ad53	-0.040688605333651616
16	0xbfa483c082a9f7d0	-0.04006768794077653
17	0xbfa42fb616208684	-0.039426508141571254
18	0xbfa3d915dfb0a9ab	-0.038765605503005084
19	0xbfa37ff1d5b85b50	-0.03808551534546345
20	0xbfa3245bc9ebb31f	-0.03738676872112578
21	0xbfa2c665681193a4	-0.036669892266935095
22	0xbfa2662036594035	-0.035935408243517854
23	0xbfa2039d95475810	-0.03518383452653506
24	0xbfa19eeebf1daf6c	-0.034415684537491525
25	0xbfa13824c8b60775	-0.03363146734319759
26	0xbfa0cf50a1788bdb	-0.032831687651444695
27	0xbfa064831348cdf3	-0.03201684580235655
28	0xbf9fef9987922ef9	-0.031187437915419534
29	0xbf9f127c688ecb7e	-0.03034395588083382
30	0xbf9e31cf84be25dc	-0.029486887433028616
31	0xbf9d4db3528b56af	-0.02861671630201695
32	0xbf9c66480395dacc	-0.027733922213395698
33	0xbf9b7bad86b316ad	-0.026838981005105
34	0xbf9a8e038a61f718	-0.025932364770134247
35	0xbf999d697dfb3f01	-0.025014541925712844
36	0xbf98a9fe93ec1998	-0.024085977343042936
37	0xbf97b3e1c30c71e5	-0.02314713242513901
38	0xbf96bb31c912936c	-0.02219846524953388
39	0xbf95c00d2d8becec	-0.02124043074125563
40	0xbf94c2924262326b	-0.020273480703098572
41	0xbf93c2df26fa29b0	-0.019298063997249038
42	0xbf92c111caf35e5e	-0.018314626705289043
43	0xbf91bd47ef32661e	-0.01732361218873823
44	0xbf90b79f2925b6cb	-0.016325461279328473
45	0xbf8f6069c9da674b	-0.0153206124044122
46	0xbf8d4e4ccf297eaf	-0.014309501716695065
47	0xbf8b3921a335c2f7	-0.01329256324126636
48	0xbf8921224198809b	-0.0122702289837096
49	0xbf870688681b31e4	-0.011242929150648125
50	0xbf84e98d993e246b	-0.010211092223260295
51	0xbf82ca6b20d3a6f0	-0.009175145091336628
52	0xbf80a95a1aafbf71	-0.008135513247878841
53	0xbf7d0d26eed2c57d	-0.007092620927481416
54	0xbf78c4a000baf6b1	-0.006046891223091031
55	0xbf747990b8942e7f	-0.004998746220063687
56	0xbf702c6a2bfc3c29	-0.003948607190763767
57	0xbf67bb3a81715fdb	-0.0028968947113234673
58	0xbf5e366ad7b4dab8	-0.0018440287956999323
59	0xbf49e6998255c241	-0.0007904290729766132
60	0x3f31448bd9e87328	0.0002634850915528724
61	0x3f559522264193a2	0.0013172944536787652
62	0x3f636b77487ee5f3	0.002370579695676106
63	0x3f6c0a62e9bba8d5	0.0034229213614383838
64	0x3f7253394bbbd0e7	0.004473899661878478
65	0x3f769f6255347bfa	0.0055230942846540235
66	0x3f7ae93b9668dedf	0.006570084346598753
67	0x3f7f3053deb03e60	0.007614448181825745
68	0x3f81ba1cdf56e956	0.00865576321199472
69	0x3f83da3dbf412260	0.009693605803606065
70	0x3f85f853898c78b5	0.01072755111232158
71	0x3f8814250a9ed092	0.011757172953231785
72	0x3f8a2d78dbc0f901	0.012782043653825516
73	0x3f8c44155deb5714	0.013801733902635095
74	0x3f8e57c0b52ab81a	0.014815812615179214
75	0x3f90342061b67e6b	0.015823846782608102
76	0x3f913aad91b9e73e	0.016825401324673132
77	0x3f923f6a92a1da84	0.01782003898594066
78	0x3f934239e3f33f27	0.01880732015416622
79	0x3f9442fddab41b8f	0.01978680274353511
80	0x3f9541989ed1eb45	0.020758042043307574
81	0x3f963dec29332057	0.02172059060538375
82	0x3f9737da41698c7b	0.0226739981102466
83	0x3f982f447b18b6a5	0.023617811215607038
84	0x3f99240c33e152bd	0.024551573435320096
85	0x3f9a161291abd1a9	0.025474825039923186
86	0x3f9b0538800eb6e7	0.02638710290528126
87	0x3f9bf15eae601a00	0.02728794040015181
88	0x3f9cda658e26404d	0.02817686729537199
89	0x3f9dc02d50ca060b	0.029053409629801446
90	0x3f9ea295e62d81e0	0.02991708962815831
91	0x3f9f817efabd8649	0.030767425588584172
92	0x3fa02e63fad49663	0.03160393177885792
93	0x3fa09a27fc085024	0.03242611838882706
94	0x3fa103faedb15912	0.03323349143527045
95	0x3fa16bcc181fc87e	0.03402555269703188
96	0x3fa1d18a9ea43d78	0.03480179964582936
97	0x3fa235257f274400	0.035561725398686406
98	0x3fa2968b924f5eca	0.036304818735229796
99	0x3fa2f5ab8a76c30f	0.03703056397660564
100	0x3fa35273f4698943	0.03773844107196791
101	0x3fa3acd3372c9e75	0.038427925572531864
102	0x3fa404b793e13d03	0.03909848861860079
103	0x3fa45a0f26799adc	0.03974959702173006
104	0x3fa4acc7e63e0b8d	0.040380713325269026
105	0x3fa4fccfa65ba4ca	0.04099129586922741
106	0x3fa54a1416db7db6	0.04158079890271031
107	0x3fa59482c5f9067d	0.042148672739597416
108	0x3fa5dc0920e03909	0.04269436384503151
109	0x3fa620947617b735	0.043217315116505985
110	0x3fa66211f6cd9ffd	0.04371696603521966
111	0x3fa6a06eb94b3024	0.04419275295148875
112	0x3fa6db97bb97ef07	0.04464410939178092
113	0x3fa71379e5a13bc2	0.045070466309531834
114	0x3fa748020d2a4f3a	0.04547125254353408
115	0x3fa7791cf92d9995	0.04584589521145969
116	0x3fa7a6b765a6ba84	0.04619382015095133
117	0x3fa7d0be081127c3	0.04651445244287757
118	0x3fa7f71d94035aeb	0.04680721694756137
119	0x3f9809612aeb5bdd	0.02347328018626259
120	0xbf9809612ad856ff	-0.02347328018193817
121	0xbfa7f71d94165fc9	-0.046807216956210214
122	0xbfa7d0be0807a554	-0.04651445243855315
123	0xbfa7a6b76593b5a6	-0.046193820142302486
124	0xbfa7791cf9371c04	-0.04584589521578411
125	0xbfa748020d33d1a9	-0.045471252547858505
126	0xbfa71379e597b953	-0.04507046630520741
127	0xbfa6db97bb97ef07	-0.04464410939178092
128	0xbfa6a06eb967b772	-0.044192752964462026
129	0xbfa66211f6c41d8e	-0.04371696603089524
130	0xbfa620947604b257	-0.04321731510785714
131	0xbfa5dc0920e9bb78	-0.04269436384935593
132	0xbfa59482c5ef840e	-0.04214867273527299
133	0xbfa54a1416db7db6	-0.04158079890271031
134	0xbfa4fccfa65ba4ca	-0.04099129586922741
135	0xbfa4acc7e63e0b8d	-0.040380713325269026
136	0xbfa45a0f26799adc	-0.03974959702173006
137	0xbfa404b793d7ba94	-0.03909848861427637
138	0xbfa3acd3372c9e75	-0.038427925572531864
139	0xbfa35273f4861090	-0.03773844108494118
140	0xbfa2f5ab8a6d40a0	-0.037030563972281216
141	0xbfa2968b923c59eb	-0.036304818726580944
142	0xbfa235257f3a48de	-0.03556172540733525
143	0xbfa1d18a9e9abb09	-0.034801799641504934
144	0xbfa16bcc181fc87e	-0.03402555269703188
145	0xbfa103faedbadb81	-0.03323349143959487
146	0xbfa09a27fc11d294	-0.03242611839315149
147	0xbfa02e63fad49663	-0.03160393177885792
148	0xbf9f817efa977c8d	-0.030767425579935326
149	0xbf9ea295e61a7d02	-0.029917089623833888
150	0xbf9dc02d50dd0ae9	-0.02905340963412587
151	0xbf9cda658e39452b	-0.02817686729969641
152	0xbf9bf15eae731edf	-0.027287940404476237
153	0xbf9b0538800eb6e7	-0.02638710290528126
154	0xbf9a161291abd1a9	-0.025474825039923186
155	0xbf99240c33f4579b	-0.02455157343964452
156	0xbf982f447b18b6a5	-0.023617811215607038
157	0xbf9737da417c9159	-0.022673998114571024
158	0xbf963dec29332057	-0.02172059060538375
159	0xbf9541989eabe188	-0.020758042034658725
160	0xbf9442fddaa116b1	-0.01978680273921069
161	0xbf934239e3f33f27	-0.01880732015416622
162	0xbf923f6a92a1da84	-0.01782003898594066
163	0xbf913aad91b9e73e	-0.016825401324673132
164	0xbf90342061b67e6b	-0.015823846782608102
165	0xbf8e57c0b52ab81a	-0.014815812615179214
166	0xbf8c44155deb5714	-0.013801733902635095
167	0xbf8a2d78dbc0f901	-0.012782043653825516
168	0xbf8814250aeae40b	-0.011757172961880632
169	0xbf85f853898c78b5	-0.01072755111232158
170	0xbf83da3dbf1b18a3	-0.00969360579928164
171	0xbf81ba1cdf56e956	-0.00865576321199472
172	0xbf7f3053de642ae8	-0.007614448177501322
173	0xbf7ae93b9668dedf	-0.006570084346598753
174	0xbf769f6254e86881	-0.0055230942803296
175	0xbf7253394b6fbd6e	-0.0044738996575540545
176	0xbf6c0a62eaebf6b9	-0.003422921370087231
177	0xbf636b77487ee5f3	-0.002370579695676106
178	0xbf55952223e0f7db	-0.0013172944450299182
179	0xbf31448bdea9aab6	-0.00026348509587729595
180	0x3f49e6997ff5267b	0.0007904290686521898
181	0x3f5e366ad7b4dab8	0.0018440287956999323
182	0x3f67bb3a820986cc	0.0028968947156478905
183	0x3f702c6a2bb028b0	0.003948607186439343
184	0x3f747990b8481b07	0.004998746215739264
185	0x3f78c4a001070a2a	0.006046891227415455
186	0x3f7d0d26ef1ed8f6	0.00709262093180584
187	0x3f80a95a1aafbf71	0.008135513247878841
188	0x3f82ca6b20ad9d33	0.009175145087012204
189	0x3f84e98d993e246b	0.010211092223260295
190	0x3f87068868413ba0	0.011242929154972547
191	0x3f892122417276de	0.012270228979385175
192	0x3f8b3921a2e9af7e	0.013292563232617512
193	0x3f8d4e4ccf4f886c	0.01430950172101949
194	0x3f8f6069c9da674b	0.0153206124044122
195	0x3f90b79f2925b6cb	0.016325461279328473
196	0x3f91bd47ef456afc	0.01732361219306265
197	0x3f92c111cb06633d	0.01831462670961347
198	0x3f93c2df26fa29b0	0.019298063997249038
199	0x3f94c292423c28af	0.020273480694449727
200	0x3f95c00d2d8becec	0.02124043074125563
201	0x3f96bb31c925984a	0.022198465253858303
202	0x3f97b3e1c30c71e5	0.02314713242513901
203	0x3f98a9fe93ff1e77	0.024085977347367362
204	0x3f999d697e0e43e0	0.02501454193003727
205	0x3f9a8e038a4ef23a	0.025932364765809825
206	0x3f9b7bad868d0cf1	0.026838980996456156
207	0x3f9c66480382d5ee	0.027733922209071275
208	0x3f9d4db3528b56af	0.02861671630201695
209	0x3f9e31cf84be25dc	0.029486887433028616
210	0x3f9f127c688ecb7e	0.03034395588083382
211	0x3f9fef9987a533d7	0.031187437919743956
212	0x3fa0648313525062	0.032016845806680974
213	0x3fa0cf50a1788bdb	0.032831687651444695
214	0x3fa13824c8ac8506	0.033631467338873164
215	0x3fa19eeebf1daf6c	0.034415684537491525
216	0x3fa2039d9550da7f	0.035183834530859485
217	0x3fa2662036594035	0.035935408243517854
218	0x3fa2c66568081135	0.03666989226261067
219	0x3fa3245bc9ebb31f	0.03738676872112578
220	0x3fa37ff1d5cb602e	0.038085515354112295
221	0x3fa3d915dfa7273c	0.03876560549868066
222	0x3fa42fb616170415	0.03942650813724683
223	0x3fa483c082b37a3f	0.040067687945100953
224	0x3fa4d5230a7e2fc2	0.04068860533797604
225	0x3fa523cb6eec314c	0.0412887165931318
226	0x3fa56fa74ef9b8c6	0.04186747397476291
227	0x3fa5b8a428477660	0.04242432586373179
228	0x3fa5feaf585de34a	0.04295871690459892
229	0x3fa641b61efad8a4	0.043470088273737134
230	0x3fa681a59f8df0d3	0.043957877852308556
231	0x3fa6be6ae399234e	0.04442152050302771
232	0x3fa6f7f2ddcf9112	0.044860448433413094
233	0x3fa72e2a6cf1c00a	0.04527409152876778
234	0x3fa760fe5ea9d67b	0.04566187768516002
235	0x3fa7905b73dab55f	0.04602323331105639
236	0x3fa7bc2e64e5904e	0.0463575838246305
237	0x3fa7e463e5acf459	0.04666435412080067
238	0x3fa808a98edeeba8	0.04694108838108174
239	0x3fa819be3d59831e	0.04707140444657497
240	0xbf705cd1b04513bc	-0.0039947691878454115
241	0xbf7ffa3241886c57	-0.007806965172245737
242	0xbf8ea07a0d1832eb	-0.014954522633183717
243	0xbf9583dff118681d	-0.021010874834338823
244	0xbf9a76a7ae774139	-0.025843257926511518
245	0xbf9e3f8868dbd5e4	-0.02953923358923828
246	0xbfa087cd5782c25d	-0.03228608792540364
247	0xbfa18dbeef89f55f	-0.03428455995615808
248	0xbfa2486e56050dc6	-0.03570885467572853
249	0xbfa2c9df2724d42b	-0.03669640877561905
250	0xbfa31fa6c4cac6d0	-0.03735085632560031
251	0xbfa353d0ffaf7f62	-0.03774884339486452
252	0xbfa36dc243497d48	-0.037946768487695126
253	0xbfa372ef3f8e9802	-0.03798625613062258
254	0xbfa36766a24ece44	-0.037898261368721126
255	0xbfa34e34c1f4e939	-0.03770604007373141
