k_current_L_200_Delta0_0.4_Delta1_0.2_lambda_0.5_mu_1_tJ_0.5_theta_0.npy (npy, 144128 bytes, 1 tensors)

array f8 [75, 240]
000000 d0 2b 1c 4a 5b dd 44 3f 91 94 d5 00 39 dd 54 3f
       0.0006367393254732515 0.0012734467194033575
000010 e9 da 10 70 f4 dc 64 3f 48 51 95 3d c3 4a 6f 3f
       0.002546765725607404 0.0038198293010884045
000020 ec 92 81 2b e2 db 74 3f 2c 47 b6 93 d9 11 7a 3f
       0.0050925097239982 0.006364679250866517
000030 5d 92 c1 8b 25 47 7f 3f 88 03 8c e3 d1 3d 82 3f
       0.007636210120925383 0.008906974560433559
000040 15 a7 ce fa 98 d7 84 3f 8d 7e 74 e3 d6 70 87 3f
       0.010176844743756722 0.011445692840936128
000050 49 f3 cc 73 7a 09 8a 3f 20 c9 a0 7f 72 a1 8c 3f
       0.012713390978768795 0.013979811210536541
000060 e9 c3 b8 da ad 38 8f 3f db 85 3e ab 8d e7 90 3f
       0.015244825589521187 0.01650830609981378
000070 67 96 fa e0 54 32 92 3f 0f 29 56 f5 a3 7c 93 3f
       0.01777012465631458 0.019030153130679624
000080 aa 7b c0 4d 72 c6 94 3f a5 91 c4 4e b7 0f 96 3f
       0.02028826331672532 0.021544326956375
000090 31 08 5e 5b 6a 58 97 3f be 29 45 d5 82 a0 98 3f
       0.022798215700739092 0.024049801127412833
0000a0 82 da a2 1c f8 e7 99 3f ad b5 82 90 c1 2e 9b 3f
       0.025298954723178564 0.026545547909952272
0000b0 9a e1 27 8e d6 74 9c 3f 35 01 d4 70 2e ba 9d 3f
       0.02778945200586378 0.02903053821228348
0000c0 eb 5a 5f 92 c0 fe 9e 3f 78 67 89 25 42 21 a0 3f
       0.030268677648417713 0.03150374134265993
0000d0 69 ce 61 78 b8 c2 a0 3f 57 c0 a2 eb be 63 a1 3f
       0.032735600180697606 0.033964124931458776
0000e0 12 6d 81 28 51 04 a2 3f a9 b1 ef d6 6a a4 a2 3f
       0.03518918628170743 0.03641065477117717
0000f0 b7 9f b8 9d 07 44 a3 3f d0 ff 89 22 23 e3 a3 3f
       0.037628400805544464 0.03884229466075306
000100 36 ca d7 09 b9 81 a4 3f b8 2b ef f6 c4 1f a5 3f
       0.04005220647004075 0.041258006232588185
000110 b0 85 f6 8b 42 bd a5 3f 8a 5a a1 69 2d 5a a6 3f
       0.0424595638135189 0.04365674890930389
000120 c6 4d 30 2f 81 f6 a6 3f 91 32 aa 7a 39 92 a7 3f
       0.044849431047761665 0.046037479614004735
000130 e8 06 c9 e8 51 2d a8 3f 3f db 9a 14 c6 c7 a8 3f
       0.0472207638417908 0.0483991527702785
000140 fb e5 cd 97 91 61 a9 3f d8 74 77 0a b0 fa a9 3f
       0.049572515278622796 0.050740720060028444
000150 ea ec 13 03 1d 93 aa 3f 12 de d2 16 d4 2a ab 3f
       0.05190363562175 0.05306113031968719
000160 c1 54 e2 d8 d0 c1 ab 3f e3 6f c4 da 0e 58 ac 3f
       0.05421307227622086 0.05535932941913282
000170 e2 f1 91 ac 89 ed ac 3f 2b 9c 6b dc 3c 82 ad 3f
       0.056499769511876755 0.05763426008871194
000180 55 bb a9 f6 23 16 ae 3f fd 2b ef 85 3a a9 ae 3f
       0.05876266847632531 0.059884861802480295
000190 77 42 ca 12 7c 3b af 3f fb e7 26 24 e4 cc af 3f
       0.06100070695277265 0.06211007062252346
0001a0 ba 3e 6e 1f b7 2e b0 3f 2e 70 e0 f2 8a 76 b0 3f
       0.06321281926488612 0.06430881909949512
0001b0 3f 3a e7 4c eb bd b0 3f 01 47 e7 ec d5 04 b1 3f
       0.06539793612976384 0.0664800361039646
0001c0 0c 40 49 91 48 4b b1 3f 5e 08 62 f7 40 91 b1 3f
       0.06755498454117531 0.06862264670965731
0001d0 d2 3e 7c db bc d6 b1 3f 93 f5 b6 f8 b9 1b b2 3f
       0.06968288763550426 0.07073557207237106
0001e0 71 39 22 09 36 60 b2 3f dc 11 bf c5 2e a4 b2 3f
       0.07178056452742056 0.0728177292613234
0001f0 97 f9 62 e6 a1 e7 b2 3f 35 96 96 21 8d 2a b3 3f
       0.07384693026231158 0.07486803121590742
000200 5c 0a dd 2c ee 6c b3 3f 72 6e 97 bc c2 ae b3 3f
       0.07588089556979 0.07688538650784851
000210 60 7e bd 83 08 f0 b3 3f e9 b1 3c 34 bd 30 b4 3f
       0.077881366885316 0.07886869931525776
000220 0c 2e bf 7e de 70 b4 3f bc 3d 8f 12 6a b0 b4 3f
       0.07984724611667832 0.08081686928857484
000230 ae 21 d5 9d 5d ef b4 3f 88 40 59 cd b6 2d b5 3f
       0.08177743056615469 0.08272879136461786
000240 d3 f1 ae 4c 73 6b b5 3f 0e b3 09 c6 90 a8 b5 3f
       0.0836708128180768 0.08460335574063668
000250 a4 27 3d e2 0c e5 b5 3f 1f a5 ec 48 e5 20 b6 3f
       0.08552628062639528 0.08643944769268729
000260 ad 1f 3f a0 17 5c b6 3f a4 72 00 8d a1 96 b6 3f
       0.08734271681089352 0.08823594753671188
000270 ba 21 a6 b2 80 d0 b6 3f 5f 15 41 b3 b2 09 b7 3f
       0.08911899911448176 0.08999173046421081
000280 a7 d4 65 2f 35 42 b7 3f cc cd 4d c6 05 7a b7 3f
       0.0908540001599528 0.09170566646007855
000290 fe 94 d2 15 22 b1 b7 3f 4f 53 2b ba 87 e7 b7 3f
       0.0925465873029516 0.09337662024638614
0002a0 35 da 38 4e 34 1d b8 3f a7 9e 72 6b 25 52 b8 3f
       0.09419562253683796 0.0950034510921066
0002b0 f0 2c b7 a9 58 86 b8 3f e2 b4 7b 9f cb b9 b8 3f
       0.09579996245809119 0.09658501285203472
0002c0 0e 00 a6 e1 7b ec b8 3f 09 33 91 03 67 1e b9 3f
       0.09735845812792851 0.09812015378083684
0002d0 75 93 25 97 8a 4f b9 3f f4 c1 c0 2c e4 7f b9 3f
       0.09886995496851887 0.09960771648980665
0002e0 7f 76 27 53 71 af b9 3f 20 8a ab 97 2f de b9 3f
       0.10033329277163182 0.10104653790362095
0002f0 7c e3 df 85 1c 0c ba 3f f1 cd f2 a7 35 39 ba 3f
       0.10174730556890482 0.10243544912628245
000300 a3 2e 83 86 78 65 ba 3f 03 71 54 a8 e2 90 ba 3f
       0.10311082157130129 0.10377327546706643
000310 f6 6e eb 92 71 bb ba 3f a5 53 1c ca 22 e5 ba 3f
       0.10442266308694656 0.1050588363107879
000320 ba 91 e4 cf f3 0d bb 3f b0 c6 f4 24 e2 35 bb 3f
       0.10568164659031867 0.1062909450745575
000330 7a a2 51 48 eb 5c bb 3f c6 dd 2d b7 0c 83 bb 3f
       0.10688658252332486 0.10746840927264775
000340 fd 95 57 ed 43 a8 bb 3f ff fa f0 64 8e cc bb 3f
       0.1080362753342214 0.10859003033054292
000350 b5 cc 66 96 e9 ef bb 3f 06 26 9b f8 52 12 bc 3f
       0.10912952348626244 0.10965460366710297
000360 f6 77 d2 00 c8 33 bc 3f 74 c8 ae 22 46 54 bc 3f
       0.11016511936256265 0.11066091868159039
000370 e4 2f 26 d0 ca 73 bc 3f a7 21 a4 79 53 92 bc 3f
       0.11114184934393695 0.11160775871042593
000380 98 23 e8 8d dd af bc 3f 1f 94 1d 7a 66 cc bc 3f
       0.11205849375268284 0.1124939010747572
000390 c3 27 d2 a9 eb e7 bc 3f 2a e9 f5 86 6a 02 bd 3f
       0.11291382690447364 0.11331811709343201
0003a0 c0 7c e9 79 e0 1b bd 3f c1 55 53 e9 4a 34 bd 3f
       0.11370661712998054 0.11407917210029607
0003b0 5e b1 0c 3a a7 4b bd 3f c8 40 3e 87 11 57 ad 3f
       0.1144356266710864 0.0573049047080772
0003c0 7b b9 21 87 11 57 ad bf cd 33 16 3a a7 4b bd bf
       -0.05730490469510393 -0.11443562667973524
0003d0 30 d8 5c e9 4a 34 bd bf 89 bb e4 79 e0 1b bd bf
       -0.11407917210894492 -0.11370661712565612
0003e0 2a e9 f5 86 6a 02 bd bf c3 27 d2 a9 eb e7 bc bf
       -0.11331811709343201 -0.11291382690447364
0003f0 8e 16 27 7a 66 cc bc bf 98 23 e8 8d dd af bc bf
       -0.11249390108340604 -0.11205849375268284
000400 38 9f 9a 79 53 92 bc bf e4 2f 26 d0 ca 73 bc bf
       -0.11160775870177708 -0.11114184934393695
000410 ac 89 b3 22 46 54 bc bf 2e 39 d7 00 c8 33 bc bf
       -0.11066091868591482 -0.11016511936688708
000420 06 26 9b f8 52 12 bc bf 7d 0b 62 96 e9 ef bb bf
       -0.10965460366710297 -0.10912952348193801
000430 90 78 e7 64 8e cc bb bf fd 95 57 ed 43 a8 bb bf
       -0.10859003032189407 -0.1080362753342214
000440 c6 dd 2d b7 0c 83 bb bf 42 e1 4c 48 eb 5c bb bf
       -0.10746840927264775 -0.10688658251900043
000450 57 0a 03 25 e2 35 bb bf ba 91 e4 cf f3 0d bb bf
       -0.10629094508753077 -0.10568164659031867
000460 36 d1 12 ca 22 e5 ba bf 9d b2 f9 92 71 bb ba bf
       -0.10505883630213905 -0.10442266309991984
000470 3a 32 59 a8 e2 90 ba bf fc ea 74 86 78 65 ba bf
       -0.10377327547139084 -0.10311082155832801
000480 f1 cd f2 a7 35 39 ba bf b4 a4 e4 85 1c 0c ba bf
       -0.10243544912628245 -0.10174730557322925
000490 e9 c8 a6 97 2f de b9 bf 7f 76 27 53 71 af b9 bf
       -0.10104653789929653 -0.10033329277163182
0004a0 bd 00 bc 2c e4 7f b9 bf 75 93 25 97 8a 4f b9 bf
       -0.09960771648548224 -0.09886995496851887
0004b0 40 f4 95 03 67 1e b9 bf 9f 7d 9c e1 7b ec b8 bf
       -0.09812015378516126 -0.09735845811927966
0004c0 aa f3 76 9f cb b9 b8 bf 60 af c0 a9 58 86 b8 bf
       -0.09658501284771029 -0.09579996246674005
0004d0 16 21 7c 6b 25 52 b8 bf 6d 9b 3d 4e 34 1d b8 bf
       -0.09500345110075545 -0.09419562254116239
0004e0 18 92 26 ba 87 e7 b7 bf c6 d3 cd 15 22 b1 b7 bf
       -0.09337662024206173 -0.09254658729862716
0004f0 3b 50 57 c6 05 7a b7 bf 6f 13 61 2f 35 42 b7 bf
       -0.0917056664687274 -0.09085400015562838
000500 28 54 3c b3 b2 09 b7 bf f2 e2 aa b2 80 d0 b6 bf
       -0.0899917304598864 -0.08911899911880619
000510 6d b1 fb 8c a1 96 b6 bf e5 e0 43 a0 17 5c b6 bf
       -0.08823594753238746 -0.08734271681521795
000520 57 66 f1 48 e5 20 b6 bf 6c 66 38 e2 0c e5 b5 bf
       -0.08643944769701171 -0.08552628062207085
000530 d6 f1 04 c6 90 a8 b5 bf d3 f1 ae 4c 73 6b b5 bf
       -0.08460335573631225 -0.0836708128180768
000540 88 40 59 cd b6 2d b5 bf 77 60 d0 9d 5d ef b4 bf
       -0.08272879136461786 -0.08177743056183027
000550 85 7c 8a 12 6a b0 b4 bf 44 ef c3 7e de 70 b4 bf
       -0.08081686928425043 -0.07984724612100275
000560 58 34 46 34 bd 30 b4 bf 60 7e bd 83 08 f0 b3 bf
       -0.07886869932390661 -0.077881366885316
000570 aa 2f 9c bc c2 ae b3 bf cb 8c e6 2c ee 6c b3 bf
       -0.07688538651217294 -0.07588089557843884
000580 c6 13 8d 21 8d 2a b3 bf 28 77 59 e6 a1 e7 b2 bf
       -0.07486803120725857 -0.07384693025366273
000590 13 d3 c3 c5 2e a4 b2 bf 71 39 22 09 36 60 b2 bf
       -0.07281772926564782 -0.07178056452742056
0005a0 93 f5 b6 f8 b9 1b b2 bf 9a 7d 77 db bc d6 b1 bf
       -0.07073557207237106 -0.06968288763117983
0005b0 5e 08 62 f7 40 91 b1 bf 43 01 4e 91 48 4b b1 bf
       -0.06862264670965731 -0.06755498454549973
0005c0 c9 85 e2 ec d5 04 b1 bf 76 fb eb 4c eb bd b0 bf
       -0.06648003609964016 -0.06539793613408826
0005d0 9d f2 e9 f2 8a 76 b0 bf 82 7d 69 1f b7 2e b0 bf
       -0.06430881910814397 -0.06321281926056169
0005e0 1d e3 13 24 e4 cc af bf 77 42 ca 12 7c 3b af bf
       -0.062110070613874614 -0.06100070695277265
0005f0 fd 2b ef 85 3a a9 ae bf 55 bb a9 f6 23 16 ae bf
       -0.059884861802480295 -0.05876266847632531
000600 2b 9c 6b dc 3c 82 ad bf 73 6f 88 ac 89 ed ac bf
       -0.05763426008871194 -0.05649976950755233
000610 e3 6f c4 da 0e 58 ac bf c1 54 e2 d8 d0 c1 ab bf
       -0.05535932941913282 -0.05421307227622086
000620 81 60 dc 16 d4 2a ab bf c9 f1 26 03 1d 93 aa bf
       -0.053061130324011614 -0.051903635630398855
000630 d8 74 77 0a b0 fa a9 bf 8c 63 c4 97 91 61 a9 bf
       -0.050740720060028444 -0.04957251527429837
000640 d0 58 91 14 c6 c7 a8 bf e8 06 c9 e8 51 2d a8 bf
       -0.04839915276595408 -0.0472207638417908
000650 91 32 aa 7a 39 92 a7 bf 57 cb 26 2f 81 f6 a6 bf
       -0.046037479614004735 -0.04484943104343724
000660 f9 dc aa 69 2d 5a a6 bf 8e 8a 09 8c 42 bd a5 bf
       -0.043656748913628314 -0.04245956382216774
000670 b8 2b ef f6 c4 1f a5 bf 58 c5 c4 09 b9 81 a4 bf
       -0.041258006232588185 -0.040052206461391904
000680 61 7d 80 22 23 e3 a3 bf 95 a4 cb 9d 07 44 a3 bf
       -0.03884229465642864 -0.03762840081419331
000690 19 34 f9 d6 6a a4 a2 bf a3 ea 77 28 51 04 a2 bf
       -0.0364106547755016 -0.03518918627738301
0006a0 c6 42 ac eb be 63 a1 bf f9 4b 58 78 b8 c2 a0 bf
       -0.0339641249357832 -0.03273560017637318
0006b0 9a 62 76 25 42 21 a0 bf c9 5f 72 92 c0 fe 9e bf
       -0.031503741334011084 -0.030268677652742135
0006c0 13 06 e7 70 2e ba 9d bf bb dc 14 8e d6 74 9c bf
       -0.029030538216607903 -0.027789452001539355
0006d0 ce b0 6f 90 c1 2e 9b bf 60 df b5 1c f8 e7 99 bf
       -0.026545547905627846 -0.025298954727502987
0006e0 be 29 45 d5 82 a0 98 bf 75 fe 37 5b 6a 58 97 bf
       -0.024049801127412833 -0.022798215692090246
0006f0 a5 91 c4 4e b7 0f 96 bf 45 8a f9 4d 72 c6 94 bf
       -0.021544326956375 -0.020288263329698592
000700 0f 29 56 f5 a3 7c 93 bf 88 91 e7 e0 54 32 92 bf
       -0.019030153130679624 -0.017770124651990155
000710 b9 8a 51 ab 8d e7 90 bf a6 cd de da ad 38 8f bf
       -0.016508306104138202 -0.015244825593845612
000720 63 bf 7a 7f 72 a1 8c bf 8c e9 a6 73 7a 09 8a bf
       -0.013979811206212117 -0.01271339097444437
000730 49 88 9a e3 d6 70 87 bf d2 b0 f4 fa 98 d7 84 bf
       -0.011445692845260551 -0.010176844748081147
000740 cc f9 65 e3 d1 3d 82 bf e4 7e 75 8b 25 47 7f bf
       -0.008906974556109136 -0.007636210116600959
000750 b3 33 6a 93 d9 11 7a bf 65 a6 cd 2b e2 db 74 bf
       -0.006364679246542093 -0.005092509728322624
000760 39 78 2d 3e c3 4a 6f bf e9 da 10 70 f4 dc 64 bf
       -0.0038198293054128277 -0.002546765725607404
000770 ae 46 a5 ff 38 dd 54 bf b5 bc 99 40 5b dd 44 bf
       -0.0012734467150789341 -0.0006367393081755575
000780 4f 23 31 1f 1c dd 44 3f bf 3e 63 b9 f9 dc 54 3f
       0.0006367099107445847 0.00127338778615986
000790 01 22 51 f4 b4 dc 64 3f 27 6b cc 81 63 4a 6f 3f
       0.0025466474785711406 0.0038196509834852624
0007a0 9e 74 24 df a1 db 74 3f df f1 29 71 88 11 7a 3f
       0.005092270194180374 0.006364376999610204
0007b0 f1 53 60 0f c3 46 7f 3f b7 a0 18 a9 97 3d 82 3f
       0.007635843232510973 0.008906540725618901
0007c0 0d f6 1e 68 55 d7 84 3f c6 57 71 8e 89 70 87 3f
       0.010176341285723667 0.011445116672046295
0007d0 d6 7e f5 e3 22 09 8a 3f 4e d6 60 2f 10 a1 8c 3f
       0.012712738591914723 0.013979078718061502
0007e0 6b 54 a0 35 40 38 8f 3f 15 20 7a dc 50 e7 90 3f
       0.0152440086713261 0.016507399994708367
0007f0 d9 35 ea bc 11 32 92 3f f6 fc 05 1b 5a 7c 93 3f
       0.017769124179315064 0.019029052638413334
