k_current_TRITOPS_S_ZKM_L_100_Delta0_0.4_Delta1_0.2_lambda_0.5_mu_2_tJ_0.5_theta_0.npy (npy, 144128 bytes, 1 tensors)

array f8 [75, 240]
-0.03866674671680731 -0.04251267829653896 -0.04636210771865411 -0.046243296890000944 -0.04596226289867517 -0.04562382769898832 -0.04524806146367261 -0.044841524421021565
-0.04440715225566101 -0.04394660730409421 -0.04346102044198697 -0.042951271590060416 -0.0424181102833426 -0.04186221269085465 -0.0412842106778989 -0.040684707549122665
-0.0400642869481818 -0.03942351819407932 -0.038762959509347515 -0.03808316005468923 -0.03738466130846895 -0.03666799794240859 -0.03593369844646664 -0.03518228558074046
-0.03441427668682477 -0.0336301839407904 -0.032830514575892124 -0.03201577104473453 -0.031186451151166944 -0.03034304820596268 -0.02948605115871393 -0.028615944705942385
-0.027733209429480776 -0.026838321906745653 -0.025931754827496857 -0.02501397714519231 -0.02408545417861198 -0.023146647735103956 -0.022198016255452632 -0.021240014937124768
-0.02027309586183999 -0.019297708146925618 -0.01831429805775167 -0.01732330915043684 -0.016325182423203313 -0.015320356452596122 -0.014309267527540265 -0.013292349783397833
-0.012270035366296103 -0.011242754552049193 -0.010210935910486149 -0.009175006448156914 -0.00813539173374062 -0.007092516055887047 -0.006046802581058068 -0.0049986734746115214
-0.0039485500629670815 -0.0028968529849610876 -0.0018440023194170358 -0.0007904177451492474 0.0002634813163311544 0.0013172755537858459 0.00237054561489448 0.0034228719678731337
0.004473834754443911 0.005523013629831271 0.006569987633029322 0.007614335041933639 0.00865563320252653 0.009693458401306544 0.010727385737717981 0.011756988931714044
0.01278184021997067 0.013801510204531714 0.01481556767983201 0.015823579524586774 0.016825110548274586 0.01781972333329591 0.018806978111727046 0.019786432633425194
0.020757641984402685 0.02172015849601407 0.022673531602250167 0.023617307662436665 0.02455102987907011 0.025474238146463064 0.026386468912362557 0.02728725506335286
0.028176125792960582 0.029052606478408582 0.029916218553045486 0.030766479400397315 0.031602902207137074 0.0324249958592986 0.03323226482551712 0.034024208979727875
0.03480032350602885 0.03556009873002819 0.036303019911271925 0.0370285670313472 0.03773621452144358 0.03842543086450612 0.03909567807630451 0.03974641097244333
0.04037707606130958 0.04098710988998074 0.041575936486328256 0.04214296322054423 0.04268757394228132 0.04320911722254527 0.04370688509482894 0.044180072695267754
0.04462769619805489 0.04504841142101084 0.045440066057476164 0.045798414511701795 0.04611250985803065 0.046340641144166354 0.04610435186336338 0.02289195034779557
-0.022891950349957783 -0.04610435185903896 -0.04634064114632856 -0.04611250986019286 -0.04579841450737737 -0.045440066057476164 -0.04504841142317305 -0.04462769619805489
-0.044180072695267754 -0.04370688509699115 -0.04320911722470748 -0.04268757394011911 -0.042142963216219805 -0.04157593649065268 -0.04098710988998074 -0.04037707605698516
-0.03974641097460554 -0.03909567807630451 -0.03842543086450612 -0.037736214523605795 -0.037028567029184986 -0.03630301990910972 -0.035560098732190404 -0.034800323510353275
-0.03402420897756567 -0.03323226481686827 -0.032424995863623025 -0.03160290220929929 -0.030766479398235104 -0.029916218555207697 -0.029052606478408582 -0.028176125795122794
-0.027287255065515072 -0.026386468912362557 -0.025474238144300852 -0.024551029881232322 -0.023617307660274454 -0.022673531600087955 -0.021720158500338496 -0.02075764198007826
-0.019786432631262982 -0.01880697811605147 -0.01781972333329591 -0.016825110546112375 -0.015823579522424563 -0.014815567677669797 -0.013801510204531714 -0.012781840224295092
-0.011756988933876255 -0.01072738573555577 -0.009693458401306544 -0.00865563320252653 -0.007614335041933639 -0.006569987635191533 -0.005523013629831271 -0.004473834752281699
-0.0034228719700353455 -0.00237054561489448 -0.0013172755537858459 -0.0002634813163311544 0.0007904177473114591 0.0018440023215792476 0.0028968529849610876 0.003948550065129293
0.0049986734746115214 0.006046802576733646 0.007092516055887047 0.00813539173374062 0.009175006448156914 0.010210935914810572 0.011242754552049193 0.012270035364133892
0.013292349781235622 0.014309267525378054 0.015320356454758335 0.016325182423203313 0.017323309148274627 0.01831429805342725 0.019297708151250044 0.020273095866164416
0.021240014934962557 0.022198016255452632 0.023146647735103956 0.02408545417861198 0.02501397714735452 0.025931754823172434 0.02683832190242123 0.02773320943596741
0.028615944708104597 0.02948605115871393 0.03034304820812489 0.031186451149004733 0.032015771040410104 0.032830514575892124 0.03363018394295261 0.03441427668682477
0.03518228558290267 0.03593369844862885 0.03666799794240859 0.03738466130414453 0.03808316005036481 0.038762959509347515 0.03942351820056596 0.040064286950344016
0.04068470754479824 0.0412842106778989 0.04186221268869243 0.042418110281180386 0.04295127159222263 0.043461020444149186 0.04394660730409421 0.04440715225782322
0.04484152442318378 0.045248061459348184 0.04562382769682611 0.045962262902999595 0.04624329689216315 0.04636210771649189 0.04251267829437674 0.03866674671680731
-0.003995310843511268 -0.0078079604512882005 -0.014956221428901538 -0.02101286865087686 -0.02584520599713553 -0.029540938413202468 -0.032287477090236445 -0.034285637237081217
-0.03570965869849273 -0.0366969882591795 -0.03735125801697508 -0.037749107465785726 -0.03794692762431782 -0.03798633614543065 -0.037898282311904154 -0.03770601734239927
00000000: 58cc 2eb9 20cc a3bf d4e3 e5c5 38c4 a5bf
00000010: 2eba d930 c6bc a7bf ef81 9a8f 33ad a7bf
00000020: 49fb ff9f 5d88 a7bf 705f c59f 015c a7bf
00000030: 2943 6300 c12a a7bf b73a c8e1 77f5 a6bf
00000040: 7a09 4bc5 88bc a6bf 8650 4872 2b80 a6bf
00000050: 41f3 e5da 8540 a6bf a212 9a85 b5fd a5bf
00000060: cba3 d998 d3b7 a5bf ae0d e4c4 f66e a5bf
00000070: d1ce 673d 3423 a5bf 4eda bd40 a0d4 a4bf
00000080: 0629 5c64 4e83 a4bf 3375 acc2 512f a4bf
00000090: 6313 c716 bdd8 a3bf ac2b edcd a27f a3bf
000000a0: 1f42 6213 1524 a3bf aee3 f1d7 25c6 a2bf
000000b0: dec5 4dd7 e665 a2bf 2485 ef9b 6903 a2bf
000000c0: 2654 c581 bf9e a1bf 1c4a 5eb8 f937 a1bf
000000d0: 2d20 d444 29cf a0bf b1cc 2f03 5f64 a0bf
000000e0: e81a 174f 57ef 9fbf a17e d27e 3f12 9fbf
000000f0: dcd0 a865 9731 9ebf 36ea 9f8a 7f4d 9dbf
00000100: 630b 0d2e 1866 9cbf 49d9 794b 817b 9bbf
00000110: 7ae0 a59b da8d 9abf 8c3f 2097 439d 99bf
00000120: 8499 0678 dba9 98bf 9420 233c c1b3 97bf
00000130: 2cb9 69a7 13bb 96bf b804 1646 f1bf 95bf
00000140: 3b71 dc6e 78c2 94bf b3e3 8345 c7c2 93bf
00000150: a836 d4bc fbc0 92bf d0da 0999 33bd 91bf
00000160: 7481 6f72 8cb7 90bf 896b 6a6f 4760 8fbf
00000170: 8ae7 7b60 2d4e 8dbf 637e dafc 0439 8bbf
00000180: f8b8 f344 0821 89bf 59ad f1f8 7006 87bf
00000190: b870 609e 78e9 84bf b058 1585 58ca 82bf
000001a0: a315 7ecb 49a9 80bf 2a2c 1ac8 0a0d 7dbf
000001b0: 12d4 4b35 88c4 78bf 3ba7 8c31 7d79 74bf
000001c0: 4c68 31d6 5a2c 70bf ba83 9d1a 24bb 67bf
000001d0: 9213 f669 4e36 5ebf 6dc9 cb2e 81e6 49bf
000001e0: 3201 02a3 7b44 313f ccd8 17db 0d95 553f
000001f0: 16ff 77fc 646b 633f b914 2265 480a 6c3f
00000200: c626 54df 2753 723f 48d6 a5ae 4c9f 763f
00000210: 9fc3 4da0 21e9 7a3f 7236 c67f 3530 7f3f
00000220: 1689 3f6c 0bba 813f c7cb 8cf6 29da 833f
00000230: 2313 5257 3df8 853f 356d b057 0c14 883f
00000240: 90dc d18d 5d2d 8a3f 9003 b657 f743 8c3f
00000250: e79e 40d5 9f57 8e3f 1a49 4172 0e34 903f
00000260: 35c7 390e 9a3a 913f 33d7 c263 553f 923f
00000270: c0b0 b4ef 2242 933f 48a1 4204 e542 943f
00000280: 863f dcc5 7d41 953f 4505 9e29 cf3d 963f
00000290: c1ae ddf2 ba37 973f 0873 1eb0 222f 983f
000002a0: 84a7 a7b9 e723 993f 9515 eb2e eb15 9a3f
000002b0: cc5e 24f4 0d05 9b3f e8fb 60b0 30f1 9b3f
000002c0: 6028 3ccb 33da 9c3f a3d7 c06a f7bf 9d3f
000002d0: 7ea5 3871 5ba2 9e3f d9de 597b 3f81 9f3f
000002e0: 186e e06e 412e a03f 62c6 9351 029a a03f
000002f0: 91f9 31c5 d103 a13f cb2e ae01 9f6b a13f
00000300: 887d b216 59d1 a13f a00e 2dea ee34 a23f
00000310: 7ea7 8736 4f96 a23f d6b2 d588 68f5 a23f
00000320: 4d27 7d3e 2952 a33f 91a7 cb81 7fac a33f
00000330: 3c5e 8145 5904 a43f 4c21 853e a459 a43f
00000340: 0003 62da 4dac a43f dbee 1131 43fc a43f
00000350: ebc9 04ef 7049 a53f 70d9 9331 c393 a53f
00000360: 152c 0e4c 25db a53f df3f b862 811f a63f
00000370: 9644 2fb4 bf60 a63f 29df b83e c59e a63f
00000380: 773b 55ff 70d9 a63f 277a 94db 9510 a73f
00000390: 8c35 4a9b eb43 a73f 77a4 12c9 e372 a73f
000003a0: 25ae 8d13 0f9c a73f 2f36 61e4 f5b9 a73f
000003b0: 32b0 e956 fd9a a73f 027d 57c8 fc70 973f
000003c0: 71ff 60c8 fc70 97bf c32d e056 fd9a a7bf
000003d0: 66f7 65e4 f5b9 a7bf 5c6f 9213 0f9c a7bf
000003e0: 0822 09c9 e372 a7bf 8c35 4a9b eb43 a7bf
000003f0: 5e3b 99db 9510 a7bf 773b 55ff 70d9 a6bf
00000400: 29df b83e c59e a6bf ce05 34b4 bf60 a6bf
00000410: 1601 bd62 811f a6bf dd6a 094c 25db a5bf
00000420: 0157 8a31 c393 a5bf 5a4c 0eef 7049 a5bf
00000430: dbee 1131 43fc a4bf 9180 58da 4dac a4bf
00000440: 83e2 893e a459 a4bf 3c5e 8145 5904 a4bf
00000450: 91a7 cb81 7fac a3bf 85e8 813e 2952 a3bf
00000460: 9ef1 d088 68f5 a2bf 47e6 8236 4f96 a2bf
00000470: d8cf 31ea ee34 a2bf f7ff bb16 59d1 a1bf
00000480: 946d a901 9f6b a1bf b3f4 1ec5 d103 a1bf
00000490: d148 9d51 029a a0bf 502f e56e 412e a0bf
000004a0: 6a5c 507b 3f81 9fbf ed27 4271 5ba2 9ebf
000004b0: a3d7 c06a f7bf 9dbf cfaa 45cb 33da 9cbf
000004c0: 577e 6ab0 30f1 9bbf cc5e 24f4 0d05 9bbf
000004d0: 2693 e12e eb15 9abf f329 b1b9 e723 99bf
000004e0: 99f0 14b0 222f 98bf 522c d4f2 ba37 97bf
000004f0: 240a b129 cf3d 96bf a73a c9c5 7d41 95bf
00000500: d91e 3904 e542 94bf 9eb5 c7ef 2242 93bf
00000510: 33d7 c263 553f 92bf c644 300e 9a3a 91bf
00000520: abc6 3772 0e34 90bf 089a 2dd5 9f57 8ebf
00000530: 9003 b657 f743 8cbf 4ce6 f78d 5d2d 8abf
00000540: 1372 c357 0c14 88bf 450e 3f57 3df8 85bf
00000550: c7cb 8cf6 29da 83bf 1689 3f6c 0bba 81bf
00000560: 7236 c67f 3530 7fbf 5bcd 73a0 21e9 7abf
00000570: 48d6 a5ae 4c9f 76bf 091d 2edf 2753 72bf
00000580: 3228 6e65 480a 6cbf 16ff 77fc 646b 63bf
00000590: ccd8 17db 0d95 55bf 3201 02a3 7b44 31bf
000005a0: 5017 fc2f 81e6 493f 843a 8e6a 4e36 5e3f
000005b0: ba83 9d1a 24bb 673f 0872 57d6 5a2c 703f
000005c0: 3ba7 8c31 7d79 743f 9ac0 ff34 88c4 783f
000005d0: 2a2c 1ac8 0a0d 7d3f a315 7ecb 49a9 803f
000005e0: b058 1585 58ca 823f 747a 869e 78e9 843f
000005f0: 59ad f1f8 7006 873f 1ab4 e044 0821 893f
00000600: 8579 c7fc 0439 8b3f ace2 6860 2d4e 8d3f
00000610: 6870 7d6f 4760 8f3f 7481 6f72 8cb7 903f
00000620: 6158 0099 33bd 913f ca31 c1bc fbc0 923f
00000630: 92e8 9645 c7c2 933f 1a76 ef6e 78c2 943f
00000640: 4982 0c46 f1bf 953f 2cb9 69a7 13bb 963f
00000650: 9420 233c c1b3 973f 8499 0678 dba9 983f
00000660: fbc1 2997 439d 993f 9cdb 929b da8d 9a3f
00000670: 6bd4 664b 817b 9b3f b092 292e 1866 9c3f
00000680: a56c a98a 7f4d 9d3f dcd0 a865 9731 9e3f
00000690: 1001 dc7e 3f12 9f3f 7998 0d4f 57ef 9f3f
000006a0: 424a 2603 5f64 a03f 2d20 d444 29cf a03f
000006b0: 540b 63b8 f937 a13f 2654 c581 bf9e a13f
000006c0: 5b46 f49b 6903 a23f 1587 52d7 e665 a23f
000006d0: aee3 f1d7 25c6 a23f b0bf 5813 1524 a33f
000006e0: 3da9 e3cd a27f a33f 6313 c716 bdd8 a33f
000006f0: dab8 bac2 512f a43f 3eea 6064 4e83 a43f
00000700: df57 b440 a0d4 a43f d1ce 673d 3423 a53f
00000710: 764c dfc4 f66e a53f 93e2 d498 d3b7 a53f
00000720: dad3 9e85 b5fd a53f 79b4 eada 8540 a63f
00000730: 8650 4872 2b80 a63f b1ca 4fc5 88bc a63f
00000740: effb cce1 77f5 a63f b9c0 5900 c12a a73f
00000750: 399e c09f 015c a73f b87d 09a0 5d88 a73f
00000760: 2643 9f8f 33ad a73f f6f8 d430 c6bc a73f
00000770: 9c22 e1c5 38c4 a53f 58cc 2eb9 20cc a33f
00000780: a652 9016 635d 70bf 1c81 966c 3dfb 7fbf
00000790: cc5b 450f 5ea1 8ebf 8d46 9abe 6584 95bf
000007a0: 5277 106a 2a77 9abf 5aec 82d1 fa3f 9ebf
000007b0: 4988 58f4 fb87 a0bf dfc2 4f15 e38d a1bf
000007c0: 6ecf 8550 8948 a2bf 88a7 de98 f2c9 a2bf
000007d0: 8773 4b3f b41f a3bf 2d98 09dc d953 a3bf
000007e0: 9d9f 429a c76d a3bf 7c04 e1ee f172 a3bf
000007f0: 2d5a 3556 6767 a3bf da2e b2fe 334e a3bf
