k_current_L_100_Delta0_0.2_Delta1_0.2_lambda_0.5_mu_1_tJ_1_theta_pi_over_4.npy (npy, 144128 bytes, 1 tensors)

array f8 [75, 240]
000000 50 24 87 68 de 33 4b 3f d4 e5 3c 76 ab 33 5b 3f
       0.0008301578500830107 0.0016602682525913475
000010 c7 01 e6 97 45 33 6b 3f cb d0 b3 db f4 65 74 3f
       0.0033203467602904465 0.004980045773880624
000020 3e a2 48 1f ae 31 7b 3f 49 32 81 d4 4d fe 80 3f
       0.006639175572253962 0.008297546432140328
000030 f4 f4 5f 45 45 63 84 3f 26 72 e5 ec a3 c7 87 3f
       0.009954968623782957 0.011611252467155952
000040 2b 79 90 55 50 2b 8b 3f 43 49 95 0b 31 8e 8e 3f
       0.013266208277908994 0.014919646421422633
000050 5b b5 22 4e 16 f8 90 3f b9 a6 49 ca 94 a8 92 3f
       0.016571377295510597 0.018221211287175552
000060 fc ef af 41 87 58 94 3f 8d 4c d0 fc e0 07 96 3f
       0.01986895883963767 0.021514430456659062
000070 98 12 8e 44 95 b6 97 3f fa c8 8a 62 97 64 99 3f
       0.023157436665786152 0.02479778803780961
000080 f9 30 4c a1 da 11 9b 3f e1 54 75 4c 52 be 9c 3f
       0.026435295195413187 0.028069768826146983
000090 cc 6a 54 b0 f1 69 9e 3f 7f f6 20 0d 56 0a a0 3f
       0.029701019656480906 0.031328858473426806
0000a0 69 60 9c 6c 3a df a0 3f 29 fe 78 9e 9f b3 a1 3f
       0.03295309615913384 0.0345735436389954
0000b0 ab f0 e8 4a 7f 87 a2 3f 87 e5 49 1b d3 5a a3 3f
       0.0361900118773247 0.03780231197465427
0000c0 fb 29 75 b9 94 2d a4 3f 8e ee cd cf bd ff a4 3f
       0.03941025508773418 0.04101365243601861
0000d0 b7 e6 bc 09 48 d1 a5 3f 03 e8 2f 13 2d a2 a6 3f
       0.042612315357883394 0.04420605525224632
0000e0 64 02 f9 98 66 72 a7 3f 8b 07 eb 48 ee 41 a8 3f
       0.0457946836218113 0.04737801208604172
0000f0 14 f0 70 d1 bd 10 a9 3f db be 17 e2 ce de a9 3f
       0.048955852333591704 0.050528016185010315
000100 4a ac 3d 2b 1b ac aa 3f fa 69 20 5e 9c 78 ab 3f
       0.05209431555598394 0.0536545624638229
000110 cd 44 62 2d 4c 44 ac 3f c2 3c 6d 4c 24 0f ad 3f
       0.0552085690880034 0.056756147698814555
000120 65 87 7c 6f 1e d9 ad 3f be b6 34 4c 34 a2 ae 3f
       0.058297110661682784 0.0598312705063626
000130 ad 75 95 99 5f 6a af 3f ec 32 ba 07 cd 18 b0 3f
       0.06135843992044996 0.06287843168884039
000140 20 17 5b b3 ee 7b b0 3f fb 55 06 ad 91 de b0 3f
       0.06439105871967543 0.06589613413083122
000150 9f 9a 84 d2 b2 40 b1 3f 8c 39 40 02 4f a2 b1 3f
       0.06739347114180781 0.06888288311913565
000160 7a 00 83 1b 63 03 b2 3f 5b bd 14 fe eb 63 b2 3f
       0.07036418363259314 0.07183718636655582
000170 9e ad 76 8a e6 c3 b2 3f e0 87 09 a2 4f 23 b3 3f
       0.07330170517405185 0.0747575541113572
000180 0a 94 ee 26 24 82 b3 3f 23 1f d8 fb 60 e0 b3 3f
       0.07620454740988705 0.07764249943295147
000190 39 11 5f 04 03 3e b4 3f 98 00 d1 24 07 9b b4 3f
       0.07907122475359508 0.0804905381091906
0001a0 72 23 75 42 6a f7 b4 3f bb a6 68 43 29 53 b5 3f
       0.08190025446414298 0.08330018897745621
0001b0 17 3a 50 0e 41 ae b5 3f 7d 5d 0a 8b ae 08 b6 3f
       0.08469015693138036 0.08606997389357747
0001c0 93 c1 33 a2 6e 62 b6 3f 7d 69 2e 3d 7e bb b6 3f
       0.08743945560468651 0.08879841798480999
0001d0 c2 5d 6b 46 da 13 b7 3f 45 fe 33 a9 7f 6b b7 3f
       0.09014667720054262 0.09148404961524033
0001e0 6c ab cd 51 6b c2 b7 3f c3 5b 51 2d 9a 18 b8 3f
       0.09281035182145353 0.09412540060416945
0001f0 bc a5 d1 29 09 6e b8 3f b7 a2 66 36 b5 c2 b8 3f
       0.09542901297540757 0.09672100618503064
000200 76 c3 00 43 9b 16 b9 3f 4f 3f a4 40 b8 69 b9 3f
       0.09800119767966273 0.09926940515674441
000210 72 0a 43 21 09 bc b9 3f e0 44 7a d7 8a 0d ba 3f
       0.10052544652993747 0.10176913986858294
000220 65 44 36 57 3a 5e ba 3f 2e b6 3b 95 14 ae ba 3f
       0.10300030354689367 0.10421875613584383
000230 a6 f5 03 87 16 fd ba 3f 28 e1 0d 23 3d 4b bb 3f
       0.10542431637073565 0.10661680322471467
000240 6e ae b0 60 85 98 bb 3f 51 46 0b 38 ec e4 bb 3f
       0.10779603586768768 0.10896183365118729
000250 1f 01 f6 a1 6e 30 bc 3f c9 84 fb 97 09 7b bc 3f
       0.1101140160953986 0.11125240288267259
000260 75 42 4f 14 ba c4 bc 3f 5d 1f 73 11 7d 0d bd 3f
       0.11237681384887728 0.11348706890123368
000270 12 c7 7e 8a 4f 55 bd 3f 7c 4f b2 7a 2e 9c bd 3f
       0.11458298808318215 0.11566439147492064
000280 84 ce 4d dd 16 e2 bd 3f 1d 3d 9d ad 05 27 be 3f
       0.11673109915664709 0.11778293121937052
000290 81 80 22 e6 f7 6a be 3f 68 87 07 81 ea ad be 3f
       0.11881970757031192 0.1198412480366905
0002a0 6c 31 41 77 da ef be 3f f0 49 fe bf c4 30 bf 3f
       0.12084737216463787 0.12183789908730325
0002b0 8d 5c 7a 50 a6 70 bf 3f ec 1e 2a 1b 7c af bf 3f
       0.12281264748377137 0.12377143538662566
0002c0 0b af ba 0e 43 ed bf 3f 60 c9 8a 0a fc 14 c0 3f
       0.12471407994842935 0.12564039721253106
0002d0 86 95 1a 09 cc 32 c0 3f e4 6c 23 f1 0f 50 c0 3f
       0.1265502018406261 0.12744330667815185
0002e0 9a 24 ea 2b c6 6c c0 3f e5 db 81 1c ed 88 c0 3f
       0.12831952232617 0.12917865650135166
0002f0 51 87 03 1e 83 a4 c0 3f 93 9d 8d 81 86 bf c0 3f
       0.13002051320568822 0.130844891794578
000300 8d 5e 71 8b f5 d9 c0 3f eb 31 45 6f ce f3 c0 3f
       0.1316515856622015 0.1324403804122903
000310 45 e8 06 4b 0f 0d c1 3f bf b7 76 20 b6 25 c1 3f
       0.13321105159212912 0.13396336159843078
000320 03 ea c7 cb c0 3d c1 3f af 49 e4 f6 2c 55 c1 3f
       0.13469705534210172 0.13541185431729505
000330 5f 4e 89 07 f8 6b c1 3f 8d 44 46 05 1f 82 c1 3f
       0.136107448272571 0.13678348310034885
000340 31 1d 63 73 9e 97 c1 3f f1 a2 0f 18 72 ac c1 3f
       0.13743954309595943 0.1380751245008223
000350 c5 95 6a a4 94 c0 c1 3f 10 bb 52 29 ff d3 c1 3f
       0.1386895945371817 0.13928212659580952
000360 0a 1c 11 33 a8 e6 c1 3f ec e3 55 44 82 f8 c1 3f
       0.13985159390924223 0.14039638840384272
000370 21 bb aa 20 79 09 c2 3f a4 7b 9f b2 6c 19 c2 3f
       0.14091409773887967 0.14140089723420346
000380 5d be c7 ca 26 28 c2 3f 49 3c 74 bf 44 35 c2 3f
       0.14185032750491447 0.14225062702505145
000390 42 6c d3 33 01 40 c2 3f f8 9a 48 f3 9c 46 c2 3f
       0.14257826834259119 0.1427799404056811
0003a0 ef 60 f9 b0 5d 44 c2 3f a5 42 c0 e7 5d 28 c2 3f
       0.1427113641864319 0.1418568975064051
0003b0 3e 56 91 da cf 92 c1 3f 85 30 3b 2c 0b 15 b1 3f
       0.1372928445077139 0.06672735051978591
0003c0 42 8c 2a 2c 0b 15 b1 bf 75 17 96 da cf 92 c1 bf
       -0.06672735050465042 -0.13729284451636273
0003d0 8f d3 c3 e7 5d 28 c2 bf ef 60 f9 b0 5d 44 c2 bf
       -0.14185689751289174 -0.1427113641864319
0003e0 f8 9a 48 f3 9c 46 c2 bf 0b ab ce 33 01 40 c2 bf
       -0.1427799404056811 -0.14257826833394235
0003f0 76 1a 6d bf 44 35 c2 bf f8 1e ca ca 26 28 c2 bf
       -0.1422506270120782 -0.14185032750923887
000400 61 2e aa b2 6c 19 c2 bf 6f eb ab 20 79 09 c2 bf
       -0.14140089725366337 -0.14091409774104188
000410 3a 14 57 44 82 f8 c1 bf bc eb 0f 33 a8 e6 c1 bf
       -0.14039638840600493 -0.13985159390708002
000420 26 2a 4f 29 ff d3 c1 bf 13 c6 6b a4 94 c0 c1 bf
       -0.13928212658932287 -0.1386895945393439
000430 3f d3 10 18 72 ac c1 bf fa 5b 5e 73 9e 97 c1 bf
       -0.1380751245029845 -0.1374395430873106
000440 a4 b3 42 05 1f 82 c1 bf cf d0 92 07 f8 6b c1 bf
       -0.13678348309386223 -0.13610744828986873
000450 fd 79 e5 f6 2c 55 c1 bf 30 c8 c0 cb c0 3d c1 bf
       -0.13541185431945726 -0.13469705532912846
000460 0d e8 77 20 b6 25 c1 bf 45 e8 06 4b 0f 0d c1 bf
       -0.133963361600593 -0.13321105159212912
000470 4f d1 42 6f ce f3 c0 bf 8d 5e 71 8b f5 d9 c0 bf
       -0.13244038040796588 -0.1316515856622015
000480 cb 5e 92 81 86 bf c0 bf 9f b7 04 1e 83 a4 c0 bf
       -0.13084489180322686 -0.13002051320785044
000490 12 ba 7a 1c ed 88 c0 bf 36 85 ec 2b c6 6c c0 bf
       -0.1291786564883784 -0.12831952233049443
0004a0 1c 2e 28 f1 0f 50 c0 bf ea 34 18 09 cc 32 c0 bf
       -0.1274433066868007 -0.12655020183630167
0004b0 12 99 89 0a fc 14 c0 bf 6f 4e b8 0e 43 ed bf bf
       -0.12564039721036885 -0.12471407994626714
0004c0 88 7f 2c 1b 7c af bf bf fc de 83 50 a6 70 bf bf
       -0.12377143538878788 -0.12281264749242021
0004d0 54 e9 fb bf c4 30 bf bf 61 4e 35 77 da ef be bf
       -0.12183789908514103 -0.12084737215382681
0004e0 72 6a 13 81 ea ad be bf f0 02 2c e6 f7 6a be bf
       -0.11984124804750154 -0.11881970757896076
0004f0 12 5a 91 ad 05 27 be bf 20 2f 50 dd 16 e2 bd bf
       -0.11778293120855945 -0.1167310991588093
000500 45 8e ad 7a 2e 9c bd bf 49 88 83 8a 4f 55 bd bf
       -0.11566439147059622 -0.11458298808750657
000510 f9 7f 75 11 7d 0d bd bf ce fe 40 14 ba c4 bc bf
       -0.1134870689033959 -0.112376813835904
000520 00 46 00 98 09 7b bc bf 2a e4 01 a2 6e 30 bc bf
       -0.111252402886997 -0.11011401610620966
000530 ed a6 0d 38 ec e4 bb bf d2 4d ae 60 85 98 bb bf
       -0.10896183365334951 -0.10779603586552547
000540 c3 41 10 23 3d 4b bb bf 0a 95 01 87 16 fd ba bf
       -0.10661680322687687 -0.10542431636857344
000550 87 72 2d 95 14 ae ba bf 9c 05 3b 57 3a 5e ba bf
       -0.10421875612287056 -0.10300030355121809
000560 4f c7 83 d7 8a 0d ba bf f8 a4 2d 21 09 bc b9 bf
       -0.10176913987723178 -0.10052544651047757
000570 be c1 ad 40 b8 69 b9 bf 1d 07 0f 43 9b 16 b9 bf
       -0.09926940516539326 -0.098001197692636
000580 e4 80 5f 36 b5 c2 b8 bf 84 e4 cc 29 09 6e b8 bf
       -0.09672100617854401 -0.09542901297108314
000590 8b 9a 4c 2d 9a 18 b8 bf db 2d d7 51 6b c2 b7 bf
       -0.09412540059984502 -0.09281035183010237
0005a0 7d bf 38 a9 7f 6b b7 bf 8a 9c 66 46 da 13 b7 bf
       -0.09148404961956476 -0.09014667719621819
0005b0 46 a8 29 3d 7e bb b6 bf 5b 00 2f a2 6e 62 b6 bf
       -0.08879841798048557 -0.08743945560036208
0005c0 88 40 16 8b ae 08 b6 bf df 78 4b 0e 41 ae b5 bf
       -0.08606997390438853 -0.08469015692705593
0005d0 14 63 5a 43 29 53 b5 bf 50 28 88 42 6a f7 b4 bf
       -0.08330018896448294 -0.08190025448144067
0005e0 34 61 d3 24 07 9b b4 bf 2e 2e 53 04 03 3e b4 bf
       -0.08049053811135282 -0.07907122474278402
0005f0 eb 5d d3 fb 60 e0 b3 bf 41 55 f3 26 24 82 b3 bf
       -0.07764249942862704 -0.07620454741421147
000600 86 cb 17 a2 4f 23 b3 bf ca 8b 6f 8a e6 c3 b2 bf
       -0.07475755412433047 -0.0733017051675652
000610 ec 3a 0b fe eb 63 b2 bf 15 61 85 1b 63 03 b2 bf
       -0.07183718635790698 -0.07036418363475534
000620 60 5b 47 02 4f a2 b1 bf 30 18 7b d2 b2 40 b1 bf
       -0.0688828831256223 -0.06739347113315897
000630 60 f5 03 ad 91 de b0 bf 8f 99 64 b3 ee 7b b0 bf
       -0.06589613412866901 -0.06439105872832428
000640 b4 71 b5 07 cd 18 b0 bf 75 b4 90 99 5f 6a af bf
       -0.06287843168451596 -0.061358439918287745
000650 64 fa 42 4c 34 a2 ae bf 2d c6 77 6f 1e d9 ad bf
       -0.05983127051284923 -0.05829711065952057
000660 8b 7b 68 4c 24 0f ad bf e3 0a 7a 2d 4c 44 ac bf
       -0.05675614769665235 -0.05520856909881446
000670 a0 ad 2e 5e 9c 78 ab bf a3 68 2f 2b 1b ac aa bf
       -0.05365456247030953 -0.052094315549497304
000680 fd b9 04 e2 ce de a9 bf 4b b1 75 d1 bd 10 a9 bf
       -0.05052801617636147 -0.04895585233575391
000690 fa 89 f4 48 ee 41 a8 bf 64 02 f9 98 66 72 a7 bf
       -0.04737801209036614 -0.0457946836218113
0006a0 93 65 26 13 2d a2 a6 bf 80 25 b8 09 48 d1 a5 bf
       -0.04420605524792189 -0.042612315355721186
0006b0 c5 af d2 cf bd ff a4 bf 54 e6 66 b9 94 2d a4 bf
       -0.041013652438180816 -0.03941025508124754
0006c0 be a6 4e 1b d3 5a a3 bf e2 b1 ed 4a 7f 87 a2 bf
       -0.03780231197681648 -0.03619001187948691
0006d0 4b f9 65 9e 9f b3 a1 bf d8 e2 a5 6c 3a df a0 bf
       -0.03457354363034656 -0.03295309616345826
0006e0 26 3a 2f 0d 56 0a a0 bf cc 6a 54 b0 f1 69 9e bf
       -0.03132885847991344 -0.029701019656480906
0006f0 72 d2 6b 4c 52 be 9c bf f9 30 4c a1 da 11 9b bf
       -0.02806976882398477 -0.026435295195413187
000700 d8 cd 9d 62 97 64 99 bf 98 12 8e 44 95 b6 97 bf
       -0.024797788042134034 -0.023157436665786152
000710 af 47 bd fc e0 07 96 bf 4a 77 cc 41 87 58 94 bf
       -0.02151443045233464 -0.01986895884612431
000720 fc 9c 23 ca 94 a8 92 bf eb 32 19 4e 16 f8 90 bf
       -0.018221211278526703 -0.016571377293348382
000730 78 66 07 0c 31 8e 8e bf 4d 74 7d 55 50 2b 8b bf
       -0.014919646434395903 -0.013266208275746783
000740 cf 59 86 ec a3 c7 87 bf b1 fe 85 45 45 63 84 bf
       -0.011611252456344893 -0.009954968628107382
000750 28 37 94 d4 4d fe 80 bf fb ab 6e 1f ae 31 7b bf
       -0.008297546434302541 -0.006639175574416174
000760 44 e4 ff db f4 65 74 bf 4e ee 99 97 45 33 6b bf
       -0.004980045778205048 -0.0033203467581282347
000770 b8 33 6d 77 ab 33 5b bf 50 24 87 68 de 33 4b bf
       -0.0016602682569157711 -0.0008301578500830107
000780 48 b8 19 4b eb 34 4b 3f de d8 d1 42 b8 34 5b 3f
       0.0008302830594411137 0.001660518591305719
000790 b9 4e e0 3a 52 34 6b 3f 20 a3 6d 27 be 66 74 3f
       0.003320847135009544 0.004980795659186993
0007a0 35 c0 14 2d ba 32 7b 3f d9 7e bb 15 f5 fe 80 3f
       0.006640174150831559 0.008298792577476831
0007b0 4c 5d 88 91 0d 64 84 3f 2b 48 a1 0a 8d c8 87 3f
       0.009956460956387268 0.0116129893178006
0007c0 82 a4 15 02 5a 2c 8b 3f 94 f4 66 f9 5a 8f 8e 3f
       0.013268187702765614 0.014921866165304366
0007d0 5d ee 4d 39 bb f8 90 3f 9e 38 b8 78 49 a9 92 3f
       0.016573834774574404 0.018223903649464128
0007e0 62 ef ff 7c 4b 59 94 3f bf 43 9b 88 b4 08 96 3f
       0.01987188291967302 0.021517582738684867
0007f0 3a a1 e4 de 77 b7 97 3f ab 8b 95 c3 88 65 99 3f
       0.02316081331187656 0.024801384866247094
