k_current_L_200_Delta0_0.4_Delta1_0.2_lambda_0.5_mu_2_tJ_0.5_theta_pi_over_4.npy (npy, 144128 bytes, 1 tensors)

array f8 [75, 240]
0.0006367393254732515 0.0012734467280522046 0.002546765725607404 0.003819829296763981 0.005092509728322624 0.006364679250866517 0.007636210120925383 0.008906974556109136
0.010176844743756722 0.011445692840936128 0.012713390970119948 0.013979811214860964 0.015244825593845612 0.016508306104138202 0.017770124660639004 0.019030153130679624
0.020288263321049747 0.021544326956375 0.022798215700739092 0.02404980112308841 0.025298954723178564 0.026545547909952272 0.027789452001539355 0.029030538207959054
0.030268677652742135 0.03150374134265993 0.032735600172048754 0.033964124931458776 0.035189186286031855 0.0364106547755016 0.037628400805544464 0.03884229465642864
0.04005220647004075 0.04125800623691261 0.04245956381784332 0.04365674890497947 0.04484943103911282 0.04603747962265359 0.0472207638417908 0.04839915276162965
0.049572515278622796 0.05074072006435287 0.051903635630398855 0.05306113031536277 0.05421307227622086 0.05535932941913282 0.05649976950755233 0.05763426009303636
0.05876266847632531 0.05988486179815587 0.06100070695277265 0.06211007062252346 0.06321281926488612 0.06430881909949512 0.06539793612543941 0.0664800361039646
0.06755498454549973 0.06862264671398174 0.06968288763117983 0.07073557207237106 0.07178056452742056 0.07281772926564782 0.07384693026231158 0.074868031211583
0.07588089557411443 0.07688538650352408 0.077881366885316 0.07886869931958218 0.0798472461123539 0.08081686929289927 0.08177743057047912 0.08272879136029343
0.08367081281375238 0.08460335573631225 0.0855262806307197 0.08643944769268729 0.0873427168065691 0.08823594753671188 0.08911899911880619 0.08999173046421081
0.09085400015562838 0.09170566646007855 0.09254658730727601 0.09337662024206173 0.09419562253683796 0.09500345110075545 0.09579996245809119 0.09658501284771029
0.09735845812792851 0.09812015378516126 0.09886995495987003 0.09960771648115781 0.10033329278028066 0.10104653790794538 0.10174730557322925 0.10243544912195804
0.10311082156265244 0.10377327547571527 0.10442266308694656 0.10505883629781462 0.10568164659896752 0.10629094508753077 0.10688658251467602 0.10746840927264775
0.10803627533854583 0.10859003032189407 0.1091295234776136 0.10965460366710297 0.11016511936256265 0.11066091868159039 0.11114184934826137 0.1116077587061015
0.11205849375700726 0.11249390108340604 0.11291382690879807 0.11331811708910759 0.11370661711700726 0.1140791721046205 0.11443562667541082 0.0573049047080772
-0.057304904703752775 -0.11443562667973524 -0.1140791721046205 -0.11370661712565612 -0.11331811708910759 -0.11291382690014923 -0.11249390107908161 -0.11205849375268284
-0.11160775871042593 -0.11114184934826137 -0.11066091867726598 -0.11016511936256265 -0.10965460366710297 -0.10912952348193801 -0.10859003033054292 -0.1080362753342214
-0.10746840927264775 -0.10688658251900043 -0.10629094507888193 -0.1056816465946431 -0.10505883630213905 -0.1044226630955954 -0.10377327546706643 -0.10311082156265244
-0.10243544913060688 -0.10174730556458039 -0.10104653790794538 -0.1003332927846051 -0.09960771648115781 -0.0988699549555456 -0.09812015378083684 -0.09735845813225294
-0.09658501285635913 -0.09579996246241562 -0.0950034510921066 -0.09419562253683796 -0.0933766202377373 -0.0925465873029516 -0.0917056664687274 -0.09085400015562838
-0.0899917304598864 -0.08911899911448176 -0.08823594753671188 -0.08734271681521795 -0.08643944769701171 -0.0855262806307197 -0.08460335573631225 -0.08367081280942795
-0.08272879136461786 -0.08177743056615469 -0.08081686928857484 -0.07984724612100275 -0.07886869931958218 -0.077881366885316 -0.07688538650784851 -0.07588089556979
-0.07486803120725857 -0.07384693025366273 -0.07281772927429667 -0.07178056453174499 -0.07073557206372222 -0.06968288763982868 -0.06862264670965731 -0.06755498453685088
-0.06648003610828902 -0.06539793612976384 -0.06430881909949512 -0.06321281926056169 -0.06211007062252346 -0.06100070695709707 -0.059884861802480295 -0.05876266847632531
-0.05763426008438752 -0.056499769511876755 -0.05535932941913282 -0.05421307227189644 -0.053061130324011614 -0.051903635630398855 -0.05074072005570402 -0.049572515278622796
-0.0483991527702785 -0.0472207638417908 -0.046037479618329165 -0.04484943103911282 -0.04365674890497947 -0.04245956382216774 -0.04125800623691261 -0.040052206461391904
-0.03884229465210421 -0.037628400805544464 -0.036410654779826024 -0.0351891862946807 -0.033964124931458776 -0.03273560016772433 -0.03150374134265993 -0.030268677652742135
-0.029030538207959054 -0.027789452001539355 -0.026545547914276695 -0.025298954727502987 -0.02404980112308841 -0.02279821569641467 -0.021544326956375 -0.020288263312400898
-0.0190301531263552 -0.01777012466928785 -0.016508306104138202 -0.015244825593845612 -0.013979811210536541 -0.012713390970119948 -0.011445692840936128 -0.0101768447394323
-0.008906974560433559 -0.007636210125249806 -0.006364679250866517 -0.0050925097239982 -0.0038198293010884045 -0.0025467657299318275 -0.0012734467194033575 -0.0006367393168244045
0.0006367481386483504 0.0012734643457535555 0.0025468009047926003 0.0038198818947270466 0.005092579528842385 0.006364765977179867 0.007636313427078443 0.00890709403993052
0.010176979903613307 0.011445843136274971 0.012713555773899644 0.013979989809227211 0.015245017243646413 0.01650850996178655 0.017770339830979236 0.019030378640716453
00000000: d02b 1c4a 5bdd 443f 5830 3603 39dd 543f
00000010: e9da 1070 f4dc 643f 562a fd3c c34a 6f3f
00000020: 65a6 cd2b e2db 743f 2c47 b693 d911 7a3f
00000030: 5d92 c18b 2547 7f3f ccf9 65e3 d13d 823f
00000040: 15a7 cefa 98d7 843f 8d7e 74e3 d670 873f
00000050: d0df 8073 7a09 8a3f dcd2 c67f 72a1 8c3f
00000060: a6cd deda ad38 8f3f b98a 51ab 8de7 903f
00000070: 459b 0de1 5432 923f 0f29 56f5 a37c 933f
00000080: 8980 d34d 72c6 943f a591 c44e b70f 963f
00000090: 3108 5e5b 6a58 973f e024 32d5 82a0 983f
000000a0: 82da a21c f8e7 993f adb5 8290 c12e 9b3f
000000b0: bbdc 148e d674 9c3f 56fc c070 2eba 9d3f
000000c0: c95f 7292 c0fe 9e3f 7867 8925 4221 a03f
000000d0: 8ac9 4e78 b8c2 a03f 57c0 a2eb be63 a13f
000000e0: 81ef 8a28 5104 a23f 1934 f9d6 6aa4 a23f
000000f0: b79f b89d 0744 a33f 617d 8022 23e3 a33f
00000100: 36ca d709 b981 a43f 27ae f8f6 c41f a53f
00000110: 1f08 008c 42bd a53f 1bd8 9769 2d5a a63f
00000120: e848 1d2f 81f6 a63f 7037 bd7a 3992 a73f
00000130: e806 c9e8 512d a83f 60d6 8714 c6c7 a83f
00000140: fbe5 cd97 9161 a93f 48f7 800a b0fa a93f
00000150: c9f1 2603 1d93 aa3f a35b c916 d42a ab3f
00000160: c154 e2d8 d0c1 ab3f e36f c4da 0e58 ac3f
00000170: 736f 88ac 89ed ac3f 9a1e 75dc 3c82 ad3f
00000180: 55bb a9f6 2316 ae3f 8ea9 e585 3aa9 ae3f
00000190: 7742 ca12 7c3b af3f fbe7 2624 e4cc af3f
000001a0: ba3e 6e1f b72e b03f 2e70 e0f2 8a76 b03f
000001b0: 0779 e24c ebbd b03f 0147 e7ec d504 b13f
000001c0: 4301 4e91 484b b13f 96c9 66f7 4091 b13f
000001d0: 9a7d 77db bcd6 b13f 93f5 b6f8 b91b b23f
000001e0: 7139 2209 3660 b23f 13d3 c3c5 2ea4 b23f
000001f0: 97f9 62e6 a1e7 b23f fed4 9121 8d2a b33f
00000200: 94cb e12c ee6c b33f 3aad 92bc c2ae b33f
00000210: 607e bd83 08f0 b33f 2073 4134 bd30 b43f
00000220: d56c ba7e de70 b43f f4fe 9312 6ab0 b43f
00000230: e6e2 d99d 5def b43f 507f 54cd b62d b53f
00000240: 9c30 aa4c 736b b53f d6f1 04c6 90a8 b53f
00000250: dbe8 41e2 0ce5 b53f 1fa5 ec48 e520 b63f
00000260: 765e 3aa0 175c b63f a472 008d a196 b63f
00000270: f2e2 aab2 80d0 b63f 5f15 41b3 b209 b73f
00000280: 6f13 612f 3542 b73f cccd 4dc6 057a b73f
00000290: 3556 d715 22b1 b73f 1892 26ba 87e7 b73f
000002a0: 35da 384e 341d b83f 1621 7c6b 2552 b83f
000002b0: f02c b7a9 5886 b83f aaf3 769f cbb9 b83f
000002c0: 0e00 a6e1 7bec b83f 40f4 9503 671e b93f
000002d0: 0611 1c97 8a4f b93f 853f b72c e47f b93f
000002e0: eef8 3053 71af b93f 584b b097 2fde b93f
000002f0: b4a4 e485 1c0c ba3f ba0c eea7 3539 ba3f
00000300: 34ac 7986 7865 ba3f 72f3 5da8 e290 ba3f
00000310: f66e eb92 71bb ba3f fe0f 0eca 22e5 ba3f
00000320: 2914 eecf f30d bb3f 570a 0325 e235 bb3f
00000330: 0b20 4848 eb5c bb3f c6dd 2db7 0c83 bb3f
00000340: 3557 5ced 43a8 bb3f 9078 e764 8ecc bb3f
00000350: 464a 5d96 e9ef bb3f 0626 9bf8 5212 bc3f
00000360: f677 d200 c833 bc3f 74c8 ae22 4654 bc3f
00000370: 1bf1 2ad0 ca73 bc3f 6f60 9f79 5392 bc3f
00000380: cfe4 ec8d ddaf bc3f 8e16 277a 66cc bc3f
00000390: fbe8 d6a9 ebe7 bc3f f327 f186 6a02 bd3f
000003a0: 1939 db79 e01b bd3f f916 58e9 4a34 bd3f
000003b0: 9672 113a a74b bd3f c840 3e87 1157 ad3f
000003c0: 59be 3487 1157 adbf cd33 163a a74b bdbf
000003d0: f916 58e9 4a34 bdbf 89bb e479 e01b bdbf
000003e0: f327 f186 6a02 bdbf 8c66 cda9 ebe7 bcbf
000003f0: 5655 227a 66cc bcbf 9823 e88d ddaf bcbf
00000400: a721 a479 5392 bcbf 1bf1 2ad0 ca73 bcbf
00000410: 3d07 aa22 4654 bcbf f677 d200 c833 bcbf
00000420: 0626 9bf8 5212 bcbf 7d0b 6296 e9ef bbbf
00000430: fffa f064 8ecc bbbf fd95 57ed 43a8 bbbf
00000440: c6dd 2db7 0c83 bbbf 42e1 4c48 eb5c bbbf
00000450: e887 f924 e235 bbbf f252 e9cf f30d bbbf
00000460: 36d1 12ca 22e5 babf 65f1 f492 71bb babf
00000470: 0371 54a8 e290 babf 34ac 7986 7865 babf
00000480: 298f f7a7 3539 babf 4422 db85 1c0c babf
00000490: 584b b097 2fde b9bf 26ba 3553 71af b9bf
000004a0: 853f b72c e47f b9bf ce4f 1797 8a4f b9bf
000004b0: 0933 9103 671e b9bf 46c1 aae1 7bec b8bf
000004c0: 1976 809f cbb9 b8bf 28ee bba9 5886 b8bf
000004d0: a79e 726b 2552 b8bf 35da 384e 341d b8bf
000004e0: e0d0 21ba 87e7 b7bf fe94 d215 22b1 b7bf
000004f0: 3b50 57c6 057a b7bf 6f13 612f 3542 b7bf
00000500: 2854 3cb3 b209 b7bf ba21 a6b2 80d0 b6bf
00000510: a472 008d a196 b6bf e5e0 43a0 175c b6bf
00000520: 5766 f148 e520 b6bf dbe8 41e2 0ce5 b5bf
00000530: d6f1 04c6 90a8 b5bf 646f a54c 736b b5bf
00000540: 8840 59cd b62d b5bf ae21 d59d 5def b4bf
00000550: bc3d 8f12 6ab0 b4bf 44ef c37e de70 b4bf
00000560: 2073 4134 bd30 b4bf 607e bd83 08f0 b3bf
00000570: 726e 97bc c2ae b3bf 5c0a dd2c ee6c b3bf
00000580: c613 8d21 8d2a b3bf 2877 59e6 a1e7 b2bf
00000590: 8255 cdc5 2ea4 b2bf a9fa 2609 3660 b2bf
000005a0: 2473 adf8 b91b b2bf 0900 81db bcd6 b1bf
000005b0: 5e08 62f7 4091 b1bf d47e 4491 484b b1bf
000005c0: 3908 ecec d504 b1bf 3f3a e74c ebbd b0bf
000005d0: 2e70 e0f2 8a76 b0bf 827d 691f b72e b0bf
000005e0: fbe7 2624 e4cc afbf e6c4 d312 7c3b afbf
000005f0: fd2b ef85 3aa9 aebf 55bb a9f6 2316 aebf
00000600: bc19 62dc 3c82 adbf e2f1 91ac 89ed acbf
00000610: e36f c4da 0e58 acbf 52d2 d8d8 d0c1 abbf
00000620: 8160 dc16 d42a abbf c9f1 2603 1d93 aabf
00000630: 69f2 6d0a b0fa a9bf fbe5 cd97 9161 a9bf
00000640: 3fdb 9a14 c6c7 a8bf e806 c9e8 512d a8bf
00000650: 01b5 b37a 3992 a7bf e848 1d2f 81f6 a6bf
00000660: 1bd8 9769 2d5a a6bf 8e8a 098c 42bd a5bf
00000670: 27ae f8f6 c41f a5bf 58c5 c409 b981 a4bf
00000680: f1fa 7622 23e3 a3bf b79f b89d 0744 a3bf
00000690: 88b6 02d7 6aa4 a2bf 5ff4 9d28 5104 a2bf
000006a0: 57c0 a2eb be63 a1bf 1b47 4578 b8c2 a0bf
000006b0: 7867 8925 4221 a0bf c95f 7292 c0fe 9ebf
000006c0: 56fc c070 2eba 9dbf bbdc 148e d674 9cbf
000006d0: 8bba 9590 c12e 9bbf 60df b51c f8e7 99bf
000006e0: e024 32d5 82a0 98bf 5303 4b5b 6a58 97bf
000006f0: a591 c44e b70f 96bf cc76 ad4d 72c6 94bf
00000700: 3124 43f5 a37c 93bf 01a5 33e1 5432 92bf
00000710: b98a 51ab 8de7 90bf a6cd deda ad38 8fbf
00000720: 20c9 a07f 72a1 8cbf d0df 8073 7a09 8abf
00000730: 8d7e 74e3 d670 87bf 599d a8fa 98d7 84bf
00000740: 8803 8ce3 d13d 82bf d6a5 0d8c 2547 7fbf
00000750: 2c47 b693 d911 7abf ec92 812b e2db 74bf
00000760: 4851 953d c34a 6fbf db01 a970 f4dc 64bf
00000770: 9194 d500 39dd 54bf 42f4 5a45 5bdd 44bf
00000780: 8b4c 3437 6edd 443f 4db5 eded 4bdd 543f
00000790: 9865 0e53 07dd 643f 1078 ff79 df4a 6f3f
000007a0: 2e61 75e8 f4db 743f a9b7 7fdb f011 7a3f
000007b0: cba2 e646 4147 7f3f 87c8 d4ec e13d 823f
000007c0: f552 dd1e abd7 843f 8e46 900f eb70 873f
000007d0: 3a40 1e92 9009 8a3f 807b 3b78 8aa1 8c3f
000007e0: 6347 e893 c738 8f3f 02f6 9059 9be7 903f
000007f0: 4bc5 a651 6332 923f 84ca 9117 b37c 933f
