k_current_TRITOPS_S_Eu_L_200_Delta0_0.4_Delta1_0.2_lambda_0.5_mu_2_tJ_0.5_theta_0.npy (npy, 144128 bytes, 1 tensors)

array f8 [75, 240]
000000 df 7a 13 30 da 19 b6 bf 76 11 1e 47 12 03 b6 bf
       -0.08633197473271136 -0.08598436580911603
000010 46 62 90 27 0a d4 b5 bf 7b 0b 39 60 1c a2 b5 bf
       -0.08526671853940923 -0.08450486516180249
000020 fd d0 10 9a 5e 6d b5 bf 7a ba 0d 03 e6 35 b5 bf
       -0.0837000967156349 -0.0828536755995887
000030 ea 13 1f 4f c7 fb b4 bf db 3d 67 b9 16 bf b4 bf
       -0.08196683580088374 -0.08104078318068934
000040 7b 52 c6 05 e8 7f b4 bf 46 9f b5 82 4e 3e b4 bf
       -0.08007669583305159 -0.07907572451733555
000050 13 37 82 0b 5d fa b3 bf f4 f7 57 0a 26 b4 b3 bf
       -0.07803899317715617 -0.07696759941606485
000060 5b 74 d6 7a bb 6b b3 bf a4 98 97 ec 2e 21 b3 bf
       -0.07586261509864427 -0.07472508693863006
000070 4e 5a dc 85 91 d4 b2 bf c5 af 5a 06 f4 85 b2 bf
       -0.0735560371216277 -0.07235646395810054
000080 67 7e e5 c9 66 35 b2 bf 8a e4 81 cb f9 e2 b1 bf
       -0.07112734250176232 -0.06986962526743148
000090 0b 70 30 a8 bc 8e b1 bf b5 59 c9 a1 be 38 b1 bf
       -0.06858424287969471 -0.06727210473886809
0000a0 a7 8b 03 a2 0e e1 b0 bf 12 99 42 3d bb 87 b0 bf
       -0.06593409972587826 -0.06457109685525023
0000b0 bc bf 8a b5 d2 2c b0 bf 48 c9 c3 fa c5 a0 af bf
       -0.06318394596269078 -0.06177347837537411
0000c0 b9 a3 6a 75 f3 e4 ae bf 87 3a ca 92 48 26 ae bf
       -0.06034050758655191 -0.05888582984799933
0000d0 cb 5d 96 7c df 64 ad bf 7b 71 12 d4 d1 a0 ac bf
       -0.057410224874896075 -0.05591445649881429
0000e0 b5 1d b6 b6 38 da ab bf d8 4c 02 c4 2c 11 ab bf
       -0.05439927320827157 -0.05286540882766538
0000f0 93 76 8e 22 c6 45 aa bf 6e d7 c9 84 1c 78 a9 bf
       -0.05131358310539471 -0.049744502267386234
000100 c2 e2 a0 2e 47 a8 a8 bf 0b cc 89 f9 5c d6 a7 bf
       -0.04815885967440671 -0.04655733629342514
000110 ed d1 91 59 74 02 a7 bf 83 10 87 62 a3 2c a6 bf
       -0.044940601285734384 -0.043309312608045956
000120 f1 6f 9c cb ff 54 a5 bf f2 6c 6d f4 9e 7b a4 bf
       -0.04166411743628363 -0.04000565274938052
000130 36 33 4d e9 95 a0 a3 bf fd ad 6f 67 f9 c3 a2 bf
       -0.03833454583091227 -0.036651414753432456
000140 63 11 f6 e0 dd e5 a1 bf 00 eb 17 81 57 06 a1 bf
       -0.03495686884983475 -0.03325150919768838
000150 ee b4 55 30 7a 25 a0 bf d0 83 26 30 b3 86 9e bf
       -0.03153592910789792 -0.029810714544172445
000160 b0 79 fc 4c 12 c0 9c bf 5d 3d 9d 24 38 f7 9a bf
       -0.028076444577089965 -0.026333691820864192
000170 2a 52 34 bd 4a 2c 99 bf ff 82 58 bc 6f 5f 97 bf
       -0.024583022878760165 -0.022824998732292375
000180 e2 d2 9f 6e cc 90 95 bf 35 2e 3c ce 85 c0 93 bf
       -0.02106017518231596 -0.01928910323390039
000190 2e 39 0a 8a c0 ee 91 bf f9 05 41 0c a1 1b 90 bf
       -0.017512329507149697 -0.01573039662640061
0001a0 a3 95 43 02 97 8e 8c bf 80 4d c1 bb c7 e3 88 bf
       -0.013943843609420642 -0.012153206269579497
0001b0 59 44 06 cd 1b 37 85 bf 75 dd 6b 69 da 88 81 bf
       -0.010359017557478522 -0.008561807958797666
0001c0 c0 00 2a f8 94 b2 7b bf 62 0a 9b 6a 65 51 74 bf
       -0.006762105857547052 -0.0049604379252651005
0001d0 b5 af 84 58 66 dd 69 bf ab 5c 47 ea 2b 2c 56 bf
       -0.0031573294583235553 -0.0013533047541523329
0001e0 55 fc f2 69 69 90 3d 3f 40 69 f5 0f ea 79 62 3f
       0.0004511124952379421 0.0022553988962218663
0001f0 ad 02 a1 d3 33 a0 70 3f 0c a3 62 55 36 02 78 3f
       0.004059030960036719 0.005861484756828583
000200 4a 5d 69 af 6f 62 7f 3f 45 24 85 59 29 60 83 3f
       0.00766223551780538 0.00946075729793184
000210 e2 da 7f e4 a8 0d 87 3f 39 f1 70 6a 6f b9 8a 3f
       0.011256522629975622 0.01304900210936265
000220 8e b5 ba 8f 35 63 8e 3f 2a e7 29 ce 59 05 91 3f
       0.014837664078494208 0.01662197418998016
000230 b8 39 77 b8 d0 d7 92 3f 0f 5a 34 3c db a8 94 3f
       0.018401395090956035 0.020175385999289527
000240 ef 93 6f cd 54 78 96 3f 68 00 1e 99 18 46 98 3f
       0.02194340232735564 0.023704895349056093
000250 49 4c 6a 7c 01 12 9a 3f af 32 c3 fe e9 db 9b 3f
       0.02545931169386176 0.027206093000858796
000260 3d df 8a 4b ac a3 9d 3f a2 d6 ea 29 22 69 9f 3f
       0.028944675551172628 0.030674489792281386
000270 c3 0c c6 7a 12 96 a0 3f f3 c0 19 cc 46 76 a1 3f
       0.032394959914222386 0.03410550347769172
000280 51 c2 7e 40 1a 55 a2 3f 7d 20 65 ce 78 32 a3 3f
       0.03580553090376227 0.03749444503279251
000290 58 e0 b3 27 4e 0e a4 3f 5c 5a 5d b5 85 e8 a4 3f
       0.03917164072657958 0.04083650435375283
0002a0 d9 9d 06 93 0a c1 a5 3f d7 04 6d 8b c7 97 a6 3f
       0.04248841328381631 0.044126735467679694
0002b0 3e 75 88 13 a7 6c a7 3f ca cd 58 46 93 3f a8 3f
       0.045750828871158764 0.04736004098631559
0002c0 71 d5 bc e0 75 10 a9 3f 59 f0 64 3c 38 df a9 3f
       0.0489537083471231 0.05053115594134345
0002d0 e6 f6 4a 4b c3 ab aa 3f 50 f9 dd 92 ff 75 ab 3f
       0.05209169668294837 0.05363463084994413
0002e0 c9 80 24 27 d5 3d ac 3f 50 49 c2 a5 2b 03 ad 3f
       0.05515924551787205 0.05666481398033574
0002f0 ae f6 ea 30 ea c5 ad 3f cb 29 d9 69 f7 85 ae 3f
       0.05815059516087949 0.05961583296864922
000300 85 3a d4 6b 39 43 af 3f c2 56 cd c6 95 fd af 3f
       0.061059755718919674 0.06248157550605306
000310 5d 03 ca bc 78 5a b0 3f 3d 67 3e 76 98 b4 b0 3f
       0.06388048752888893 0.06525566946802726
000320 85 5b d4 f5 1b 0d b1 3f ae 70 b9 d0 f4 63 b1 3f
       0.06660628081986715 0.06793146224794341
000330 66 80 3f 48 14 b9 b1 3f 84 2e f2 46 6b 0c b2 3f
       0.06923033489101868 0.070501999684149
000340 7c b2 cd 5d ea 5d b2 3f 89 4e 2e c1 81 ad b2 3f
       0.07174553671002032 0.07296000448541852
000350 4c 14 f4 45 21 fb b2 3f 35 ae b9 5e b8 46 b3 3f
       0.07414443929526832 0.0752978545439696
000360 7b e0 e9 18 36 90 b3 3f e0 0e e8 19 89 d7 b3 3f
       0.0764192400764631 0.07750756151659344
000370 3f cc 5e 9c 9f 1c b4 3f 74 b7 c2 6d 67 5f b4 3f
       0.07856175964006783 0.07958074979498325
000380 8f 4e af eb cd 9f b4 3f 9d d0 7c 01 c0 dd b4 3f
       0.08056342128775838 0.0815086368209585
000390 90 76 30 26 2a 19 b5 3f 79 33 89 5a f8 51 b5 3f
       0.08241523201328449 0.08328201494550837
0003a0 1d c2 40 27 16 88 b5 3f 51 bc 72 9b 6e bb b5 3f
       0.08410776575397745 0.08489123625871399
0003b0 54 9f b3 4b ec eb b5 3f 77 43 bc bd 71 03 a6 3f
       0.08563114975151837 0.04299502793413173
0003c0 77 43 bc bd 71 03 a6 bf 54 9f b3 4b ec eb b5 bf
       -0.04299502793413173 -0.08563114975151837
0003d0 19 fb 6d 9b 6e bb b5 bf 8c 44 4a 27 16 88 b5 bf
       -0.08489123625438956 -0.0841077657626263
0003e0 e8 b5 92 5a f8 51 b5 bf 59 b5 2b 26 2a 19 b5 bf
       -0.08328201495415721 -0.08241523200896007
0003f0 65 0f 78 01 c0 dd b4 bf 20 cc a5 eb cd 9f b4 bf
       -0.08150863681663408 -0.08056342127910954
000400 e3 39 cc 6d 67 5f b4 bf 76 8d 63 9c 9f 1c b4 bf
       -0.0795807498036321 -0.07856175964439224
000410 71 8c de 19 89 d7 b3 bf 7b e0 e9 18 36 90 b3 bf
       -0.07750756150794459 -0.0764192400764631
000420 35 ae b9 5e b8 46 b3 bf 4c 14 f4 45 21 fb b2 bf
       -0.0752978545439696 -0.07414443929526832
000430 52 8d 29 c1 81 ad b2 bf 7c b2 cd 5d ea 5d b2 bf
       -0.0729600044810941 -0.07174553671002032
000440 84 2e f2 46 6b 0c b2 bf 2e bf 3a 48 14 b9 b1 bf
       -0.070501999684149 -0.06923033488669425
000450 1d f3 c2 d0 f4 63 b1 bf f4 dd dd f5 1b 0d b1 bf
       -0.06793146225659226 -0.066606280828516
000460 05 a6 39 76 98 b4 b0 bf ee 80 c0 bc 78 5a b0 bf
       -0.06525566946370283 -0.06388048752024009
000470 53 d4 c3 c6 95 fd af bf d3 c1 f0 6b 39 43 af bf
       -0.062481575501728635 -0.06105975573189295
000480 3a ac e2 69 f7 85 ae bf d0 f1 d7 30 ea c5 ad bf
       -0.05961583297297364 -0.058150595152230644
000490 bf cb cb a5 2b 03 ad bf c9 80 24 27 d5 3d ac bf
       -0.05666481398466016 -0.05515924551787205
0004a0 e1 76 d4 92 ff 75 ab bf e6 f6 4a 4b c3 ab aa bf
       -0.05363463084561971 -0.05209169668294837
0004b0 c8 72 6e 3c 38 df a9 bf 71 d5 bc e0 75 10 a9 bf
       -0.05053115594566787 -0.0489537083471231
0004c0 ca cd 58 46 93 3f a8 bf 60 70 75 13 a7 6c a7 bf
       -0.04736004098631559 -0.04575082886250992
0004d0 d7 04 6d 8b c7 97 a6 bf b7 a2 19 93 0a c1 a5 bf
       -0.044126735467679694 -0.04248841329246516
0004e0 5c 5a 5d b5 85 e8 a4 bf c7 62 bd 27 4e 0e a4 bf
       -0.04083650435375283 -0.039171640730904005
0004f0 0e 9e 5b ce 78 32 a3 bf 03 3b 62 40 1a 55 a2 bf
       -0.03749444502846809 -0.03580553089078899
000500 62 43 23 cc 46 76 a1 bf a1 11 d9 7a 12 96 a0 bf
       -0.034105503482016145 -0.03239495992287123
000510 c4 d1 d7 29 22 69 9f bf 1c e4 9d 4b ac a3 9d bf
       -0.030674489787956963 -0.028944675555497054
000520 af 32 c3 fe e9 db 9b bf 6b 47 57 7c 01 12 9a bf
       -0.027206093000858796 -0.02545931168953734
000530 68 00 1e 99 18 46 98 bf ac 9d 95 cd 54 78 96 bf
       -0.023704895349056093 -0.02194340233600449
000540 0f 5a 34 3c db a8 94 bf fc 2f 51 b8 d0 d7 92 bf
       -0.020175385999289527 -0.01840139508230719
000550 4c e2 16 ce 59 05 91 bf d2 ab 94 8f 35 63 8e bf
       -0.01662197418565574 -0.014837664074169785
000560 f5 fa 96 6a 6f b9 8a bf 9e e4 a5 e4 a8 0d 87 bf
       -0.013049002113687072 -0.011256522634300044
000570 01 2e ab 59 29 60 83 bf 58 36 d1 ae 6f 62 7f bf
       -0.009460757302256264 -0.007662235509156533
000580 93 8f 16 55 36 02 78 bf 17 3d 85 d4 33 a0 70 bf
       -0.005861484752504159 -0.004059030973009989
000590 4e 42 5d 0f ea 79 62 bf 3a 8d 70 60 69 90 3d bf
       -0.0022553988918974427 -0.0004511124865890951
0005a0 8f aa 77 eb 2b 2c 56 3f a7 d6 1c 59 66 dd 69 3f
       0.0013533047584767565 0.003157329462647979
0005b0 70 e3 02 6a 65 51 74 3f 56 c6 45 f7 94 b2 7b 3f
       0.004960437916616253 0.006762105844573782
0005c0 fc c9 1f 69 da 88 81 3f 59 44 06 cd 1b 37 85 3f
       0.008561807950148818 0.010359017557478522
0005d0 b5 6a 33 bc c7 e3 88 3f 1b a9 8f 02 97 8e 8c 3f
       0.012153206282552767 0.013943843618069487
0005e0 1b 01 2e 0c a1 1b 90 3f 50 34 f7 89 c0 ee 91 3f
       0.015730396622076186 0.017512329502825275
0005f0 35 2e 3c ce 85 c0 93 3f e2 d2 9f 6e cc 90 95 3f
       0.01928910323390039 0.02106017518231596
000600 21 7e 45 bc 6f 5f 97 3f 2a 52 34 bd 4a 2c 99 3f
       0.022824998727967952 0.024583022878760165
000610 3b 42 b0 24 38 f7 9a 3f b0 79 fc 4c 12 c0 9c 3f
       0.026333691825188615 0.028076444577089965
000620 d0 83 26 30 b3 86 9e 3f 5d 37 5f 30 7a 25 a0 3f
       0.029810714544172445 0.03153592911222234
000630 00 eb 17 81 57 06 a1 3f 16 8a d9 e0 dd e5 a1 3f
       0.03325150919768838 0.034956868836861485
000640 6c 30 79 67 f9 c3 a2 3f 14 38 60 e9 95 a0 a3 3f
       0.03665141475775688 0.03833454583956111
000650 83 ea 63 f4 9e 7b a4 3f 60 f2 a5 cb ff 54 a5 3f
       0.040005652745056096 0.04166411744060805
000660 83 10 87 62 a3 2c a6 3f ed d1 91 59 74 02 a7 3f
       0.043309312608045956 0.044940601285734384
000670 2d c7 76 f9 5c d6 a7 3f c2 e2 a0 2e 47 a8 a8 3f
       0.0465573362847763 0.04815885967440671
000680 4c dc dc 84 1c 78 a9 3f 24 f4 84 22 c6 45 aa 3f
       0.04974450227603508 0.05131358310107029
000690 d8 4c 02 c4 2c 11 ab 3f b5 1d b6 b6 38 da ab 3f
       0.05286540882766538 0.05439927320827157
0006a0 ea f3 1b d4 d1 a0 ac 3f 3a e0 9f 7c df 64 ad 3f
       0.05591445650313871 0.0574102248792205
0006b0 a9 35 b7 92 48 26 ae 3f b9 a3 6a 75 f3 e4 ae 3f
       0.058885829839350486 0.06034050758655191
0006c0 26 ce d6 fa c5 a0 af 3f bc bf 8a b5 d2 2c b0 3f
       0.06177347838402296 0.06318394596269078
0006d0 da d7 3d 3d bb 87 b0 3f 38 09 fa a1 0e e1 b0 3f
       0.0645710968509258 0.06593409971722941
0006e0 b5 59 c9 a1 be 38 b1 3f 42 31 35 a8 bc 8e b1 3f
       0.06727210473886809 0.06858424288401913
0006f0 8a e4 81 cb f9 e2 b1 3f 30 bd e0 c9 66 35 b2 3f
       0.06986962526743148 0.0711273424974379
000700 c5 af 5a 06 f4 85 b2 3f 86 1b e1 85 91 d4 b2 3f
       0.07235646395810054 0.07355603712595213
000710 6c d7 92 ec 2e 21 b3 3f 5b 74 d6 7a bb 6b b3 3f
       0.07472508693430563 0.07586261509864427
000720 63 7a 61 0a 26 b4 b3 3f 13 37 82 0b 5d fa b3 3f
       0.07696759942471369 0.07803899317715617
000730 46 9f b5 82 4e 3e b4 3f 7b 52 c6 05 e8 7f b4 3f
       0.07907572451733555 0.08007669583305159
000740 a4 7c 62 b9 16 bf b4 3f b2 52 1a 4f c7 fb b4 3f
       0.08104078317636493 0.0819668357965593
000750 7a ba 0d 03 e6 35 b5 3f fd d0 10 9a 5e 6d b5 3f
       0.0828536755995887 0.0837000967156349
000760 7b 0b 39 60 1c a2 b5 3f 46 62 90 27 0a d4 b5 3f
       0.08450486516180249 0.08526671853940923
000770 ad d2 22 47 12 03 b6 3f bd 7f 26 30 da 19 b6 3f
       0.08598436581344045 0.08633197475000905
000780 e6 52 5a 74 99 12 b6 bf ca fb 49 49 e5 fb b5 bf
       -0.08622130480427934 -0.0858748725822657
000790 10 97 0e 7e 04 cd b5 bf 13 88 ed b9 3d 9b b5 bf
       -0.08515956952632231 -0.08440004147772155
0007a0 ad 5b 1a a2 a6 66 b5 bf 64 d4 88 61 54 2f b5 bf
       -0.08359757859794455 -0.08275344258511691
0007b0 47 a7 da a9 5b f5 b4 bf 47 81 6e b4 d0 b8 b4 bf
       -0.08186886689022997 -0.08094505696363284
0007c0 ae 2e f4 43 c7 79 b4 bf 99 53 43 a6 52 38 b4 bf
       -0.07998319062260847 -0.07898441847949157
0007d0 65 ef 5c b6 85 f4 b3 bf 70 67 89 de 72 ae b3 bf
       -0.07794986440870628 -0.07688062603975054
0007e0 f4 e8 d0 1a 2c 66 b3 bf 6a 13 95 fb c2 1b b3 bf
       -0.07577777533234437 -0.07464235918184917
0007f0 e7 a2 2a a8 48 cf b2 bf 13 98 69 e1 cd 80 b2 bf
       -0.07347540002468698 -0.072277896435111
