k_current_TRITOPS_S_A1u_L_100_Delta0_0.4_Delta1_0.2_lambda_0.5_mu_2_tJ_0.5_theta_0.npy (npy, 144128 bytes, 1 tensors)

array f8 [75, 240]
-0.0863319053386874 -0.08598433110994184 -0.08526671854157143 -0.08450486516396469 -0.08370009671347269 -0.08285367559526428 -0.08196683580088374 -0.08104078317852714
-0.08007669582872716 -0.07907572451949776 -0.0780389931814806 -0.07696759941822705 -0.07586261509864427 -0.07472508694079226 -0.07355603712378991 -0.07235646395377612
-0.07112734249960011 -0.0698696252695937 -0.06858424287969471 -0.06727210473670589 -0.06593409972371606 -0.06457109685525023 -0.06318394596269078 -0.061773478379698536
-0.0603405075843897 -0.05888582984583712 -0.0574102248792205 -0.055914456500976505 -0.05439927320827157 -0.052865408825503175 -0.05131358310107029 -0.04974450226954844
-0.04815885967440671 -0.04655733628910072 -0.04494060129005881 -0.043309312608045956 -0.04166411743628363 -0.04000565275370494 -0.03833454583523669 -0.03665141475127024
-0.03495686884551033 -0.03325150919768838 -0.03153592910789792 -0.029810714544172445 -0.028076444577089965 -0.026333691823026403 -0.024583022878760165 -0.022824998734454587
-0.02106017518231596 -0.01928910323173818 -0.017512329502825275 -0.01573039662640061 -0.013943843613745064 -0.01215320627390392 -0.010359017557478522 -0.008561807954473241
-0.006762105853222628 -0.004960437918778465 -0.003157329453999132 -0.001353304760638968 0.0004511124865890951 0.0022553988962218663 0.004059030964361143 0.005861484756828583
0.007662235515643169 0.00946075729576963 0.01125652262781341 0.013049002115849286 0.014837664076331997 0.01662197418781795 0.018401395088793824 0.020175385997127315
0.0219434023381667 0.023704895353380516 0.025459311687375127 0.027206092998696585 0.028944675549010417 0.030674489787956963 0.03239495991854681 0.03410550347985393
0.03580553089727563 0.03749444503279251 0.039171640730904005 0.04083650435375283 0.04248841329246516 0.0441267354698419 0.04575082886250992 0.04736004098199117
0.048953708349285315 0.05053115594566787 0.05209169668294837 0.053634630847781924 0.05515924551787205 0.05666481398249795 0.05815059516087949 0.05961583296864922
0.06105975572108189 0.06248157550389084 0.0638804875245645 0.06525566946802726 0.06660628082202937 0.06793146224794341 0.06923033488885647 0.07050199968847343
0.07174553671218252 0.0729600044810941 0.0741444392931061 0.0752978545439696 0.0764192400764631 0.07750756151226902 0.07856175964223003 0.07958074979930767
0.08056342128775838 0.08150863681879629 0.08241523201328449 0.083282014951995 0.08410776574965302 0.08489123625222735 0.08563114974935616 0.042995027936293936
-0.042995027931969514 -0.08563114975368058 -0.08489123625655177 -0.08410776575181524 -0.08328201494983278 -0.08241523201328449 -0.08150863681447187 -0.08056342128559617
-0.07958074979930767 -0.07856175964006783 -0.07750756151443124 -0.07641924007862531 -0.0752978545439696 -0.07414443929094389 -0.0729600044810941 -0.07174553671002032
-0.07050199968631121 -0.06923033489101868 -0.06793146225226783 -0.06660628082419158 -0.06525566946154061 -0.0638804875245645 -0.06248157551037748 -0.0610597557232441
-0.05961583296648701 -0.05815059515871728 -0.05666481398466016 -0.05515924551787205 -0.0536346308434575 -0.05209169668511058 -0.05053115594566787 -0.048953708349285315
-0.047360040988477806 -0.04575082886250992 -0.044126735463355264 -0.042488413288140736 -0.04083650435591504 -0.03917164073306621 -0.03749444503279251 -0.035805530895113416
-0.034105503482016145 -0.03239495991854681 -0.03067448978579475 -0.028944675551172628 -0.027206093000858796 -0.025459311685212916 -0.023704895351218305 -0.02194340234032891
-0.020175385994965104 -0.018401395086631613 -0.01662197418998016 -0.014837664078494208 -0.013049002115849286 -0.011256522629975622 -0.00946075729576963 -0.007662235513480956
-0.005861484756828583 -0.004059030962198931 -0.0022553988940596545 -0.00045111249091351864 0.0013533047584767565 0.0031573294518369203 0.004960437918778465 0.00676210585538484
0.008561807954473241 0.010359017557478522 0.01215320627390392 0.013943843615907276 0.015730396624238398 0.017512329502825275 0.01928910323390039 0.02106017518231596
0.022824998734454587 0.024583022880922376 0.026333691820864192 0.028076444574927754 0.029810714546334657 0.03153592910789792 0.03325150919768838 0.03495686884551033
0.03665141475127024 0.03833454583523669 0.04000565275370494 0.04166411743412141 0.043309312608045956 0.044940601292221015 0.04655733628693851 0.04815885967440671
0.04974450227171066 0.05131358310107029 0.05286540882766538 0.05439927320610936 0.055914456500976505 0.057410224881382706 0.05888582984367491 0.06034050758655191
0.06177347838186075 0.06318394596052856 0.06457109685308801 0.06593409972155384 0.06727210473670589 0.06858424288185691 0.0698696252695937 0.0711273424974379
0.07235646395377612 0.07355603713027654 0.07472508693863006 0.07586261509864427 0.07696759941822705 0.07803899317499395 0.07907572452165997 0.08007669583088937
0.08104078317852714 0.08196683580088374 0.08285367559526428 0.08370009671347269 0.0845048651661269 0.08526671854157143 0.08598433110994184 0.08633190534301183
-0.007503965699854893 -0.014638281765215925 -0.027950378470689135 -0.0390931869791724 -0.047843080611624796 -0.054412879784115645 -0.0591956782731433 -0.06259344676365859
-0.06494463286860605 -0.06651032866898031 -0.06748402819598771 -0.0680069002591591 -0.06818170113083598 -0.06808360964872244 -0.06776813604808128 -0.06727673609914017
00000000: 98f1 0706 d919 b6bf 37ec 15b2 1103 b6bf
00000010: e1c2 9227 0ad4 b5bf 166c 3b60 1ca2 b5bf
00000020: 6170 0e9a 5e6d b5bf 43f9 0803 e635 b5bf
00000030: ea13 1f4f c7fb b4bf 40dd 64b9 16bf b4bf
00000040: 4391 c105 e87f b4bf e2ff b782 4e3e b4bf
00000050: 4bf8 860b 5dfa b3bf 8f58 5a0a 26b4 b3bf
00000060: 5b74 d67a bb6b b3bf 3ff9 99ec 2e21 b3bf
00000070: eaba de85 91d4 b2bf 8eee 5506 f485 b2bf
00000080: cb1d e3c9 6635 b2bf 2645 84cb f9e2 b1bf
00000090: 0b70 30a8 bc8e b1bf 1af9 c6a1 be38 b1bf
000000a0: 0c2b 01a2 0ee1 b0bf 1299 423d bb87 b0bf
000000b0: bcbf 8ab5 d22c b0bf b74b cdfa c5a0 afbf
000000c0: 81e2 6575 f3e4 aebf 5079 c592 4826 aebf
000000d0: 3ae0 9f7c df64 adbf b332 17d4 d1a0 acbf
000000e0: b51d b6b6 38da abbf a18b fdc3 2c11 abbf
000000f0: 24f4 8422 c645 aabf a598 ce84 1c78 a9bf
00000100: c2e2 a02e 47a8 a8bf 9c49 80f9 5cd6 a7bf
00000110: 5c54 9b59 7402 a7bf 8310 8762 a32c a6bf
00000120: f16f 9ccb ff54 a5bf 61ef 76f4 9e7b a4bf
00000130: a5b5 56e9 95a0 a3bf c5ec 6a67 f9c3 a2bf
00000140: f48e ece0 dde5 a1bf 00eb 1781 5706 a1bf
00000150: eeb4 5530 7a25 a0bf d083 2630 b386 9ebf
00000160: b079 fc4c 12c0 9cbf ccbf a624 38f7 9abf
00000170: 2a52 34bd 4a2c 99bf 6e05 62bc 6f5f 97bf
00000180: e2d2 9f6e cc90 95bf c6ab 32ce 85c0 93bf
00000190: 5034 f789 c0ee 91bf f905 410c a11b 90bf
000001a0: 5f9f 6902 978e 8cbf 3c57 e7bb c7e3 88bf
000001b0: 5944 06cd 1b37 85bf b8d3 4569 da88 81bf
000001c0: 47ed ddf7 94b2 7bbf 2ced 286a 6551 74bf
000001d0: c488 ec57 66dd 69bf 80d1 0fec 2b2c 56bf
000001e0: 3a8d 7060 6990 3d3f 4069 f50f ea79 623f
000001f0: 2616 edd3 33a0 703f 0ca3 6255 3602 783f
00000200: 8e53 43af 6f62 7f3f 671f 7259 2960 833f
00000210: 04d6 6ce4 a80d 873f d4ff a96a 6fb9 8a3f
00000220: b0b0 a78f 3563 8e3f bb64 20ce 5905 913f
00000230: 49b7 6db8 d0d7 923f a0d7 2a3c dba8 943f
00000240: 1b20 9fcd 5478 963f 4605 3199 1846 983f
00000250: fcc4 4d7c 0112 9a3f 40b0 b9fe e9db 9b3f
00000260: ce5c 814b aca3 9d3f c4d1 d729 2269 9f3f
00000270: 328f cf7a 1296 a03f 2a82 1ecc 4676 a13f
00000280: aa7e 7040 1a55 a23f 7d20 65ce 7832 a33f
00000290: c762 bd27 4e0e a43f 5c5a 5db5 85e8 a43f
000002a0: b7a2 1993 0ac1 a53f 0ec6 718b c797 a63f
000002b0: 6070 7513 a76c a73f 5b4b 4f46 933f a83f
000002c0: a996 c1e0 7510 a93f c872 6e3c 38df a93f
000002d0: e6f6 4a4b c3ab aa3f 1938 d992 ff75 ab3f
000002e0: c980 2427 d53d ac3f 880a c7a5 2b03 ad3f
000002f0: aef6 ea30 eac5 ad3f cb29 d969 f785 ae3f
00000300: bdfb d86b 3943 af3f 8a95 c8c6 95fd af3f
00000310: 2542 c5bc 785a b03f 3d67 3e76 98b4 b03f
00000320: 21bc d6f5 1b0d b13f ae70 b9d0 f463 b13f
00000330: ca1f 3d48 14b9 b13f bcef f646 6b0c b23f
00000340: 1713 d05d ea5d b23f 528d 29c1 81ad b23f
00000350: b0b3 f145 21fb b23f 35ae b95e b846 b33f
00000360: 7be0 e918 3690 b33f a94d e319 89d7 b33f
00000370: da2c 619c 9f1c b43f ab78 c76d 675f b43f
00000380: 8f4e afeb cd9f b43f 0170 7a01 c0dd b43f
00000390: 9076 3026 2a19 b53f 4c55 905a f851 b53f
000003a0: e500 3c27 1688 b53f 7d9a 6b9b 6ebb b53f
000003b0: b93e b14b eceb b53f ae04 c1bd 7103 a63f
000003c0: 3f82 b7bd 7103 a6bf f0ff b54b eceb b5bf
000003d0: b55b 709b 6ebb b5bf 8161 3e27 1688 b5bf
000003e0: b0f4 8d5a f851 b5bf 9076 3026 2a19 b5bf
000003f0: caae 7501 c0dd b4bf f3ed aceb cd9f b4bf
00000400: ab78 c76d 675f b4bf 3fcc 5e9c 9f1c b4bf
00000410: 45ae e519 89d7 b3bf 1741 ec18 3690 b3bf
00000420: 35ae b95e b846 b3bf 1453 ef45 21fb b2bf
00000430: 528d 29c1 81ad b2bf 7cb2 cd5d ea5d b2bf
00000440: 208f f446 6b0c b2bf 6680 3f48 14b9 b1bf
00000450: e531 bed0 f463 b1bf bd1c d9f5 1b0d b1bf
00000460: 6945 3776 98b4 b0bf 2542 c5bc 785a b0bf
00000470: 31d9 d6c6 95fd afbf f4bc dd6b 3943 afbf
00000480: 9468 d469 f785 aebf 7735 e630 eac5 adbf
00000490: bfcb cba5 2b03 adbf c980 2427 d53d acbf
000004a0: aab5 cf92 ff75 abbf 1db8 4f4b c3ab aabf
000004b0: c872 6e3c 38df a9bf a996 c1e0 7510 a9bf
000004c0: 028f 5d46 933f a8bf 6070 7513 a76c a7bf
000004d0: 6782 638b c797 a6bf 4820 1093 0ac1 a5bf
000004e0: 941b 62b5 85e8 a4bf fe23 c227 4e0e a4bf
000004f0: 7d20 65ce 7832 a3bf 72bd 6b40 1a55 a2bf
00000500: 6243 23cc 4676 a1bf 328f cf7a 1296 a0bf
00000510: 554f ce29 2269 9fbf 3ddf 8a4b aca3 9dbf
00000520: af32 c3fe e9db 9bbf 8d42 447c 0112 9abf
00000530: d782 2799 1846 98bf 8aa2 a8cd 5478 96bf
00000540: 3155 213c dba8 94bf da34 64b8 d0d7 92bf
00000550: 2ae7 29ce 5905 91bf 8eb5 ba8f 3563 8ebf
00000560: d4ff a96a 6fb9 8abf e2da 7fe4 a80d 87bf
00000570: 671f 7259 2960 83bf d149 1daf 6f62 7fbf
00000580: 0ca3 6255 3602 78bf 690c c7d3 33a0 70bf
00000590: c755 a90f ea79 62bf c8c4 3165 6990 3dbf
000005a0: 8faa 77eb 2b2c 563f 4b75 a057 66dd 693f
000005b0: 2ced 286a 6551 743f 04f7 03f8 94b2 7b3f
000005c0: b8d3 4569 da88 813f 5944 06cd 1b37 853f
000005d0: 3c57 e7bb c7e3 883f 3da4 7c02 978e 8c3f
000005e0: 8a83 370c a11b 903f 5034 f789 c0ee 913f
000005f0: 352e 3cce 85c0 933f e2d2 9f6e cc90 953f
00000600: 6e05 62bc 6f5f 973f 99d4 3dbd 4a2c 993f
00000610: 5d3d 9d24 38f7 9a3f 41f7 f24c 12c0 9c3f
00000620: 3f06 3030 b386 9e3f eeb4 5530 7a25 a03f
00000630: 00eb 1781 5706 a13f f48e ece0 dde5 a13f
00000640: c5ec 6a67 f9c3 a23f a5b5 56e9 95a0 a33f
00000650: 61ef 76f4 9e7b a43f b9ae 97cb ff54 a53f
00000660: 8310 8762 a32c a63f 9315 a059 7402 a73f
00000670: 6588 7bf9 5cd6 a73f c2e2 a02e 47a8 a83f
00000680: dd59 d384 1c78 a93f 24f4 8422 c645 aa3f
00000690: d84c 02c4 2c11 ab3f 7d5c b1b6 38da ab3f
000006a0: b332 17d4 d1a0 ac3f 71a1 a47c df64 ad3f
000006b0: 18b8 c092 4826 ae3f b9a3 6a75 f3e4 ae3f
000006c0: ef0c d2fa c5a0 af3f 205f 88b5 d22c b03f
000006d0: 7638 403d bb87 b03f 70ca fea1 0ee1 b03f
000006e0: 1af9 c6a1 be38 b13f a6d0 32a8 bc8e b13f
000006f0: 2645 84cb f9e2 b13f 30bd e0c9 6635 b23f
00000700: 8eee 5506 f485 b23f bddc e585 91d4 b23f
00000710: a498 97ec 2e21 b33f 5b74 d67a bb6b b33f
00000720: 8f58 5a0a 26b4 b33f 77d6 7f0b 5dfa b33f
00000730: 7d60 ba82 4e3e b43f dff1 c305 e87f b43f
00000740: 40dd 64b9 16bf b43f ea13 1f4f c7fb b43f
00000750: 43f9 0803 e635 b53f 6170 0e9a 5e6d b53f
00000760: b2cc 3d60 1ca2 b53f e1c2 9227 0ad4 b53f
00000770: 37ec 15b2 1103 b63f d0b2 0c06 d919 b63f
00000780: 7bc3 5674 7abc 7ebf 6221 9ceb acfa 8dbf
00000790: fb0c c525 069f 9cbf bed7 24af 0504 a4bf
000007a0: 4136 2265 e37e a8bf 5ad3 4e46 01dc abbf
000007b0: fed0 7e5c e54e aebf 7d38 cbc6 1f06 b0bf
000007c0: feac 3822 36a0 b0bf 4fbf 7a26 d206 b1bf
000007d0: e5a6 1a1e a246 b1bf b7f2 8374 e668 b1bf
000007e0: f7e6 8a20 5b74 b1bf 8bbb d56c ed6d b1bf
000007f0: 3f92 09a8 4059 b1bf 6ed2 5355 0c39 b1bf
