k_current_L_200_Delta0_4_Delta1_2.2_lambda_7_mu_2_tJ_0.5_theta_0.npy (npy, 5888 bytes, 1 tensors)

array f8 [3, 240]
00000000: b5c3 803c c302 623f aa3f fc2a 9902 723f
00000010: ebd3 fcee 4402 823f 32dd 5ac9 9402 8b3f
00000020: 829f 0df9 f300 923f a8bb 6718 f57f 963f
00000030: d5f6 4ca8 23fe 9a3f dccf 5b93 557b 9f3f
00000040: 4a08 a064 b0fb a13f 27cb f89c 0d39 a43f
00000050: a3eb d26d ad75 a63f 90a0 14d8 7ab1 a83f
00000060: f884 43da 60ec aa3f 16c3 fc78 4a26 ad3f
00000070: 7458 ffbf 225f af3f 8fce 415c 6acb b03f
00000080: 2b05 0aba a5e6 b13f 542d 9104 3901 b33f
00000090: 1077 53c8 191b b43f 261e e395 3d34 b53f
000000a0: 0ed8 adff 994c b63f d721 2d9b 2464 b73f
000000b0: d570 a401 d37a b83f 15fd 4fcf 9a90 b93f
000000c0: 7dbc 51a3 71a5 ba3f c7d2 6621 4db9 bb3f
000000d0: 676f 62f1 22cc bc3f 1471 c4bd e8dd bd3f
000000e0: e019 7936 94ee be3f 9cb7 820f 1bfe bf3f
000000f0: 5b54 8680 3986 c03f 7b57 57e4 c80c c13f
00000100: 96eb 8694 b692 c13f 90ab ab74 fd17 c23f
00000110: 89e1 086b 989c c23f 17a4 0061 8220 c33f
00000120: 5f40 be42 b6a3 c33f cc43 5cff 2e26 c43f
00000130: 167c e488 e7a7 c43f 2d1e e8d4 da28 c53f
00000140: e7ad 20dc 03a9 c53f 4b85 8c9a 5d28 c63f
00000150: 6000 1a10 e3a6 c63f 14ca df3f 8f24 c73f
00000160: ed9d 1d31 5da1 c73f 6ca8 c0ee 471d c83f
00000170: ce21 cc87 4a98 c83f 39da 880f 6012 c93f
00000180: 3a95 f69c 838b c93f 4366 354c b003 ca3f
00000190: 37e5 5e3d e17a ca3f a7dc 3a95 11f1 ca3f
000001a0: 2c62 9e7d 3c66 cb3f eac2 1f25 5dda cb3f
000001b0: 2601 0dbf 6e4d cc3f 1e91 5984 6cbf cc3f
000001c0: fbc7 5bb3 5130 cd3f 1041 648f 19a0 cd3f
000001d0: 198c 7261 bf0e ce3f b9d1 c378 3e7c ce3f
000001e0: 1e2a 312a 92e8 ce3f fe9c 2fd0 b553 cf3f
000001f0: 8700 43cc a4bd cf3f d19b fe42 2d13 d03f
00000200: 8261 a035 e946 d03f d4b2 67f8 037a d03f
00000210: e8c9 0349 7bac d03f 00de 00e9 4cde d03f
00000220: 6e01 439d 760f d13f 0c35 522e f63f d13f
00000230: 9480 b968 c96f d13f d957 9e1c ee9e d13f
00000240: dcbc 451e 62cd d13f 39c2 1d46 23fb d13f
00000250: fcfe 8d70 2f28 d23f 3068 5b7e 8454 d23f
00000260: b5c4 7854 2080 d23f cb86 6adc 00ab d23f
00000270: bc0f 5504 24d5 d23f e7e4 d1be 87fe d23f
00000280: bc0b 5d03 2a27 d33f e104 42ce 084f d33f
00000290: 9219 d020 2276 d33f 35d9 5001 749c d33f
000002a0: db61 297b fcc1 d33f 0afb 429f b9e6 d33f
000002b0: b184 c883 a90a d43f 5403 5644 ca2d d43f
000002c0: 9a79 5c02 1a50 d43f 6752 cce4 9671 d43f
000002d0: 94c6 a818 3f92 d43f b08a c0d0 10b2 d43f
000002e0: c269 1646 0ad1 d43f bfc7 eab7 29ef d43f
000002f0: f123 c56b 6d0c d53f 28a5 a3ad d328 d53f
00000300: f1da ffcf 5a44 d53f 4f23 622c 015f d53f
00000310: 3606 d322 c578 d53f a557 601a a591 d53f
00000320: 194b 6981 9fa9 d53f de9e 4dcd b2c0 d53f
00000330: 0ef8 da7a ddd6 d53f 162b 6e0e 1eec d53f
00000340: 5b7f 0114 7300 d63f 0c7f 6a1f db13 d63f
00000350: 961d f6cb 5426 d63f 5a79 69bd de37 d63f
00000360: 804f d29f 7748 d63f 83e8 3a27 1e58 d63f
00000370: 6bc6 5e10 d166 d63f 080a 4220 8f74 d63f
00000380: da64 f424 5781 d63f 740a 58f5 278d d63f
00000390: 9276 3971 0098 d63f 2f8f d481 dfa1 d63f
000003a0: 6e82 4f19 c4aa d63f 80b8 7d33 adb2 d63f
000003b0: 4f17 eed5 99b9 d63f 0457 8aea d0bc c63f
000003c0: b7cf 6dea d0bc c6bf bf99 f7d5 99b9 d6bf
000003d0: 5fbd 9033 adb2 d6bf 36c1 4a19 c4aa d6bf
000003e0: 894b c681 dfa1 d6bf 39ba 4771 0098 d6bf
000003f0: cdc6 49f5 278d d6bf a2a3 ef24 5781 d6bf
00000400: 40cb 4620 8f74 d6bf 8dc1 4b10 d166 d6bf
00000410: 62ed 4d27 1e58 d6bf ced6 ee9f 7748 d6bf
00000420: 00bd 77bd de37 d6bf 8057 decb 5426 d6bf
00000430: bff7 4d1f db13 d6bf 01c3 0f14 7300 d6bf
00000440: bd6e 7c0e 1eec d5bf 0ef8 da7a ddd6 d5bf
00000450: 1560 52cd b2c0 d5bf 194b 6981 9fa9 d5bf
00000460: 6e96 5b1a a591 d5bf ff44 ce22 c578 d5bf
00000470: dfa0 582c 015f d5bf f1da ffcf 5a44 d5bf
00000480: f1e3 9ead d328 d5bf 28e5 c96b 6d0c d5bf
00000490: 2e4a f4b7 29ef d4bf fa2a 1b46 0ad1 d4bf
000004a0: 4108 b7d0 10b2 d4bf 94c6 a818 3f92 d4bf
000004b0: 9e13 d1e4 9671 d4bf 62b8 5702 1a50 d4bf
000004c0: 5403 5644 ca2d d4bf 4202 bf83 a90a d4bf
000004d0: 42bc 479f b9e6 d3bf db61 297b fcc1 d3bf
000004e0: c656 4701 749c d3bf 395d de20 2276 d3bf
000004f0: 8748 50ce 084f d3bf 4d89 5303 2a27 d3bf
00000500: 08e0 bebe 87fe d2bf 15cc 4604 24d5 d2bf
00000510: 3a09 74dc 00ab d2bf ed85 7d54 2080 d2bf
00000520: 3068 5b7e 8454 d2bf 6b81 9770 2f28 d2bf
00000530: a844 2746 23fb d1bf 147e 4a1e 62cd d1bf
00000540: 6ad5 941c ee9e d1bf ed3c ab68 c96f d1bf
00000550: d473 4d2e f63f d1bf 3640 3e9d 760f d1bf
00000560: 6f60 0ae9 4cde d0bf 8f0d 1249 7bac d0bf
00000570: 9df1 62f8 037a d0bf b922 a535 e946 d0bf
00000580: 6219 f542 2d13 d0bf 6505 56cc a4bd cfbf
00000590: dda1 42d0 b553 cfbf d1a2 142a 92e8 cebf
000005a0: 97d6 d678 3e7c cebf aa09 6961 bf0e cebf
000005b0: 5437 3e8f 19a0 cdbf fbc7 5bb3 5130 cdbf
000005c0: b89f 9284 6cbf ccbf 9683 16bf 6e4d ccbf
000005d0: 2db9 f924 5dda cbbf 2c62 9e7d 3c66 cbbf
000005e0: 165f 4495 11f1 cabf 59e0 4b3d e17a cabf
000005f0: b2e8 3e4c b003 cabf f69e 1c9d 838b c9bf
00000600: 5ad5 750f 6012 c9bf f01c b987 4a98 c8bf
00000610: 8ea3 adee 471d c8bf 3b25 3a31 5da1 c7bf
00000620: f2ce f23f 8f24 c7bf 1379 fd0f e3a6 c6bf
00000630: 4b85 8c9a 5d28 c6bf c5b2 33dc 03a9 c5bf
00000640: 0b23 fbd4 da28 c5bf c9f4 c788 e7a7 c4bf
00000650: 5dc1 52ff 2e26 c4bf 3d45 d142 b6a3 c3bf
00000660: 17a4 0061 8220 c3bf 1a5f ff6a 989c c2bf
00000670: 4324 8f74 fd17 c2bf 2769 7d94 b692 c1bf
00000680: 595c 6ae4 c80c c1bf 3959 9980 3986 c0bf
00000690: 59c1 a80f 1bfe bfbf e019 7936 94ee bebf
000006a0: 5867 9ebd e8dd bdbf 676f 62f1 22cc bcbf
000006b0: 83dc 8c21 4db9 bbbf 7dbc 51a3 71a5 babf
000006c0: 58f3 29cf 9a90 b9bf d570 a401 d37a b8bf
000006d0: 932b 539b 2464 b7bf 30d3 9aff 994c b6bf
000006e0: 4819 d095 3d34 b5bf 546d 2dc8 191b b4bf
000006f0: b91e 5804 3901 b3bf c613 43ba a5e6 b1bf
00000700: b1c9 2e5c 6acb b0bf 3f3b 8dbf 225f afbf
00000710: 3d07 077a 4a26 adbf 3c7b 1dda 60ec aabf
00000720: 9e79 7cd7 7ab1 a8bf 511c 916e ad75 a6bf
00000730: f2ad 869c 0d39 a4bf d1f4 5364 b0fb a1bf
00000740: 470a 4094 557b 9fbf 5de3 00a8 23fe 9abf
00000750: b694 cf17 f57f 96bf 74c6 a5f9 f300 92bf
00000760: f878 bbcb 9402 8bbf 3311 04ec 4402 82bf
00000770: e3a3 9b28 9902 72bf eba1 854f c302 62bf
00000780: 171e 170c 3601 623f f3b0 aadb 0b01 723f
00000790: 65dc 1773 b700 823f 6142 6c25 4000 8b3f
000007a0: 99c4 b0d1 65ff 913f 651d dfc4 027e 963f
000007b0: dcf8 b8bc ccfb 9a3f 5948 2b8e 9978 9f3f
000007c0: c3c2 1b88 1ffa a13f da09 b88e 4937 a43f
000007d0: d66d 2ccb b573 a63f aa61 a92f 4faf a83f
000007e0: 3738 cab1 00ea aa3f 9ff3 d649 b523 ad3f
000007f0: 4245 c4f2 575c af3f 5f23 83d6 e9c9 b03f
0.00219858295533767 0.004397009193567595 0.008793390792201058 0.013188516993393937 0.0175817604789752 0.02197249375779689 0.0263600894424972 0.030743920439775127
0.03512335995039047 0.03949778119240071 0.04386655774711492 0.04822906387045223 0.05258467354156865 0.05693276144882568 0.0612727031108741 0.0656038737523039
0.06992564956637597 0.07423740731717504 0.07853852406284667 0.08282837781290961 0.08710634700932493 0.09137181080325917 0.09562414922806124 0.09986274300898786
0.10408697354590575 0.10829622331113874 0.11248987572838375 0.11666731484405474 0.1208279259672973 0.12497109535863021 0.12909621024724313 0.13320265912505733
0.13728983166023728 0.1413571185761069 0.1454039118414239 0.1494296048779524 0.15343359240478358 0.15741527050752635 0.16137403663830757 0.16530928989253493
0.16922043083592017 0.1731068615563721 0.176967985975355 0.18080320948463735 0.18461193941332912 0.18839358480301216 0.19214755659801458 0.1958732677318993
0.19957013286799868 0.20323756905672682 0.20687499519935112 0.2104818323766484 0.21405750402188184 0.21760143578241947 0.22111305550243648 0.22459179365535759
0.22803708322277302 0.2314483595041641 0.2348250604455593 0.23816662689899973 0.24147250232847822 0.24474213280993945 0.24797496770588998 0.2511704591983604
0.2543280624099894 0.2574472356634889 0.26052744036056064 0.2635681415008264 0.2665688071974931 0.2695289089541155 0.27244792201055046 0.2753253249624073
0.2781606002453836 0.28095323416986023 0.2837027167479247 0.2864085420566225 0.28907020806498035 0.2916872169972577 0.29425907538483975 0.29678529391055836
0.2992653878065388 0.3016988767850091 0.3040852852285748 0.30642414215562336 0.308714981341408 0.31095734169859723 0.31315076703510686 0.31529480622707706
0.3173890135821239 0.31943294852798093 0.3214261761487276 0.32336826692532394 0.3252587971161597 0.3270973487916499 0.32888350986883014 0.3306168742843334
0.332297042011688 0.3339236195975461 0.33549621964275234 0.33701446128668017 0.33847797048399425 0.3398863797105899 0.34123932836144 0.34253646287167905
0.343777436768496 0.34496191089600425 0.3460895530519904 0.34716003892198943 0.34817305190630776 0.3491282828432604 0.3500254306664831 0.35086420202438307
0.35164431198934454 0.3523654838501564 0.3530274491985007 0.35362994841328804 0.3541727301763221 0.35465555218150513 0.3550781811867311 0.1776372094361066
-0.17763720938421354 -0.35507818122132656 -0.35465555225069595 -0.3541727301590244 -0.353629948361395 -0.3530274492503938 -0.3523654837982633 -0.3516443119720468
-0.3508642020416808 -0.35002543059729235 -0.34912828291245124 -0.34817305201009396 -0.3471600389738825 -0.3460895529655019 -0.3449619107922181 -0.343777436820389
-0.34253646292357215 -0.34123932836144 -0.33988637972788754 -0.33847797048399425 -0.3370144612693825 -0.3354962196254547 -0.33392361956295064 -0.332297042011688
-0.33061687426703573 -0.3288835098861278 -0.3270973488262453 -0.3252587971334574 -0.32336826689072856 -0.3214261761487276 -0.3194329485452786 -0.3173890135648262
-0.31529480622707706 -0.3131507670005115 -0.31095734171589495 -0.308714981341408 -0.306424142121028 -0.3040852852804679 -0.30169887683690216 -0.2992653877719434
-0.29678529384136754 -0.29425907533294665 -0.2916872170318531 -0.28907020808227807 -0.2864085420566225 -0.28370271678252007 -0.2809532342044556 -0.2781606002626813
-0.2753253249278119 -0.27244792195865736 -0.2695289089368178 -0.2665688071801954 -0.2635681415354218 -0.26052744041245374 -0.25744723564619126 -0.25432806242728706
-0.251170459163765 -0.24797496774048536 -0.24474213284453486 -0.24147250227658515 -0.2381666269335951 -0.23482506042826162 -0.23144835943497333 -0.22803708322277302
-0.22459179375914373 -0.2211130555197342 -0.21760143571322868 -0.21405750402188184 -0.21048183239394608 -0.20687499516475574 -0.20323756907402452 -0.19957013293718945
-0.1958732676973039 -0.1921475565634192 -0.18839358476841678 -0.18461193946522222 -0.18080320951923273 -0.17696798592346194 -0.1731068615563721 -0.16922043087051555
-0.16530928992713032 -0.1613740365864145 -0.15741527049022866 -0.15343359243937896 -0.1494296048779524 -0.1454039118241262 -0.14135711852421382 -0.1372898316429396
-0.1332026591596527 -0.1290962102818385 -0.12497109539322561 -0.1208279259672973 -0.11666731480945935 -0.11248987572838375 -0.10829622334573412 -0.10408697354590575
-0.09986274297439246 -0.09562414922806124 -0.09137181083785455 -0.08710634699202724 -0.08282837779561192 -0.07853852402825129 -0.07423740726528195 -0.06992564961826905
-0.06560387373500622 -0.06127270305898102 -0.05693276156990954 -0.05258467352427096 -0.04822906380126145 -0.04386655783360339 -0.03949778114050763 -0.03512335991579508
-0.03074392049166821 -0.026360089425199507 -0.0219724937232015 -0.01758176051357059 -0.013188517062584712 -0.008793390705712589 -0.004397009158972206 -0.0021985830937192217
0.002197843132964793 0.004395529099081796 0.008790429305902412 0.013184071676307587 0.017575827525608465 0.021965068117223114 0.02635116483565346 0.030733489324866834
0.03511141334991443 0.039484308883419764 0.043851548243960245 0.04821250397498329 0.052566549017783286 0.05691305662501311 0.06125140036068412 0.06558095442882238
