k_current_L_200_Delta0_0.4_Delta1_0.2_lambda_0.5_mu_2_tJ_0.5_theta_pi_over_4.npy (npy, 144128 bytes, 1 tensors)

array f8 [75, 240]
00000000: 5e63 dd4e 5bdd 443f 75e2 0502 39dd 543f
00000010: e9da 1070 f4dc 643f 3978 2d3e c34a 6f3f
00000020: ec92 812b e2db 743f b333 6a93 d911 7a3f
00000030: d6a5 0d8c 2547 7f3f 0ff0 3fe3 d13d 823f
00000040: 599d a8fa 98d7 843f 0692 c0e3 d670 873f
00000050: d0df 8073 7a09 8a3f 63bf 7a7f 72a1 8c3f
00000060: 62d7 04db ad38 8f3f b98a 51ab 8de7 903f
00000070: 6796 fae0 5432 923f 0f29 56f5 a37c 933f
00000080: aa7b c04d 72c6 943f 8496 d74e b70f 963f
00000090: 0f0d 715b 6a58 973f e024 32d5 82a0 983f
000000a0: 82da a21c f8e7 993f 8bba 9590 c12e 9b3f
000000b0: bbdc 148e d674 9c3f 56fc c070 2eba 9d3f
000000c0: c95f 7292 c0fe 9e3f 09e5 7f25 4221 a03f
000000d0: 8ac9 4e78 b8c2 a03f c642 aceb be63 a13f
000000e0: f071 9428 5104 a23f a9b1 efd6 6aa4 a23f
000000f0: 481d af9d 0744 a33f d0ff 8922 23e3 a33f
00000100: c747 ce09 b981 a43f 27ae f8f6 c41f a53f
00000110: 8e8a 098c 42bd a53f 1bd8 9769 2d5a a63f
00000120: 57cb 262f 81f6 a63f 9132 aa7a 3992 a73f
00000130: e806 c9e8 512d a83f ae5d a414 c6c7 a83f
00000140: 8c63 c497 9161 a93f 69f2 6d0a b0fa a93f
00000150: 3874 3003 1d93 aa3f 12de d216 d42a ab3f
00000160: e34f cfd8 d0c1 ab3f c174 d7da 0e58 ac3f
00000170: 5174 9bac 89ed ac3f 4d97 58dc 3c82 ad3f
00000180: e638 a0f6 2316 ae3f fd2b ef85 3aa9 ae3f
00000190: e6c4 d312 7c3b af3f fbe7 2624 e4cc af3f
000001a0: 827d 691f b72e b03f 2e70 e0f2 8a76 b03f
000001b0: 0779 e24c ebbd b03f c985 e2ec d504 b13f
000001c0: 7bc2 5291 484b b13f cd8a 6bf7 4091 b13f
000001d0: 9a7d 77db bcd6 b13f 2473 adf8 b91b b23f
000001e0: e0bb 2b09 3660 b23f 4b94 c8c5 2ea4 b23f
000001f0: f0b5 54e6 a1e7 b23f c613 8d21 8d2a b33f
00000200: 94cb e12c ee6c b33f 3aad 92bc c2ae b33f
00000210: 983f c283 08f0 b33f 5834 4634 bd30 b43f
00000220: d56c ba7e de70 b43f bc3d 8f12 6ab0 b43f
00000230: ae21 d59d 5def b43f f7c2 62cd b62d b53f
00000240: d3f1 ae4c 736b b53f 9f30 00c6 90a8 b53f
00000250: a427 3de2 0ce5 b53f 1fa5 ec48 e520 b63f
00000260: ad1f 3fa0 175c b63f a472 008d a196 b63f
00000270: f2e2 aab2 80d0 b63f 5f15 41b3 b209 b73f
00000280: 6f13 612f 3542 b73f cccd 4dc6 057a b73f
00000290: fe94 d215 22b1 b73f 4f53 2bba 87e7 b73f
000002a0: 35da 384e 341d b83f de5f 776b 2552 b83f
000002b0: 28ee bba9 5886 b83f aaf3 769f cbb9 b83f
000002c0: d73e a1e1 7bec b83f 0933 9103 671e b93f
000002d0: ac54 2a97 8a4f b93f 2c83 c52c e47f b93f
000002e0: b737 2c53 71af b93f b107 a297 2fde b93f
000002f0: 4422 db85 1c0c ba3f 6050 fca7 3539 ba3f
00000300: fcea 7486 7865 ba3f cbaf 4fa8 e290 ba3f
00000310: 9db2 f992 71bb ba3f 36d1 12ca 22e5 ba3f
00000320: f252 e9cf f30d bb3f 8ecb 0725 e235 bb3f
00000330: 0b20 4848 eb5c bb3f 8f1c 29b7 0c83 bb3f
00000340: 3557 5ced 43a8 bb3f 9078 e764 8ecc bb3f
00000350: 464a 5d96 e9ef bb3f 3de7 9ff8 5212 bc3f
00000360: f677 d200 c833 bc3f 3d07 aa22 4654 bc3f
00000370: 1bf1 2ad0 ca73 bc3f a721 a479 5392 bc3f
00000380: 9823 e88d ddaf bc3f 5655 227a 66cc bc3f
00000390: c327 d2a9 ebe7 bc3f f327 f186 6a02 bd3f
000003a0: c07c e979 e01b bd3f f916 58e9 4a34 bd3f
000003b0: 9672 113a a74b bd3f 59be 3487 1157 ad3f
000003c0: c840 3e87 1157 adbf 5eb1 0c3a a74b bdbf
000003d0: f916 58e9 4a34 bdbf c07c e979 e01b bdbf
000003e0: f327 f186 6a02 bdbf c327 d2a9 ebe7 bcbf
000003f0: 5655 227a 66cc bcbf 9823 e88d ddaf bcbf
00000400: 6f60 9f79 5392 bcbf 1bf1 2ad0 ca73 bcbf
00000410: ac89 b322 4654 bcbf f677 d200 c833 bcbf
00000420: ce64 96f8 5212 bcbf 464a 5d96 e9ef bbbf
00000430: c739 ec64 8ecc bbbf 6c18 61ed 43a8 bbbf
00000440: c6dd 2db7 0c83 bbbf 9c9d 3e48 eb5c bbbf
00000450: 570a 0325 e235 bbbf 61d5 f2cf f30d bbbf
00000460: fe0f 0eca 22e5 babf 65f1 f492 71bb babf
00000470: 72f3 5da8 e290 babf fcea 7486 7865 babf
00000480: f1cd f2a7 3539 babf 7ce3 df85 1c0c babf
00000490: b107 a297 2fde b9bf b737 2c53 71af b9bf
000004a0: 2c83 c52c e47f b9bf 7593 2597 8a4f b9bf
000004b0: d171 8c03 671e b9bf 9f7d 9ce1 7bec b8bf
000004c0: e2b4 7b9f cbb9 b8bf 60af c0a9 5886 b8bf
000004d0: de5f 776b 2552 b8bf 6d9b 3d4e 341d b8bf
000004e0: 4f53 2bba 87e7 b7bf c6d3 cd15 22b1 b7bf
000004f0: cccd 4dc6 057a b7bf 6f13 612f 3542 b7bf
00000500: 97d6 45b3 b209 b7bf f2e2 aab2 80d0 b6bf
00000510: fd2e f28c a196 b6bf 765e 3aa0 175c b6bf
00000520: 8e27 f648 e520 b6bf dbe8 41e2 0ce5 b5bf
00000530: 0eb3 09c6 90a8 b5bf d3f1 ae4c 736b b5bf
00000540: 8840 59cd b62d b5bf 7760 d09d 5def b4bf
00000550: bc3d 8f12 6ab0 b4bf 44ef c37e de70 b4bf
00000560: 5834 4634 bd30 b4bf 607e bd83 08f0 b3bf
00000570: 03ec 8dbc c2ae b3bf 94cb e12c ee6c b3bf
00000580: 3596 9621 8d2a b3bf 5f38 5ee6 a1e7 b2bf
00000590: 13d3 c3c5 2ea4 b2bf 7139 2209 3660 b2bf
000005a0: 2473 adf8 b91b b2bf 9a7d 77db bcd6 b1bf
000005b0: 96c9 66f7 4091 b1bf 7bc2 5291 484b b1bf
000005c0: 0147 e7ec d504 b1bf 0779 e24c ebbd b0bf
000005d0: 2e70 e0f2 8a76 b0bf 827d 691f b72e b0bf
000005e0: fbe7 2624 e4cc afbf 7742 ca12 7c3b afbf
000005f0: fd2b ef85 3aa9 aebf c43d b3f6 2316 aebf
00000600: 2b9c 6bdc 3c82 adbf 736f 88ac 89ed acbf
00000610: e36f c4da 0e58 acbf 30d7 ebd8 d0c1 abbf
00000620: 8160 dc16 d42a abbf 596f 1d03 1d93 aabf
00000630: fa6f 640a b0fa a9bf 8c63 c497 9161 a9bf
00000640: ae5d a414 c6c7 a8bf e806 c9e8 512d a8bf
00000650: 01b5 b37a 3992 a7bf c64d 302f 81f6 a6bf
00000660: ac55 8e69 2d5a a6bf b085 f68b 42bd a5bf
00000670: 27ae f8f6 c41f a5bf 36ca d709 b981 a4bf
00000680: 617d 8022 23e3 a3bf b79f b89d 0744 a3bf
00000690: 1934 f9d6 6aa4 a2bf 126d 8128 5104 a2bf
000006a0: 35c5 b5eb be63 a1bf 1b47 4578 b8c2 a0bf
000006b0: 9a62 7625 4221 a0bf 8669 9892 c0fe 9ebf
000006c0: 56fc c070 2eba 9dbf 9ae1 278e d674 9cbf
000006d0: 69bf a890 c12e 9bbf 82da a21c f8e7 99bf
000006e0: 0220 1fd5 82a0 98bf 5303 4b5b 6a58 97bf
000006f0: 8496 d74e b70f 96bf aa7b c04d 72c6 94bf
00000700: 3124 43f5 a37c 93bf 459b 0de1 5432 92bf
00000710: db85 3eab 8de7 90bf a6cd deda ad38 8fbf
00000720: dcd2 c67f 72a1 8cbf 8ce9 a673 7a09 8abf
00000730: 8d7e 74e3 d670 87bf 599d a8fa 98d7 84bf
00000740: 8803 8ce3 d13d 82bf d6a5 0d8c 2547 7fbf
00000750: 2c47 b693 d911 7abf ec92 812b e2db 74bf
00000760: 4851 953d c34a 6fbf e9da 1070 f4dc 64bf
00000770: 9194 d500 39dd 54bf d02b 1c4a 5bdd 44bf
00000780: 72bf 5716 bddb 443f 36ae abb7 9adb 543f
00000790: cd64 bbf9 55db 643f 9d86 581c 5548 6f3f
000007a0: 9179 de02 43da 743f c16d 03f9 d10f 7a3f
000007b0: 625f 420f b544 7f3f e4db 7ef0 643c 823f
000007c0: 31c9 3304 f7d5 843f 6cb7 a88e ff6e 873f
000007d0: e7c0 3f59 6d07 8a3f 7aec 0e2d 2f9f 8c3f
000007e0: 28cc 63d1 3336 8f3f 0489 1005 35e6 903f
000007f0: 6887 d64c e030 923f cedd 8b20 137b 933f
0.0006367393341220986 0.0012734467237277812 0.002546765725607404 0.0038198293054128277 0.0050925097239982 0.006364679246542093 0.007636210125249806 0.008906974551784711
0.0101768447394323 0.011445692849584976 0.012713390970119948 0.013979811206212117 0.015244825598170034 0.016508306104138202 0.01777012465631458 0.019030153130679624
0.02028826331672532 0.021544326960699425 0.022798215705063515 0.02404980112308841 0.025298954723178564 0.026545547914276695 0.027789452001539355 0.029030538207959054
0.030268677652742135 0.03150374133833551 0.032735600172048754 0.0339641249357832 0.03518918629035628 0.03641065477117717 0.03762840080122004 0.03884229466075306
0.04005220646571633 0.04125800623691261 0.04245956382216774 0.04365674890497947 0.04484943104343724 0.046037479614004735 0.0472207638417908 0.048399152774602924
0.04957251527429837 0.05074072005570402 0.05190363563472328 0.05306113031968719 0.054213072267572014 0.05535932942778166 0.05649976951620118 0.057634260080063095
0.05876266847200089 0.059884861802480295 0.06100070695709707 0.06211007062252346 0.06321281926056169 0.06430881909949512 0.06539793612543941 0.06648003609964016
0.06755498454982416 0.06862264671830616 0.06968288763117983 0.07073557206372222 0.0717805645360694 0.07281772926997225 0.0738469302493383 0.07486803120725857
0.07588089557411443 0.07688538650352408 0.07788136688964042 0.07886869932390661 0.0798472461123539 0.08081686928857484 0.08177743056615469 0.0827287913732667
0.0836708128180768 0.08460335573198784 0.08552628062639528 0.08643944769268729 0.08734271681089352 0.08823594753671188 0.08911899911880619 0.08999173046421081
0.09085400015562838 0.09170566646007855 0.0925465873029516 0.09337662024638614 0.09419562253683796 0.09500345109643102 0.09579996246241562 0.09658501284771029
0.0973584581236041 0.09812015378083684 0.09886995497284329 0.09960771649413108 0.10033329277595625 0.1010465378949721 0.10174730556458039 0.1024354491349313
0.10311082155832801 0.103773275462742 0.10442266309991984 0.10505883630213905 0.1056816465946431 0.10629094509185519 0.10688658251467602 0.10746840926832334
0.10803627533854583 0.10859003032189407 0.1091295234776136 0.10965460367142739 0.11016511936256265 0.11066091867726598 0.11114184934826137 0.11160775871042593
0.11205849375268284 0.11249390107908161 0.11291382690447364 0.11331811708910759 0.11370661712998054 0.1140791721046205 0.11443562667541082 0.057304904703752775
-0.0573049047080772 -0.1144356266710864 -0.1140791721046205 -0.11370661712998054 -0.11331811708910759 -0.11291382690447364 -0.11249390107908161 -0.11205849375268284
-0.1116077587061015 -0.11114184934826137 -0.11066091868591482 -0.11016511936256265 -0.10965460366277854 -0.1091295234776136 -0.10859003032621849 -0.10803627534287025
-0.10746840927264775 -0.10688658250602717 -0.10629094508753077 -0.10568164660329195 -0.10505883629781462 -0.1044226630955954 -0.10377327547571527 -0.10311082155832801
-0.10243544912628245 -0.10174730556890482 -0.1010465378949721 -0.10033329277595625 -0.09960771649413108 -0.09886995496851887 -0.09812015377651241 -0.09735845811927966
-0.09658501285203472 -0.09579996246674005 -0.09500345109643102 -0.09419562254116239 -0.09337662024638614 -0.09254658729862716 -0.09170566646007855 -0.09085400015562838
-0.08999173046853524 -0.08911899911880619 -0.0882359475237386 -0.0873427168065691 -0.08643944770133613 -0.0855262806307197 -0.08460335574063668 -0.0836708128180768
-0.08272879136461786 -0.08177743056183027 -0.08081686928857484 -0.07984724612100275 -0.07886869932390661 -0.077881366885316 -0.07688538649919967 -0.07588089557411443
-0.07486803121590742 -0.07384693025798715 -0.07281772926564782 -0.07178056452742056 -0.07073557206372222 -0.06968288763117983 -0.06862264671398174 -0.06755498454982416
-0.0664800361039646 -0.06539793612543941 -0.06430881909949512 -0.06321281926056169 -0.06211007062252346 -0.06100070695277265 -0.059884861802480295 -0.05876266848064973
-0.05763426008871194 -0.05649976950755233 -0.05535932941913282 -0.05421307228054528 -0.053061130324011614 -0.051903635626074425 -0.0507407200513796 -0.04957251527429837
-0.048399152774602924 -0.0472207638417908 -0.046037479618329165 -0.044849431047761665 -0.043656748900655046 -0.0424595638135189 -0.04125800623691261 -0.04005220647004075
-0.03884229465642864 -0.037628400805544464 -0.0364106547755016 -0.03518918628170743 -0.03396412494010762 -0.03273560016772433 -0.031503741334011084 -0.030268677661390984
-0.029030538207959054 -0.02778945200586378 -0.026545547918601118 -0.025298954723178564 -0.024049801118763987 -0.02279821569641467 -0.021544326960699425 -0.02028826331672532
-0.0190301531263552 -0.017770124660639004 -0.01650830609981378 -0.015244825593845612 -0.013979811214860964 -0.01271339097444437 -0.011445692840936128 -0.0101768447394323
-0.008906974560433559 -0.007636210125249806 -0.006364679250866517 -0.0050925097239982 -0.0038198293010884045 -0.002546765725607404 -0.0012734467194033575 -0.0006367393254732515
0.000636546447536175 0.0012730608856895815 0.0025459937295236657 0.0038186704939711783 0.005090963137176622 0.006362743574040265 0.00763388372811122 0.008904255475369945
0.0101737306744992 0.01144218114958636 0.0127094786512036 0.013975494921274246 0.015240101649828544 0.016503170427435 0.017764572801417883 0.01902418028018165
