Final images/k_current_L_100_Delta0_0.2_Delta1_0.2_lambda_0.5_mu_1_tJ_1_theta_0.npy (npy, 144128 bytes, 1 tensors)

array f8 [75, 240]
0.0008301578500830107 0.0016602682525913475 0.0033203467581282347 0.004980045780367259 0.006639175572253962 0.008297546423491483 0.009954968623782957 0.011611252460669318
0.013266208269260147 0.014919646436558114 0.016571377306321654 0.018221211280688914 0.01986895883747546 0.021514430460983485 0.02315743666146173 0.02479778803780961
0.026435295206224247 0.028069768819660345 0.02970101964566985 0.03132885847991344 0.032953096172107114 0.034573543626022135 0.03619001187300027 0.03780231197681648
0.03941025508773418 0.04101365244682966 0.04261231535355897 0.04420605525224632 0.04579468363262236 0.04737801208171729 0.048955852329267274 0.050528016185010315
0.05209431555165952 0.053654562461660685 0.0552085690880034 0.056756147698814555 0.05829711065952057 0.05983127051284923 0.0613584399269366 0.06287843168451596
0.06439105872399986 0.06589613413731786 0.06739347113748338 0.06888288311264902 0.07036418363043093 0.07183718635574478 0.07330170517405185 0.07475755413081711
0.07620454741637368 0.07764249943078926 0.0790712247384596 0.08049053811351503 0.08190025447062961 0.0833001889601585 0.08469015693570478 0.08606997389357747
0.08743945559819986 0.08879841798264777 0.09014667720054262 0.0914840496282136 0.09281035181929131 0.09412540059984502 0.09542901297540757 0.09672100618503064
0.09800119768614936 0.09926940515674441 0.10052544652128863 0.10176913987290735 0.10300030355121809 0.10421875612719499 0.10542431637289786 0.10661680322903909
0.10779603586552547 0.10896183364902508 0.11011401609323639 0.11125240289132143 0.11237681384887728 0.11348706890123368 0.11458298807885772 0.11566439147059622
0.11673109916529593 0.11778293120639724 0.1188197075681497 0.11984124804317713 0.12084737216463787 0.12183789908297882 0.12281264749242021 0.12377143539959894
0.12471407994842935 0.12564039720820663 0.12655020183413945 0.12744330668031406 0.12831952233049443 0.12917865649486504 0.1300205131970394 0.13084489179674022
0.13165158566436372 0.13244038041877695 0.13321105159861577 0.13396336159626857 0.13469705533345286 0.13541185432161948 0.13610744829203092 0.1367834830895378
0.13743954308082396 0.13807512450514672 0.13868959453501947 0.1392821265936473 0.13985159390924223 0.14039638840816715 0.14091409773671745 0.14140089724285232
0.14185032750923887 0.1422506270164026 0.14257826834691562 0.1427799404056811 0.14271136418210748 0.14185689750424288 0.1372928445098761 0.06672735051329927
-0.06672735051546148 -0.1372928445120383 -0.14185689750424288 -0.1427113641864319 -0.14277994040351888 -0.14257826833826678 -0.14225062702288924 -0.1418503275114011
-0.14140089723420346 -0.14091409773239305 -0.14039638841681598 -0.1398515939049178 -0.13928212660013392 -0.1386895945393439 -0.138075124487849 -0.13743954308947282
-0.13678348309386223 -0.13610744828986873 -0.13541185432810612 -0.13469705532696624 -0.13396336159194414 -0.13321105159429134 -0.13244038041877695 -0.13165158567301258
-0.130844891794578 -0.1300205131992016 -0.12917865649486504 -0.12831952232833221 -0.12744330667598963 -0.12655020183197724 -0.1256403972168555 -0.12471407995059157
-0.12377143538878788 -0.12281264749025801 -0.12183789908514103 -0.12084737216031344 -0.11984124804533934 -0.1188197075659875 -0.11778293120639724 -0.11673109916962036
-0.11566439147708285 -0.11458298808101994 -0.11348706889690925 -0.11237681384022842 -0.111252402886997 -0.1101140160975608 -0.10896183365118729 -0.10779603587417431
-0.10661680322471467 -0.10542431636208681 -0.10421875613584383 -0.10300030356202915 -0.10176913987290735 -0.10052544651047757 -0.09926940515890663 -0.09800119769047379
-0.09672100618503064 -0.09542901296892092 -0.09412540060416945 -0.09281035182577795 -0.0914840496087537 -0.09014667720054262 -0.08879841799129662 -0.08743945560036208
-0.08606997390006411 -0.08469015693138036 -0.08330018896880736 -0.08190025447711624 -0.08049053811135282 -0.07907122474062181 -0.07764249942646484 -0.07620454740988705
-0.07475755412649268 -0.0733017051827007 -0.07183718635358256 -0.07036418361961987 -0.06888288311264902 -0.0673934711396456 -0.06589613414812892 -0.06439105873048649
-0.0628784316737049 -0.0613584399269366 -0.05983127051717365 -0.05829711064222288 -0.05675614769016571 -0.05520856910097667 -0.0536545624638229 -0.05209431555165952
-0.050528016195821375 -0.04895585233575391 -0.04737801208604172 -0.04579468363046015 -0.04420605524792189 -0.04261231534707234 -0.041013652438180816 -0.03941025508989639
-0.037802311968167635 -0.03619001188164912 -0.034573543632508766 -0.032953096154809416 -0.03132885847991344 -0.02970101965864312 -0.028069768832633617 -0.026435295201899824
-0.024797788033485188 -0.023157436657137306 -0.021514430460983485 -0.01986895884612431 -0.018221211280688914 -0.01657137730199723 -0.014919646427909267 -0.013266208271422358
-0.01161125246499374 -0.009954968617296322 -0.008297546425653694 -0.0066391755765783855 -0.004980045778205048 -0.0033203467581282347 -0.0016602682525913475 -0.0008301578500830107
0.0008306845389191233 0.0016613216432368432 0.003322453602123367 0.00498320622690464 0.006643389846203612 0.008302814799454293 0.009961291454199446 0.011618630190955104
0.013274641411859418 0.014929135532023807 0.016581923005479504 0.018232814299231015 0.019881619936500342 0.021528150490240372 0.023172216542052825 0.024813628721108087
00000000: 5024 8768 de33 4b3f d4e5 3c76 ab33 5b3f
00000010: 4eee 9997 4533 6b3f 00ee 25dc f465 743f
00000020: 3ea2 481f ae31 7b3f d11e 35d4 4dfe 803f
00000030: f4f4 5f45 4563 843f 8c63 acec a3c7 873f
00000040: b265 4455 502b 8b3f 566b 1a0c 318e 8e3f
00000050: 8641 524e 16f8 903f 6b1f 2dca 94a8 923f
00000060: 8d6d a641 8758 943f 6b51 e3fc e007 963f
00000070: ba0d 7b44 95b6 973f fac8 8a62 9764 993f
00000080: 25bd 7ba1 da11 9b3f 93cd 584c 52be 9c3f
00000090: a1de 24b0 f169 9e3f 263a 2f0d 560a a03f
000000a0: b7e7 b86c 3adf a03f dc76 5c9e 9fb3 a13f
000000b0: 3b6e df4a 7f87 a23f bea6 4e1b d35a a33f
000000c0: fb29 75b9 942d a43f a3b4 e5cf bdff a43f
000000d0: 4864 b309 48d1 a53f 03e8 2f13 2da2 a63f
000000e0: 7ac8 1099 6672 a73f 1b85 e148 ee41 a83f
000000f0: a46d 67d1 bd10 a93f dbbe 17e2 cede a93f
00000100: db29 342b 1bac aa3f c2a8 1b5e 9c78 ab3f
00000110: cd44 622d 4c44 ac3f c23c 6d4c 240f ad3f
00000120: 2dc6 776f 1ed9 ad3f 64fa 424c 34a2 ae3f
00000130: 54b9 a399 5f6a af3f b471 b507 cd18 b03f
00000140: 58d8 5fb3 ee7b b03f cf77 0dad 91de b03f
00000150: 67d9 7fd2 b240 b13f b917 3902 4fa2 b13f
00000160: de9f 801b 6303 b23f 51da 08fe eb63 b23f
00000170: 9ead 768a e6c3 b23f 5aed 1ea2 4f23 b33f
00000180: ddb5 f526 2482 b33f 87be d5fb 60e0 b33f
00000190: f66c 4e04 033e b43f d0c1 d524 079b b43f
000001a0: 4545 7c42 6af7 b43f dca1 5543 2953 b53f
000001b0: 4efb 540e 41ae b53f 7d5d 0a8b ae08 b63f
000001c0: bf9f 2ca2 6e62 b63f e108 2c3d 7ebb b63f
000001d0: c25d 6b46 da13 b73f ec41 42a9 7f6b b73f
000001e0: d04a cb51 6bc2 b73f 8b9a 4c2d 9a18 b83f
000001f0: bca5 d129 096e b83f b7a2 6636 b5c2 b83f
00000200: 49e5 0743 9b16 b93f 4f3f a440 b869 b93f
00000210: 0388 3921 09bc b93f 1706 7fd7 8a0d ba3f
00000220: 9c05 3b57 3a5e ba3f bf33 3295 14ae ba3f
00000230: 4156 0687 16fd ba3f 5fa2 1223 3d4b bb3f
00000240: d24d ae60 8598 bb3f b5e5 0838 ece4 bb3f
00000250: 83a0 f3a1 6e30 bc3f 3807 0598 097b bc3f
00000260: 7542 4f14 bac4 bc3f 5d1f 7311 7d0d bd3f
00000270: da05 7a8a 4f55 bd3f 458e ad7a 2e9c bd3f
00000280: f350 57dd 16e2 bd3f 76f9 8ead 0527 be3f
00000290: e51f 20e6 f76a be3f 3ba9 0e81 eaad be3f
000002a0: 6c31 4177 daef be3f b888 f9bf c430 bf3f
000002b0: fcde 8350 a670 bf3f 9362 381b 7caf bf3f
000002c0: 0baf ba0e 43ed bf3f c468 880a fc14 c03f
000002d0: 9c04 1709 cc32 c03f 329d 24f1 0f50 c03f
000002e0: 3685 ec2b c66c c03f fc4a 7e1c ed88 c03f
000002f0: 1ac6 fe1d 83a4 c03f e1cd 8e81 86bf c03f
00000300: db8e 728b f5d9 c03f d5c2 486f cef3 c03f
00000310: 2f79 0a4b 0f0d c13f 7187 7520 b625 c13f
00000320: cb28 c3cb c03d c13f 4baa e6f6 2c55 c13f
00000330: 1c01 9407 f86b c13f 0853 4005 1f82 c13f
00000340: 10cb 5a73 9e97 c13f 8d03 1218 72ac c13f
00000350: 7765 69a4 94c0 c13f c28a 5129 ffd3 c13f
00000360: 0a1c 1133 a8e6 c13f 8844 5844 82f8 c13f
00000370: d38a a920 7909 c23f dc3c a4b2 6c19 c23f
00000380: f81e caca 2628 c23f 117b 6fbf 4435 c23f
00000390: decc d533 0140 c23f f89a 48f3 9c46 c23f
000003a0: 5300 f7b0 5d44 c23f 5712 bfe7 5d28 c23f
000003b0: 8c86 92da cf92 c13f b10e 342c 0b15 b13f
000003c0: 4d6f 362c 0b15 b1bf d9b6 93da cf92 c1bf
000003d0: 5712 bfe7 5d28 c2bf ef60 f9b0 5d44 c2bf
000003e0: aa6a 47f3 9c46 c2bf a70b d133 0140 c2bf
000003f0: fb0b 73bf 4435 c2bf 464f cbca 2628 c2bf
00000400: a47b 9fb2 6c19 c2bf 382a a720 7909 c2bf
00000410: bf05 5d44 82f8 c1bf 6ebb 0e33 a8e6 c1bf
00000420: ab1b 5529 ffd3 c1bf 13c6 6ba4 94c0 c1bf
00000430: 1d81 0818 72ac c1bf 488c 5f73 9e97 c1bf
00000440: a4b3 4205 1f82 c1bf cfd0 9207 f86b c1bf
00000450: 353b eaf6 2c55 c1bf e297 bfcb c03d c1bf
00000460: d526 7320 b625 c1bf 9318 084b 0f0d c1bf
00000470: d5c2 486f cef3 c0bf 1350 778b f5d9 c0bf
00000480: 939d 8d81 86bf c0bf 68f6 ff1d 83a4 c0bf
00000490: fc4a 7e1c ed88 c0bf e854 eb2b c66c c0bf
000004a0: 963c 22f1 0f50 c0bf 4ed4 1509 cc32 c0bf
000004b0: fc29 8d0a fc14 c0bf a70f bd0e 43ed bfbf
000004c0: 887f 2c1b 7caf bfbf 617e 8150 a670 bfbf
000004d0: 54e9 fbbf c430 bfbf 3470 3c77 daef bebf
000004e0: d709 1181 eaad bebf 4abf 1de6 f76a bebf
000004f0: 76f9 8ead 0527 bebf 2b12 5cdd 16e2 bdbf
00000500: 18b0 b47a 2e9c bdbf 7666 7c8a 4f55 bdbf
00000510: 255e 6e11 7d0d bdbf 05c0 4514 bac4 bcbf
00000520: 0046 0098 097b bcbf ba61 f8a1 6e30 bcbf
00000530: 5146 0b38 ece4 bbbf 41d0 b760 8598 bbbf
00000540: 28e1 0d23 3d4b bbbf 3773 fa86 16fd babf
00000550: 2eb6 3b95 14ae babf a7e8 4657 3a5e babf
00000560: 1706 7fd7 8a0d babf f8a4 2d21 09bc b9bf
00000570: eb9f a640 b869 b9bf 81a6 0c43 9b16 b9bf
00000580: b7a2 6636 b5c2 b8bf e883 ca29 096e b8bf
00000590: c35b 512d 9a18 b8bf a36c d251 6bc2 b7bf
000005a0: 72dc 2ca9 7f6b b7bf c25d 6b46 da13 b7bf
000005b0: 508b 353d 7ebb b6bf 5b00 2fa2 6e62 b6bf
000005c0: 517f 118b ae08 b6bf 173a 500e 41ae b5bf
000005d0: 4c24 5f43 2953 b5bf 1867 8342 6af7 b4bf
000005e0: 3461 d324 079b b4bf 92cd 5004 033e b4bf
000005f0: 50fd d0fb 60e0 b3bf 0a94 ee26 2482 b3bf
00000600: 222c 1aa2 4f23 b3bf 0d30 808a e6c3 b2bf
00000610: b579 06fe eb63 b2bf d3bc 741b 6303 b2bf
00000620: b917 3902 4fa2 b1bf 033a 82d2 b240 b1bf
00000630: da5a 19ad 91de b0bf 2bfa 66b3 ee7b b0bf
00000640: a98e a907 cd18 b0bf 54b9 a399 5f6a afbf
00000650: d37c 4c4c 34a2 aebf 71bc 516f 1ed9 adbf
00000660: e437 5a4c 240f adbf 1acc 7e2d 4c44 acbf
00000670: fa69 205e 9c78 abbf db29 342b 1bac aabf
00000680: f184 2fe2 cede a9bf 4bb1 75d1 bd10 a9bf
00000690: 8b07 eb48 ee41 a8bf 4307 0c99 6672 a7bf
000006a0: 9365 2613 2da2 a6bf a220 a509 48d1 a5bf
000006b0: c5af d2cf bdff a4bf 32eb 79b9 942d a4bf
000006c0: e0a1 3b1b d35a a3bf 1a73 f24a 7f87 a2bf
000006d0: 82ba 6a9e 9fb3 a1bf fadd 926c 3adf a0bf
000006e0: 263a 2f0d 560a a0bf 3ced 5db0 f169 9ebf
000006f0: 2edc 914c 52be 9cbf 47b8 68a1 da11 9bbf
00000700: 1cc4 7762 9764 99bf dc08 6844 95b6 97bf
00000710: 6b51 e3fc e007 96bf 4a77 cc41 8758 94bf
00000720: 6b1f 2dca 94a8 92bf a83c 3f4e 16f8 90bf
00000730: dd57 ce0b 318e 8ebf 906a 5755 502b 8bbf
00000740: 486d d2ec a3c7 87bf 59e6 2645 4563 84bf
00000750: af23 48d4 4dfe 80bf b7b5 941f ae31 7bbf
00000760: 44e4 ffdb f465 74bf 4eee 9997 4533 6bbf
00000770: d4e5 3c76 ab33 5bbf 5024 8768 de33 4bbf
00000780: c514 c776 4938 4b3f f3bf 0d88 1638 5b3f
00000790: 1efd 08b2 b037 6b3f 1266 613c 4569 743f
000007a0: 86ff fb61 1936 7b3f 4c2a 3af0 1001 813f
000007b0: c476 2ce8 9566 843f 8046 8e25 82cb 873f
000007c0: 842b d735 bc2f 8b3f 06d5 f0a6 2a93 8e3f
000007d0: f0a4 0d04 dafa 903f 1057 8474 9fab 923f
000007e0: 31d2 aced d85b 943f a01f 32b9 790b 963f
000007f0: 6352 e520 75ba 973f 0eb3 686f be68 993f
