Final images/k_current_L_100_Delta0_0.4_Delta1_0.2_lambda_0.5_mu_1_tJ_0.5_theta_0.npy (npy, 144128 bytes, 1 tensors)

array f8 [75, 240]
0.0006367380151729302 0.0012734440944782914 0.002546760469270636 0.003819821413339935 0.005092499198351395 0.006364666070023679 0.007636194274075457 0.00890695603027885
0.010176823517323958 0.01144566889444098 0.012713364281940299 0.013979781750401427 0.015244793331484067 0.016508271009279263 0.01777008669652507 0.01903011226271531
0.020288219501666392 0.02154428014016616 0.022798165842298317 0.02404974817484704 0.02529889862459467 0.026545488596159506 0.027789389411995786 0.02903047227779833
0.03026860830412463 0.031503668502070446 0.03273552375948546 0.03396404485827098 0.03518910246140668 0.036410567095652865 0.03762830917317265 0.03884219896558536
0.04005210659964216 0.04125790207452369 0.042459455222920314 0.04365663574778967 0.044849313179112456 0.04603735688470351 0.04722063608967168 0.04839901982668896
0.04957237695761263 0.05074057617132302 0.05190348597291247 0.05306097467719868 0.05421291041737357 0.05535916111257008 0.05649959449597096 0.05763407809318661
0.05876247920711964 0.059884664952560236 0.061000502202130845 0.062109857620881614 0.06321259764466823 0.06430858847366529 0.06539769607452856 0.06647978616958382
0.06755472425628688 0.06862237556614148 0.06968260507767257 0.07073527752507523 0.07178025737010578 0.07281740882586626 0.07384659581356007 0.07486768198627639
0.07588053074628781 0.0768850051758596 0.07788096809130499 0.07886828201271415 0.0798468091617921 0.08081641147483187 0.08177695056379472 0.0827282877400945
0.08367028400162432 0.08460280002843222 0.0855256961697478 0.08643883244398226 0.08734206853872842 0.08823526380211183 0.08911827722981758 0.08999096745860355
0.09085319275765164 0.0917048110372166 0.0925456798226795 0.09337565622860118 0.09419459698466877 0.09500235840110031 0.0957987963340494 0.09658376619641623
0.09735712292325219 0.09811872093284002 0.09886841410290959 0.09960605573604239 0.10033149848615643 0.10104459430445084 0.10174519435507974 0.1024331488983927
0.1031083071676887 0.10377051715515721 0.10441962538917031 0.10505547659697771 0.10567791323983121 0.10628677488594325 0.10688189729803363 0.10746311118140885
0.10803024025743144 0.10858309842021152 0.10912148534515477 0.10964517949420732 0.11015392664748473 0.11064742022930717 0.11112526610955437 0.11158691595132615
0.11203153205973475 0.1124576890010074 0.11286263756398418 0.1132401917386838 0.11357314345477175 0.11379351794030625 0.11326634214816063 0.05633545107736631
-0.05633545107736631 -0.11326634214599843 -0.11379351794030625 -0.11357314345477175 -0.11324019174084601 -0.11286263756398418 -0.11245768899668297 -0.11203153205757253
-0.11158691595348837 -0.11112526610955437 -0.11064742022930717 -0.11015392665613358 -0.10964517949636954 -0.10912148533866814 -0.1085830984180493 -0.10803024025959365
-0.10746311118573326 -0.10688189729587141 -0.10628677487945662 -0.10567791324199342 -0.10505547659913993 -0.10441962538917031 -0.10377051715515721 -0.10310830716552649
-0.10243314889623048 -0.10174519435507974 -0.10104459430661306 -0.10033149848615643 -0.09960605573604239 -0.0988684141050718 -0.09811872093284002 -0.09735712292325219
-0.09658376619641623 -0.09579879633188719 -0.09500235840110031 -0.09419459698899318 -0.09337565622860118 -0.09254567981835508 -0.09170481103937882 -0.09085319275981385
-0.08999096745427912 -0.08911827722981758 -0.08823526380859847 -0.08734206854089062 -0.08643883243965783 -0.08552569616542337 -0.08460280002843222 -0.08367028400594875
-0.0827282877422567 -0.08177695055947029 -0.08081641147266966 -0.07984680916827874 -0.07886828201271415 -0.07788096808698056 -0.0768850051758596 -0.07588053074628781
-0.0748676819884386 -0.07384659580923565 -0.07281740882154183 -0.07178025737443021 -0.07073527752723743 -0.06968260507767257 -0.06862237556397927 -0.06755472425844909
-0.06647978617390825 -0.06539769607020413 -0.06430858847150309 -0.06321259764683043 -0.062109857627368245 -0.061000502202130845 -0.05988466494823581 -0.058762479209281855
-0.05763407808886219 -0.05649959449597096 -0.05535916111257008 -0.054212910419535784 -0.0530609746793609 -0.051903485970750264 -0.05074057617132302 -0.04957237695328821
-0.04839901982452675 -0.047220636093996106 -0.046037356889027936 -0.04484931317478803 -0.043656635745627455 -0.04245945522508253 -0.041257902072361484 -0.04005210659747995
-0.038842198963423155 -0.03762830917533486 -0.03641056709781507 -0.03518910246140668 -0.033964044860433196 -0.03273552375732325 -0.031503668502070446 -0.030268608306286842
-0.02903047227347391 -0.027789389414157997 -0.02654548860264614 -0.02529889862459467 -0.024049748170522616 -0.022798165840136105 -0.02154428014232837 -0.020288219501666392
-0.01903011226487752 -0.01777008669652507 -0.016508271009279263 -0.015244793331484067 -0.013979781748239216 -0.012713364281940299 -0.01144566889444098 -0.010176823515161746
-0.008906956028116636 -0.00763619427839988 -0.006364666067861468 -0.005092499194026971 -0.0038198214176643585 -0.0025467604735950598 -0.0012734440923160796 -0.0006367380065240831
0.0006367095128976225 0.001273387012088053 0.00254664593475195 0.003819648661269841 0.005092267097893147 0.0063643731119534756 0.0076358385556469545 0.008906535259547594
0.010176335023958436 0.011445109605938291 0.012712730708490676 0.013979070010834779 0.015243999133810065 0.016507389609605325 0.017769112927165112 0.01902904052137868
00000000: 80cb c379 58dd 443f 5ee6 4c2f 36dd 543f
00000010: 4bf2 a39d f1dc 643f 25d7 7f01 bf4a 6f3f
00000020: e46f 3058 dfdb 743f 4870 ee09 d611 7a3f
00000030: f1d6 c44a 2147 7f3f 9c0c db66 cf3d 823f
00000040: bdf9 7821 96d7 843f 3de5 a8ac d370 873f
00000050: da29 81de 7609 8a3f 5db2 628b 6ea1 8c3f
00000060: ef11 5886 a938 8f3f 50b8 6450 8be7 903f
00000070: eeaa d554 5232 923f d8f3 3a37 a17c 933f
00000080: e6d0 035d 6fc6 943f 79b4 782a b40f 963f
00000090: 5e4a ce02 6758 973f d950 8d47 7fa0 983f
000000a0: 21ac de58 f4e7 993f ede3 8195 bd2e 9b3f
000000b0: 7523 cd5a d274 9c3f 8512 1504 2aba 9d3f
000000c0: cced 0beb bbfe 9e3f 0341 d7b3 3f21 a03f
000000d0: 98c8 ede7 b5c2 a03f 00f3 cf3b bc63 a13f
000000e0: aaa2 7e58 4e04 a23f 562d cfe5 67a4 a23f
000000f0: 45e8 9a8a 0444 a33f 9d19 86ec 1fe3 a33f
00000100: fa75 f6af b581 a43f 2a2a 3978 c11f a53f
00000110: 4645 2de7 3ebd a53f 618d 949d 295a a63f
00000120: 3167 b43a 7df6 a63f 299c 6d5c 3592 a73f
00000130: 6625 679f 4d2d a83f b5cf a09e c1c7 a83f
00000140: c0c7 a2f3 8c61 a93f d4d8 7836 abfa a93f
00000150: cca6 9afd 1793 aa3f 6a6a dddd ce2a ab3f
00000160: 36f6 866a cbc1 ab3f 3c64 0635 0958 ac3f
00000170: dee5 31cd 83ed ac3f a937 17c1 3682 ad3f
00000180: d158 da9c 1d16 ae3f a99e 01eb 33a9 ae3f
00000190: 33d6 fe33 753b af3f a057 7bfe dccc af3f
000001a0: 0f3d 9467 b32e b03f 19a8 5814 8776 b03f
000001b0: 7cb4 df45 e7bd b03f ff84 71bb d104 b13f
000001c0: 23fd 5e33 444b b13f 9095 d46a 3c91 b13f
000001d0: ba9f e81d b8d6 b13f 57c8 a407 b51b b23f
000001e0: 6b2f e7e1 3060 b23f 068f 7c65 29a4 b23f
000001f0: 0caf f049 9ce7 b23f f28b a845 872a b33f
00000200: 945b f50d e86c b33f bf79 c856 bcae b33f
00000210: 6ad7 eed2 01f0 b33f 2ab2 ef33 b630 b43f
00000220: a033 0a2a d770 b43f 18b5 4364 62b0 b43f
00000230: 96f4 3c90 55ef b43f 8c3b 4c5a ae2d b53f
00000240: 2e1b 6f6d 6a6b b53f 3fab 4573 87a8 b53f
00000250: 6746 0414 03e5 b53f 348a 73f6 da20 b63f
00000260: 1a57 f0bf 0c5c b63f 044e 6214 9696 b63f
00000270: b08c 2d96 74d0 b63f d68b 2be6 a509 b73f
00000280: bc9c a1a3 2742 b73f a76b 4a6c f779 b73f
00000290: 8a78 39dc 12b1 b73f bd8f be8d 77e7 b73f
000002a0: 4551 8219 231d b83f 1b27 6016 1352 b83f
000002b0: 6f3b 4019 4586 b83f b45b 23b5 b6b9 b83f
000002c0: e2ee fc7a 65ec b83f 802a 88f9 4e1e b93f
000002d0: f8eb 2dbd 704f b93f d6ae de4f c87f b93f
000002e0: 19b8 c138 53af b93f fca6 f9fb 0ede b93f
000002f0: 3dbd 471a f90b ba3f 3e7e 8b10 0f39 ba3f
00000300: 582c 3b57 4e65 ba3f 9b6c 7861 b490 ba3f
00000310: 2368 1b9c 3ebb ba3f 2bed 3f6c eae4 ba3f
00000320: 374c 462d b50d bb3f 9de7 212e 9c35 bb3f
00000330: bef2 6dad 9c5c bb3f b1f1 0cd4 b382 bb3f
00000340: 167b e2ac dea7 bb3f e8f7 9c18 1acc bb3f
00000350: a12f d9ba 62ef bb3f b477 17dc b411 bc3f
00000360: 1318 7a38 0c33 bc3f 678a 45ab 6353 bc3f
00000370: 4428 b397 b472 bc3f 7525 acca f590 bc3f
00000380: f33c 5136 19ae bc3f c16c 71f0 06ca bc3f
00000390: a811 47d9 90e4 bc3f 3e44 1c28 4ffd bc3f
000003a0: df97 d728 2113 bd3f 51e7 0c6e 9221 bd3f
000003b0: b58e 43e3 05ff bc3f f723 f70f 00d8 ac3f
000003c0: f723 f70f 00d8 acbf 1a2e 41e3 05ff bcbf
000003d0: 51e7 0c6e 9221 bdbf df97 d728 2113 bdbf
000003e0: daa4 1e28 4ffd bcbf a811 47d9 90e4 bcbf
000003f0: 89ab 6cf0 06ca bcbf 57dc 4e36 19ae bcbf
00000400: 1186 aeca f590 bcbf 4428 b397 b472 bcbf
00000410: 678a 45ab 6353 bcbf 829a 8338 0c33 bcbf
00000420: 50d8 19dc b411 bcbf ce0d d2ba 62ef bbbf
00000430: 4c97 9a18 1acc bbbf b2db e4ac dea7 bbbf
00000440: e8b2 11d4 b382 bbbf 2292 6bad 9c5c bbbf
00000450: cac5 1a2e 9c35 bbbf d3ac 482d b50d bbbf
00000460: c74d 426c eae4 babf 2368 1b9c 3ebb babf
00000470: 9b6c 7861 b490 babf bccb 3857 4e65 babf
00000480: a21d 8910 0f39 babf 3dbd 471a f90b babf
00000490: 9807 fcfb 0ede b9bf 19b8 c138 53af b9bf
000004a0: d6ae de4f c87f b9bf 944c 30bd 704f b9bf
000004b0: 802a 88f9 4e1e b9bf e2ee fc7a 65ec b8bf
000004c0: b45b 23b5 b6b9 b8bf d3da 3d19 4586 b8bf
000004d0: 1b27 6016 1352 b8bf 7c12 8719 231d b8bf
000004e0: bd8f be8d 77e7 b7bf 53b7 34dc 12b1 b7bf
000004f0: 43cc 4c6c f779 b7bf 58fd a3a3 2742 b7bf
00000500: 9eca 26e6 a509 b7bf b08c 2d96 74d0 b6bf
00000510: d86f 6914 9696 b6bf b5b7 f2bf 0c5c b6bf
00000520: fcc8 6ef6 da20 b6bf 2f85 ff13 03e5 b5bf
00000530: 3fab 4573 87a8 b5bf 66dc 736d 6a6b b5bf
00000540: 279c 4e5a ae2d b5bf 5e33 3890 55ef b4bf
00000550: 7c54 4164 62b0 b4bf 7455 112a d770 b4bf
00000560: 2ab2 ef33 b630 b4bf 3216 ead2 01f0 b3bf
00000570: bf79 c856 bcae b3bf 945b f50d e86c b3bf
00000580: 8eec aa45 872a b3bf d5ed eb49 9ce7 b2bf
00000590: cecd 7765 29a4 b2bf a3f0 ebe1 3060 b2bf
000005a0: f228 a707 b51b b2bf ba9f e81d b8d6 b1bf
000005b0: f434 d26a 3c91 b1bf bf5d 6133 444b b1bf
000005c0: 3746 76bb d104 b1bf 44f3 da45 e7bd b0bf
000005d0: 7e47 5614 8776 b0bf aa9d 9667 b32e b0bf
000005e0: 469b 89fe dccc afbf 33d6 fe33 753b afbf
000005f0: 3a1c f8ea 33a9 aebf 091a df9c 1d16 aebf
00000600: 3ab5 0dc1 3682 adbf dee5 31cd 83ed acbf
00000610: 3c64 0635 0958 acbf 6eb7 8b6a cbc1 abbf
00000620: a22b e2dd ce2a abbf 95e5 95fd 1793 aabf
00000630: d4d8 7836 abfa a9bf 5145 99f3 8c61 a9bf
00000640: 7d0e 9c9e c1c7 a8bf d5a7 709f 4d2d a8bf
00000650: 981e 775c 3592 a7bf c2e4 aa3a 7df6 a6bf
00000660: 29cc 8f9d 295a a6bf 7e06 32e7 3ebd a5bf
00000670: f368 3478 c11f a5bf c3b4 f1af b581 a4bf
00000680: 6658 81ec 1fe3 a3bf 7da9 9f8a 0444 a3bf
00000690: 8dee d3e5 67a4 a2bf aaa2 7e58 4e04 a2bf
000006a0: 38b4 d43b bc63 a1bf 6007 e9e7 b5c2 a0bf
000006b0: 0341 d7b3 3f21 a0bf 3b70 15eb bbfe 9ebf
000006c0: a70d 0204 2aba 9dbf e4a5 d65a d274 9cbf
000006d0: 3a6b 9e95 bd2e 9bbf 21ac de58 f4e7 99bf
000006e0: fb4b 7a47 7fa0 98bf efc7 c402 6758 97bf
000006f0: e836 822a b40f 96bf e6d0 035d 6fc6 94bf
00000700: 4776 4437 a17c 93bf eeaa d554 5232 92bf
00000710: 50b8 6450 8be7 90bf ef11 5886 a938 8fbf
00000720: 7fad 4f8b 6ea1 8cbf da29 81de 7609 8abf
00000730: 3de5 a8ac d370 87bf dff4 6521 96d7 84bf
00000740: bd07 c866 cf3d 82bf 6aea 104b 2147 7fbf
00000750: 8c66 c809 d611 7abf 6b5c e457 dfdb 74bf
00000760: 17fe 1702 bf4a 6fbf 3d19 3c9e f1dc 64bf
00000770: 6cbf b42e 36dd 54bf f293 0275 58dd 44bf
00000780: dd27 7944 1bdd 443f bdc8 9ce4 f8dc 543f
00000790: f1d2 2220 b4dc 643f 24ba a242 624a 6f3f
000007a0: 9dfe 5d0a a1db 743f 7a90 0166 8711 7a3f
000007b0: e410 fccd c146 7f3f 5d8e 48ed 963d 823f
000007c0: 45e4 f790 54d7 843f 1633 a79b 8870 873f
000007d0: 092a 16d5 2109 8a3f cb42 3304 0fa1 8c3f
000007e0: 9673 ebed 3e38 8f3f 89f5 0f2a 50e7 903f
000007f0: 44bb 9afb 1032 923f c6b4 da4a 597c 933f
