Final images/k_current_TRITOPS_S_A1u_L_200_Delta0_0.4_Delta1_0.2_lambda_0.5_mu_2_tJ_0.5_theta_0.npy (npy, 144128 bytes, 1 tensors)

array f8 [75, 240]
000000 df 7a 13 30 da 19 b6 bf 3e 50 19 47 12 03 b6 bf
       -0.08633197473271136 -0.0859843658047916
000010 7d 23 95 27 0a d4 b5 bf b2 cc 3d 60 1c a2 b5 bf
       -0.08526671854373365 -0.0845048651661269
000020 8e 4e 07 9a 5e 6d b5 bf 43 f9 08 03 e6 35 b5 bf
       -0.08370009670698605 -0.08285367559526428
000030 59 96 28 4f c7 fb b4 bf db 3d 67 b9 16 bf b4 bf
       -0.08196683580953258 -0.08104078318068934
000040 0c d0 bc 05 e8 7f b4 bf 46 9f b5 82 4e 3e b4 bf
       -0.08007669582440274 -0.07907572451733555
000050 4b f8 86 0b 5d fa b3 bf f4 f7 57 0a 26 b4 b3 bf
       -0.0780389931814806 -0.07696759941606485
000060 5b 74 d6 7a bb 6b b3 bf db 59 9c ec 2e 21 b3 bf
       -0.07586261509864427 -0.07472508694295447
000070 4e 5a dc 85 91 d4 b2 bf 8e ee 55 06 f4 85 b2 bf
       -0.0735560371216277 -0.07235646395377612
000080 9f 3f ea c9 66 35 b2 bf c2 a5 86 cb f9 e2 b1 bf
       -0.07112734250608675 -0.06986962527175591
000090 d3 ae 2b a8 bc 8e b1 bf 7e 98 c4 a1 be 38 b1 bf
       -0.06858424287537028 -0.06727210473454368
0000a0 a7 8b 03 a2 0e e1 b0 bf 12 99 42 3d bb 87 b0 bf
       -0.06593409972587826 -0.06457109685525023
0000b0 f3 80 8f b5 d2 2c b0 bf b7 4b cd fa c5 a0 af bf
       -0.0631839459670152 -0.061773478379698536
0000c0 6b 1c 4e 75 f3 e4 ae bf 87 3a ca 92 48 26 ae bf
       -0.06034050757357864 -0.05888582984799933
0000d0 18 e5 b2 7c df 64 ad bf 7b 71 12 d4 d1 a0 ac bf
       -0.05741022488786934 -0.05591445649881429
0000e0 b5 1d b6 b6 38 da ab bf 69 ca f8 c3 2c 11 ab bf
       -0.05439927320827157 -0.05286540882334096
0000f0 b5 71 7b 22 c6 45 aa bf bb 5e e6 84 1c 78 a9 bf
       -0.051313583096745864 -0.0497445022803595
000100 c2 e2 a0 2e 47 a8 a8 bf 2d c7 76 f9 5c d6 a7 bf
       -0.04815885967440671 -0.0465573362847763
000110 5c 54 9b 59 74 02 a7 bf f2 92 90 62 a3 2c a6 bf
       -0.04494060129005881 -0.04330931261237038
000120 f1 6f 9c cb ff 54 a5 bf f2 6c 6d f4 9e 7b a4 bf
       -0.04166411743628363 -0.04000565274938052
000130 36 33 4d e9 95 a0 a3 bf 1f a9 5c 67 f9 c3 a2 bf
       -0.03833454583091227 -0.03665141474478361
000140 63 11 f6 e0 dd e5 a1 bf 6f 6d 21 81 57 06 a1 bf
       -0.03495686884983475 -0.0332515092020128
000150 ee b4 55 30 7a 25 a0 bf d0 83 26 30 b3 86 9e bf
       -0.03153592910789792 -0.029810714544172445
000160 b0 79 fc 4c 12 c0 9c bf 3b 42 b0 24 38 f7 9a bf
       -0.028076444577089965 -0.026333691825188615
000170 08 57 47 bd 4a 2c 99 bf ff 82 58 bc 6f 5f 97 bf
       -0.024583022883084588 -0.022824998732292375
000180 e2 d2 9f 6e cc 90 95 bf 35 2e 3c ce 85 c0 93 bf
       -0.02106017518231596 -0.01928910323390039
000190 72 2f e4 89 c0 ee 91 bf 1b 01 2e 0c a1 1b 90 bf
       -0.017512329498500852 -0.015730396622076186
0001a0 5f 9f 69 02 97 8e 8c bf f9 60 0d bc c7 e3 88 bf
       -0.013943843613745064 -0.012153206278228345
0001b0 59 44 06 cd 1b 37 85 bf 40 c0 f9 68 da 88 81 bf
       -0.010359017557478522 -0.008561807945824396
0001c0 c0 00 2a f8 94 b2 7b bf 62 0a 9b 6a 65 51 74 bf
       -0.006762105857547052 -0.0049604379252651005
0001d0 c4 88 ec 57 66 dd 69 bf ab 5c 47 ea 2b 2c 56 bf
       -0.003157329453999132 -0.0013533047541523329
0001e0 c8 c4 31 65 69 90 3d 3f 4e 42 5d 0f ea 79 62 3f
       0.00045111249091351864 0.0022553988918974427
0001f0 26 16 ed d3 33 a0 70 3f 93 8f 16 55 36 02 78 3f
       0.004059030964361143 0.005861484752504159
000200 4a 5d 69 af 6f 62 7f 3f 01 2e ab 59 29 60 83 3f
       0.00766223551780538 0.009460757302256264
000210 25 d1 59 e4 a8 0d 87 3f 39 f1 70 6a 6f b9 8a 3f
       0.011256522625651197 0.01304900210936265
000220 8e b5 ba 8f 35 63 8e 3f 2a e7 29 ce 59 05 91 3f
       0.014837664078494208 0.01662197418998016
000230 da 34 64 b8 d0 d7 92 3f 0f 5a 34 3c db a8 94 3f
       0.018401395086631613 0.020175385999289527
000240 ac 9d 95 cd 54 78 96 3f 68 00 1e 99 18 46 98 3f
       0.02194340233600449 0.023704895349056093
000250 6b 47 57 7c 01 12 9a 3f af 32 c3 fe e9 db 9b 3f
       0.02545931168953734 0.027206093000858796
000260 3d df 8a 4b ac a3 9d 3f c4 d1 d7 29 22 69 9f 3f
       0.028944675551172628 0.030674489787956963
000270 c3 0c c6 7a 12 96 a0 3f 62 43 23 cc 46 76 a1 3f
       0.032394959914222386 0.034105503482016145
000280 72 bd 6b 40 1a 55 a2 3f 7d 20 65 ce 78 32 a3 3f
       0.035805530895113416 0.03749444503279251
000290 a5 67 d0 27 4e 0e a4 3f cb dc 66 b5 85 e8 a4 3f
       0.03917164073955285 0.04083650435807725
0002a0 48 20 10 93 0a c1 a5 3f f8 ff 59 8b c7 97 a6 3f
       0.042488413288140736 0.04412673545903084
0002b0 60 70 75 13 a7 6c a7 3f ca cd 58 46 93 3f a8 3f
       0.04575082886250992 0.04736004098631559
0002c0 71 d5 bc e0 75 10 a9 3f c8 72 6e 3c 38 df a9 3f
       0.0489537083471231 0.05053115594566787
0002d0 e6 f6 4a 4b c3 ab aa 3f 50 f9 dd 92 ff 75 ab 3f
       0.05209169668294837 0.05363463084994413
0002e0 c9 80 24 27 d5 3d ac 3f 50 49 c2 a5 2b 03 ad 3f
       0.05515924551787205 0.05666481398033574
0002f0 ae f6 ea 30 ea c5 ad 3f cb 29 d9 69 f7 85 ae 3f
       0.05815059516087949 0.05961583296864922
000300 f4 bc dd 6b 39 43 af 3f c2 56 cd c6 95 fd af 3f
       0.0610597557232441 0.06248157550605306
000310 25 42 c5 bc 78 5a b0 3f 05 a6 39 76 98 b4 b0 3f
       0.0638804875245645 0.06525566946370283
000320 4e 9a cf f5 1b 0d b1 3f e5 31 be d0 f4 63 b1 3f
       0.06660628081554273 0.06793146225226783
000330 9d 41 44 48 14 b9 b1 3f 84 2e f2 46 6b 0c b2 3f
       0.0692303348953431 0.070501999684149
000340 7c b2 cd 5d ea 5d b2 3f 89 4e 2e c1 81 ad b2 3f
       0.07174553671002032 0.07296000448541852
000350 4c 14 f4 45 21 fb b2 3f 6d 6f be 5e b8 46 b3 3f
       0.07414443929526832 0.07529785454829403
000360 44 1f e5 18 36 90 b3 3f 71 8c de 19 89 d7 b3 3f
       0.07641924007213868 0.07750756150794459
000370 76 8d 63 9c 9f 1c b4 3f e3 39 cc 6d 67 5f b4 3f
       0.07856175964439224 0.0795807498036321
000380 8f 4e af eb cd 9f b4 3f 65 0f 78 01 c0 dd b4 3f
       0.08056342128775838 0.08150863681663408
000390 90 76 30 26 2a 19 b5 3f b0 f4 8d 5a f8 51 b5 3f
       0.08241523201328449 0.08328201494983278
0003a0 e5 00 3c 27 16 88 b5 3f 19 fb 6d 9b 6e bb b5 3f
       0.08410776574965302 0.08489123625438956
0003b0 54 9f b3 4b ec eb b5 3f 08 c1 b2 bd 71 03 a6 3f
       0.08563114975151837 0.042995027929807306
0003c0 77 43 bc bd 71 03 a6 bf 54 9f b3 4b ec eb b5 bf
       -0.04299502793413173 -0.08563114975151837
0003d0 19 fb 6d 9b 6e bb b5 bf e5 00 3c 27 16 88 b5 bf
       -0.08489123625438956 -0.08410776574965302
0003e0 b0 f4 8d 5a f8 51 b5 bf 90 76 30 26 2a 19 b5 bf
       -0.08328201494983278 -0.08241523201328449
0003f0 2e 4e 73 01 c0 dd b4 bf 57 8d aa eb cd 9f b4 bf
       -0.08150863681230966 -0.08056342128343395
000400 1a fb d0 6d 67 5f b4 bf 76 8d 63 9c 9f 1c b4 bf
       -0.07958074980795651 -0.07856175964439224
000410 a9 4d e3 19 89 d7 b3 bf b3 a1 ee 18 36 90 b3 bf
       -0.07750756151226902 -0.07641924008078753
000420 35 ae b9 5e b8 46 b3 bf 14 53 ef 45 21 fb b2 bf
       -0.0752978545439696 -0.07414443929094389
000430 e2 0a 20 c1 81 ad b2 bf 7c b2 cd 5d ea 5d b2 bf
       -0.07296000447244524 -0.07174553671002032
000440 f3 b0 fb 46 6b 0c b2 bf 2e bf 3a 48 14 b9 b1 bf
       -0.07050199969279784 -0.06923033488669425
000450 76 af b4 d0 f4 63 b1 bf 85 5b d4 f5 1b 0d b1 bf
       -0.06793146224361898 -0.06660628081986715
000460 3d 67 3e 76 98 b4 b0 bf 5d 03 ca bc 78 5a b0 bf
       -0.06525566946802726 -0.06388048752888893
000470 31 d9 d6 c6 95 fd af bf f4 bc dd 6b 39 43 af bf
       -0.06248157551037748 -0.0610597557232441
000480 cb 29 d9 69 f7 85 ae bf 3f 74 e1 30 ea c5 ad bf
       -0.05961583296864922 -0.05815059515655507
000490 e1 c6 b8 a5 2b 03 ad bf 38 03 2e 27 d5 3d ac bf
       -0.056664813976011315 -0.055159245522196476
0004a0 c0 7b e7 92 ff 75 ab bf e6 f6 4a 4b c3 ab aa bf
       -0.05363463085426856 -0.05209169668294837
0004b0 59 f0 64 3c 38 df a9 bf 71 d5 bc e0 75 10 a9 bf
       -0.05053115594134345 -0.0489537083471231
0004c0 3a 50 62 46 93 3f a8 bf cf f2 7e 13 a7 6c a7 bf
       -0.04736004099064002 -0.04575082886683434
0004d0 d7 04 6d 8b c7 97 a6 bf 6a 1b fd 92 0a c1 a5 bf
       -0.044126735467679694 -0.04248841327949189
0004e0 ed d7 53 b5 85 e8 a4 bf 14 ea d9 27 4e 0e a4 bf
       -0.040836504349428406 -0.03917164074387727
0004f0 7d 20 65 ce 78 32 a3 bf 03 3b 62 40 1a 55 a2 bf
       -0.03749444503279251 -0.03580553089078899
000500 62 43 23 cc 46 76 a1 bf 32 8f cf 7a 12 96 a0 bf
       -0.034105503482016145 -0.03239495991854681
000510 c4 d1 d7 29 22 69 9f bf 3d df 8a 4b ac a3 9d bf
       -0.030674489787956963 -0.028944675551172628
000520 d1 2d b0 fe e9 db 9b bf 8d 42 44 7c 01 12 9a bf
       -0.027206092996534374 -0.025459311685212916
000530 25 0a 44 99 18 46 98 bf 8a a2 a8 cd 54 78 96 bf
       -0.023704895357704942 -0.02194340234032891
000540 31 55 21 3c db a8 94 bf b8 39 77 b8 d0 d7 92 bf
       -0.020175385994965104 -0.018401395090956035
000550 4c e2 16 ce 59 05 91 bf d2 ab 94 8f 35 63 8e bf
       -0.01662197418565574 -0.014837664074169785
000560 6e 0e e3 6a 6f b9 8a bf e2 da 7f e4 a8 0d 87 bf
       -0.01304900212233592 -0.011256522629975622
000570 10 07 13 59 29 60 83 bf 58 36 d1 ae 6f 62 7f bf
       -0.00946075728495857 -0.007662235509156533
000580 85 b6 ae 55 36 02 78 bf 9f 29 39 d4 33 a0 70 bf
       -0.005861484761153006 -0.004059030968685567
000590 4e 42 5d 0f ea 79 62 bf c8 c4 31 65 69 90 3d bf
       -0.0022553988918974427 -0.00045111249091351864
0005a0 8f aa 77 eb 2b 2c 56 3f c4 88 ec 57 66 dd 69 3f
       0.0013533047584767565 0.003157329453999132
0005b0 70 e3 02 6a 65 51 74 3f ce d9 91 f7 94 b2 7b 3f
       0.004960437916616253 0.006762105848898204
0005c0 b8 d3 45 69 da 88 81 3f d2 57 52 cd 1b 37 85 3f
       0.008561807954473241 0.010359017566127369
0005d0 f9 60 0d bc c7 e3 88 3f 5f 9f 69 02 97 8e 8c 3f
       0.012153206278228345 0.013943843613745064
0005e0 1b 01 2e 0c a1 1b 90 3f 50 34 f7 89 c0 ee 91 3f
       0.015730396622076186 0.017512329502825275
0005f0 57 29 29 ce 85 c0 93 3f e2 d2 9f 6e cc 90 95 3f
       0.019289103229575968 0.02106017518231596
000600 dd 87 6b bc 6f 5f 97 3f 2a 52 34 bd 4a 2c 99 3f
       0.022824998736616798 0.024583022878760165
000610 3b 42 b0 24 38 f7 9a 3f 8f 7e 0f 4d 12 c0 9c 3f
       0.026333691825188615 0.02807644458141439
000620 d0 83 26 30 b3 86 9e 3f 7f 32 4c 30 7a 25 a0 3f
       0.029810714544172445 0.031535929103573494
000630 90 68 0e 81 57 06 a1 3f f4 8e ec e0 dd e5 a1 3f
       0.03325150919336395 0.03495686884551033
000640 8e 2b 66 67 f9 c3 a2 3f a5 b5 56 e9 95 a0 a3 3f
       0.03665141474910803 0.03833454583523669
000650 d0 71 80 f4 9e 7b a4 3f 82 ed 92 cb ff 54 a5 3f
       0.040005652758029364 0.041664117431959205
000660 14 8e 7d 62 a3 2c a6 3f cb d6 a4 59 74 02 a7 3f
       0.043309312603721534 0.04494060129438323
000670 0b cc 89 f9 5c d6 a7 3f c2 e2 a0 2e 47 a8 a8 3f
       0.04655733629342514 0.04815885967440671
000680 6e d7 c9 84 1c 78 a9 3f b5 71 7b 22 c6 45 aa 3f
       0.049744502267386234 0.051313583096745864
000690 d8 4c 02 c4 2c 11 ab 3f 24 a0 bf b6 38 da ab 3f
       0.05286540882766538 0.054399273212595994
0006a0 ea f3 1b d4 d1 a0 ac 3f 3a e0 9f 7c df 64 ad 3f
       0.05591445650313871 0.0574102248792205
0006b0 a9 35 b7 92 48 26 ae 3f da 9e 57 75 f3 e4 ae 3f
       0.058885829839350486 0.06034050757790306
0006c0 b7 4b cd fa c5 a0 af 3f f3 80 8f b5 d2 2c b0 3f
       0.061773478379698536 0.0631839459670152
0006d0 12 99 42 3d bb 87 b0 3f a7 8b 03 a2 0e e1 b0 3f
       0.06457109685525023 0.06593409972587826
0006e0 b5 59 c9 a1 be 38 b1 3f d3 ae 2b a8 bc 8e b1 3f
       0.06727210473886809 0.06858424287537028
0006f0 c2 a5 86 cb f9 e2 b1 3f 67 7e e5 c9 66 35 b2 3f
       0.06986962527175591 0.07112734250176232
000700 8e ee 55 06 f4 85 b2 3f bd dc e5 85 91 d4 b2 3f
       0.07235646395377612 0.07355603713027654
000710 db 59 9c ec 2e 21 b3 3f 5b 74 d6 7a bb 6b b3 3f
       0.07472508694295447 0.07586261509864427
000720 f4 f7 57 0a 26 b4 b3 3f 4b f8 86 0b 5d fa b3 3f
       0.07696759941606485 0.0780389931814806
000730 46 9f b5 82 4e 3e b4 3f 0c d0 bc 05 e8 7f b4 3f
       0.07907572451733555 0.08007669582440274
000740 db 3d 67 b9 16 bf b4 3f b2 52 1a 4f c7 fb b4 3f
       0.08104078318068934 0.0819668357965593
000750 43 f9 08 03 e6 35 b5 3f c5 0f 0c 9a 5e 6d b5 3f
       0.08285367559526428 0.08370009671131047
000760 b2 cc 3d 60 1c a2 b5 3f 7d 23 95 27 0a d4 b5 3f
       0.0845048651661269 0.08526671854373365
000770 3e 50 19 47 12 03 b6 3f 4e fd 1c 30 da 19 b6 3f
       0.0859843658047916 0.0863319747413602
000780 6d ea ee 74 7a bc 7e bf 83 1c 89 eb ac fa 8d bf
       -0.0075039657085037405 -0.014638281763053712
000790 ad 85 a8 25 06 9f 9c bf 9c dc 37 af 05 04 a4 bf
       -0.027950378464202497 -0.03909318698782124
0007a0 78 f7 26 65 e3 7e a8 bf b3 8f 40 46 01 dc ab bf
       -0.047843080613787003 -0.05441287977762901
0007b0 fe d0 7e 5c e5 4e ae bf b5 f9 cf c6 1f 06 b0 bf
       -0.0591956782731433 -0.06259344676798302
0007c0 36 6e 3d 22 36 a0 b0 bf 4f bf 7a 26 d2 06 b1 bf
       -0.06494463287293048 -0.06651032866898031
0007d0 4a 46 18 1e a2 46 b1 bf 48 70 7a 74 e6 68 b1 bf
       -0.06748402819382551 -0.06800690025051026
0007e0 5b 86 88 20 5b 74 b1 bf 27 1c d8 6c ed 6d b1 bf
       -0.06818170112867376 -0.06808360965088465
0007f0 db f2 0b a8 40 59 b1 bf 0a 33 56 55 0c 39 b1 bf
       -0.0677681360502435 -0.06727673610130239
