Final images/k_current_L_100_Delta0_-0.4_Delta1_0.2_lambda_0.5_mu_-2_tJ_1_theta_piover4.npy (npy, 288128 bytes, 1 tensors)

array f8 [150, 240]
0	0x3f3cb13a73b301cc	0.00043780972528042745
1	0x3f4cb10daf8db8a6	0.0008755986046773592
2	0x3f5cb0b42957aea8	0.0017511138333884766
3	0x3f6584173764403c	0.002626462311248216
4	0x3f6caf4e0f9b4c43	0.003501560652560383
5	0x3f71ece8ebc4a395	0.0043763254618988294
6	0x3f7581bae41b1768	0.005250673335188562
7	0x3f7916068b9f9091	0.006124520843489149
8	0x3f7ca9b57c626d5b	0.006997784547049103
9	0x3f801e58a74c492e	0.007870380979089289
10	0x3f81e771cc27ab7f	0.0087422266414785
11	0x3f83b01af70bd8a8	0.009613238014463413
12	0x3f857848f0d7ef32	0.010483331537208682
13	0x3f873ff08160c97f	0.011352423618607997
14	0x3f8907066f24ea51	0.012220430628635233
15	0x3f8acd7f7f006951	0.01308726888969561
16	0x3f8c9350743ff7ee	0.013952854678787898
17	0x3f8e586e10a0e15e	0.014817104227504426
18	0x3f900e6689f437ea	0.015679933710138906
19	0x3f90f0311e0039e8	0.016541259246929757
20	0x3f91d191226d5e69	0.017400996900816788
21	0x3f92b280f41282f1	0.01825906266879235
22	0x3f9392faeeb2be6c	0.019115372485144652
23	0x3f9472f96cf3dec3	0.019969842219295552
24	0x3f955276c81bd7cf	0.020822387660665072
25	0x3f96316d5836cd15	0.021672924527320243
26	0x3f970fd77408ce25	0.0225213684627318
27	0x3f97edaf70e30b9c	0.023367635026044206
28	0x3f98caefa2b6dc0e	0.024211639696400104
29	0x3f99a7925bce69ba	0.0250532978567237
30	0x3f9a8391ed1404d3	0.025892524809937378
31	0x3f9b5ee8a5d453aa	0.0267292357649073
32	0x3f9c3990d38a054c	0.027563345824551264
33	0x3f9d1384c23828a0	0.028394770006379688
34	0x3f9decbebc0652db	0.029223423219792415
35	0x3f9ec53909409f7f	0.0300492202660787
36	0x3f9f9cedf06f766f	0.03087207584382273
37	0x3fa039ebdb1d8252	0.03169190454241701
38	0x3fa0a4f84ea75a70	0.03250862083557571
39	0x3fa10f99732a373a	0.03332213908025357
40	0x3fa179cc68062daa	0.03413237352205141
41	0x3fa1e38e4b794880	0.034939238274675155
42	0x3fa24cdc3abe7027	0.03574264733399018
43	0x3fa2b5b35203e848	0.036542514573696894
44	0x3fa31e10ac4ec87a	0.03733875373235747
45	0x3fa385f163847eb5	0.03813127841772027
46	0x3fa3ed52906d2fea	0.03892000210780096
47	0x3fa454314aa7d4fd	0.03970483814547696
48	0x3fa4ba8aa894d545	0.04048569972875752
49	0x3fa5205bbf6b6c09	0.041262499920513625
50	0x3fa585a1a3290440	0.04203515164091032
51	0x3fa5ea59667e33ae	0.0428035676587578
52	0x3fa64e801aeb4234	0.04356766060448472
53	0x3fa6b212d0a3a283	0.044327342957164916
54	0x3fa7150e96846faa	0.04508252704019296
55	0x3fa777707a2c3332	0.04583312503209526
56	0x3fa7d93587d01a23	0.04657904894707012
57	0x3fa83a5aca561bb8	0.04732021064687991
58	0x3fa89add4b5759fd	0.04805652184193219
59	0x3fa8faba12f556d9	0.04878789407181978
60	0x3fa959ee27f67b5b	0.049514238718294044
61	0x3fa9b8768fc3b71f	0.05023546700418379
62	0x3faa16504e5a3ca7	0.05095148998690862
63	0x3faa73786646c025	0.05166221855631673
64	0x3faacfebd89e55a3	0.052367563431441576
65	0x3fab2ba7a5163721	0.05306743517131297
66	0x3fab86a8c9e4dca2	0.05376174416090264
67	0x3fabe0ec43cddf40	0.05445040061652984
68	0x3fac3a6f0e1876b5	0.05513331458153684
69	0x3fac932e229b5c6d	0.05581039593169455
70	0x3faceb2679b34911	0.05648155437087799
71	0x3fad42550a28cdd9	0.057146699419174225
72	0x3fad98b6c95b1f7f	0.057805740432342205
73	0x3fadee48ab238ef2	0.058458586588839526
74	0x3fae4307a1e16c5f	0.05910514689522794
75	0x3fae96f09e6e242a	0.059745330180767844
76	0x3faeea00901d3ee9	0.06037904509741827
77	0x3faf3c3464c5e3d8	0.0610062001241613
78	0x3faf8d8908afd3f8	0.06162670355835326
79	0x3fafddfb66b251f7	0.062240463529779015
80	0x3fb016c4340bcd73	0.06284738798767879
81	0x3fb03e167a49b1e4	0.06344738469642369
82	0x3fb064f2f933415a	0.06404036125173232
83	0x3fb08b58232ab630	0.0646262250763463
84	0x3fb0b14469c11537	0.06520488340273266
85	0x3fb0d6b63dbe7fd5	0.06577624328065153
86	0x3fb0fbac0f36692f	0.06634021159553492
87	0x3fb120244d618c70	0.0668966950338914
88	0x3fb1441d66a9cfd3	0.06744560009411708
89	0x3fb16795c8b3c710	0.06798683309514453
90	0x3fb18a8be0481d97	0.0685203001559017
91	0x3fb1acfe194b446c	0.06904590718774423
92	0x3fb1ceeadeb9e140	0.0695635598912121
93	0x3fb1f0509a9ceb64	0.0700731637452186
94	0x3fb2112db5ee54cb	0.07057462398218488
95	0x3fb2318098827443	0.07106784556749894
96	0x3fb25147a8eddebf	0.07155273317573128
97	0x3fb270814c5119f8	0.07202919114306627
98	0x3fb28f2be6173bb3	0.07249712340784135
99	0x3fb2ad45d7a775a5	0.07295643343919396
100	0x3fb2cacd7feaa625	0.07340702412570772
101	0x3fb2e7c13a9dcbb8	0.0738487976175709
102	0x3fb3041f5f6c9a61	0.07428165511792308
103	0x3fb31fe640953276	0.07470549656609102
104	0x3fb33b1428d7293b	0.0751202201564966
105	0x3fb355a7587bf67e	0.0755257216478302
106	0x3fb36f9e00a66145	0.0759218932711337
107	0x3fb388f63bcba29e	0.07630862197732788
108	0x3fb3a1ae016a2098	0.0766857865766063
109	0x3fb3b9c310fd1b0f	0.07705325283778229
110	0x3fb3d132cc227b73	0.07741086467511397
111	0x3fb3e7f9ef086306	0.07775842748413817
112	0x3fb3fe13ff20ba41	0.0780956743117054
113	0x3fb4137a0a39bdb7	0.07842219113967173
114	0x3fb4281f8e6e529b	0.07873723246877733
115	0x3fb43be995ee4a90	0.07903919134541071
116	0x3fb44e8ebcdceaf1	0.07932369337951763
117	0x3fb45eeedcbd6626	0.07957356347233055
118	0x3fb46247eeed0ce4	0.07962464888719328
119	0x3fa45e3c943f3858	0.03978146848349756
120	0xbfa45e3c943f3858	-0.03978146848349756
121	0xbfb46247eeee3d32	-0.07962464888827439
122	0xbfb45eeedcbd6626	-0.07957356347233055
123	0xbfb44e8ebcd95a07	-0.0793236933762743
124	0xbfb43be995ef7ade	-0.07903919134649182
125	0xbfb4281f8e71e385	-0.07873723247202065
126	0xbfb4137a0a39bdb7	-0.07842219113967173
127	0xbfb3fe13ff1e59a5	-0.07809567430954319
128	0xbfb3e7f9ef06026a	-0.07775842748197595
129	0xbfb3d132cc23abc0	-0.07741086467619507
130	0xbfb3b9c310ff7bab	-0.0770532528399445
131	0xbfb3a1ae016a2098	-0.0766857865766063
132	0xbfb388f63bca7250	-0.07630862197624677
133	0xbfb36f9e00a79193	-0.07592189327221481
134	0xbfb355a7587bf67e	-0.0755257216478302
135	0xbfb33b1428d5f8ee	-0.0751202201554155
136	0xbfb31fe640940228	-0.07470549656500991
137	0xbfb3041f5f6dcaaf	-0.07428165511900418
138	0xbfb2e7c13a9efc06	-0.07384879761865201
139	0xbfb2cacd7fe975d7	-0.07340702412462662
140	0xbfb2ad45d7a775a5	-0.07295643343919396
141	0xbfb28f2be6173bb3	-0.07249712340784135
142	0xbfb270814c524a46	-0.07202919114414738
143	0xbfb25147a8ef0f0c	-0.07155273317681238
144	0xbfb23180988143f5	-0.07106784556641783
145	0xbfb2112db5ed247d	-0.07057462398110377
146	0xbfb1f0509a9ceb64	-0.0700731637452186
147	0xbfb1ceeadebb118e	-0.06956355989229321
148	0xbfb1acfe194b446c	-0.06904590718774423
149	0xbfb18a8be0494de5	-0.06852030015698281
150	0xbfb16795c8b4f75e	-0.06798683309622564
151	0xbfb1441d66a89f85	-0.06744560009303598
152	0xbfb120244d5dfb87	-0.06689669503064809
153	0xbfb0fbac0f36692f	-0.06634021159553492
154	0xbfb0d6b63dc0e070	-0.06577624328281373
155	0xbfb0b14469beb49b	-0.06520488340057044
156	0xbfb08b58232d16cb	-0.0646262250785085
157	0xbfb064f2f936d243	-0.06404036125497563
158	0xbfb03e167a475149	-0.06344738469426149
159	0xbfb016c434096cd7	-0.06284738798551658
160	0xbfafddfb66b4b293	-0.06224046353086012
161	0xbfaf8d8908afd3f8	-0.06162670355835326
162	0xbfaf3c3464c3833d	-0.0610062001230802
163	0xbfaeea00901d3ee9	-0.06037904509741827
164	0xbfae96f09e6e242a	-0.059745330180767844
165	0xbfae4307a1e3ccfb	-0.059105146896309045
166	0xbfadee48ab25ef8d	-0.058458586589920626
167	0xbfad98b6c958bee3	-0.0578057404312611
168	0xbfad42550a240ca1	-0.05714669941701201
169	0xbfaceb2679ae87d9	-0.056481554368715776
170	0xbfac932e229b5c6d	-0.05581039593169455
171	0xbfac3a6f0e1d37ed	-0.05513331458369906
172	0xbfabe0ec43d2a077	-0.054450400618692045
173	0xbfab86a8c9e27c07	-0.05376174415982154
174	0xbfab2ba7a513d685	-0.05306743517023186
175	0xbfaacfebd8a0b63f	-0.05236756343252268
176	0xbfaa73786646c025	-0.05166221855631673
177	0xbfaa16504e5a3ca7	-0.05095148998690862
178	0xbfa9b8768fc617bb	-0.0502354670052649
179	0xbfa959ee27f8dbf7	-0.04951423871937515
180	0xbfa8faba12f095a2	-0.04878789406965757
181	0xbfa89add4b54f962	-0.04805652184085109
182	0xbfa83a5aca587c54	-0.04732021064796102
183	0xbfa7d93587cdb987	-0.046579048945989014
184	0xbfa777707a29d297	-0.04583312503101416
185	0xbfa7150e968930e2	-0.04508252704235517
186	0xbfa6b212d0a3a283	-0.044327342957164916
187	0xbfa64e801aeda2d0	-0.04356766060556583
188	0xbfa5ea596680944a	-0.042803567659838906
189	0xbfa585a1a3244309	-0.04203515163874811
190	0xbfa5205bbf66aad2	-0.04126249991835142
191	0xbfa4ba8aa89274a9	-0.04048569972767641
192	0xbfa454314aaa3599	-0.03970483814655807
193	0xbfa3ed529071f122	-0.03892000210996317
194	0xbfa385f16386df50	-0.03813127841880137
195	0xbfa31e10ac4c67de	-0.03733875373127636
196	0xbfa2b5b35203e848	-0.036542514573696894
197	0xbfa24cdc3ac0d0c3	-0.035742647335071286
198	0xbfa1e38e4b76e7e4	-0.03493923827359405
199	0xbfa179cc6803cd0e	-0.0341323735209703
200	0xbfa10f99732c97d5	-0.03332213908133467
201	0xbfa0a4f84ea75a70	-0.03250862083557571
202	0xbfa039ebdb1fe2ee	-0.031691904543498114
203	0xbf9f9cedf06f766f	-0.03087207584382273
204	0xbf9ec539093bde47	-0.03004922026499759
205	0xbf9decbebc0652db	-0.029223423219792415
206	0xbf9d1384c23ce9d7	-0.028394770007460792
207	0xbf9c3990d38ec683	-0.027563345825632368
208	0xbf9b5ee8a5cad13b	-0.02672923576274509
209	0xbf9a8391ed1404d3	-0.025892524809937378
210	0xbf99a7925bd32af1	-0.025053297857804805
211	0xbf98caefa2b21ad6	-0.024211639695318997
212	0xbf97edaf70e30b9c	-0.023367635026044206
213	0xbf970fd77408ce25	-0.0225213684627318
214	0xbf96316d583b8e4d	-0.02167292452840135
215	0xbf955276c81bd7cf	-0.020822387660665072
216	0xbf9472f96cef1d8c	-0.019969842218214448
217	0xbf9392faeeb2be6c	-0.019115372485144652
218	0xbf92b280f41282f1	-0.01825906266879235
219	0xbf91d191226d5e69	-0.017400996900816788
220	0xbf90f0311e0039e8	-0.016541259246929757
221	0xbf900e6689f437ea	-0.015679933710138906
222	0xbf8e586e10a0e15e	-0.014817104227504426
223	0xbf8c9350743ff7ee	-0.013952854678787898
224	0xbf8acd7f7f006951	-0.01308726888969561
225	0xbf8907066f24ea51	-0.012220430628635233
226	0xbf873ff08160c97f	-0.011352423618607997
227	0xbf857848f0e171a1	-0.010483331538289788
228	0xbf83b01af7025639	-0.009613238013382307
229	0xbf81e771cc1e2910	-0.008742226640397394
230	0xbf801e58a742c6bf	-0.007870380978008183
231	0xbf7ca9b57c887717	-0.006997784549211314
232	0xbf7916068bc59a4d	-0.00612452084565136
233	0xbf7581bae408128a	-0.005250673334107456
234	0xbf71ece8ebc4a395	-0.0043763254618988294
235	0xbf6caf4e0f9b4c43	-0.003501560652560383
236	0xbf6584173764403c	-0.002626462311248216
237	0xbf5cb0b4290b9b2f	-0.0017511138323073707
238	0xbf4cb10daef591b4	-0.0008755986035962533
239	0xbf3cb13a71526605	-0.0004378097231182157
240	0x3f3cb26974c13909	0.00043788027392545386
241	0x3f4cb23caed37b0d	0.0008757396987240943
242	0x3f5cb1e3250c8765	0.0017513960085086763
243	0x3f6584fa6fdcc872	0.0026268855425764454
244	0x3f6cb07cfd328814	0.003502124900095724
245	0x3f71eda639b4bb5d	0.004377030675910412
246	0x3f75829e04947b3e	0.005251519448647822
247	0x3f79170f7935dd19	0.006125507777475358
248	0x3f7caae430c504cc	0.006998912209668261
249	0x3f801f02e1364963	0.007871649263311914
250	0x3f81e82ee1bdd6e3	0.008743635429464052
251	0x3f83b0eae3a97efa	0.009614787171073658
252	0x3f85792baf8c4cb9	0.01048502091865654
253	0x3f8740e60ca2f390	0.01135425306380869
254	0x3f89080ec0ca4cdf	0.012222399958125183
255	0x3f8ace9a907f57fb	0.013089377913200187
