Final images/k_current_L_100_Delta0_0.4_Delta1_0.4_lambda_0.5_mu_1_tJ_1_theta_0.npy (npy, 288128 bytes, 1 tensors)

array f8 [150, 240]
00000000: 837d 238e 1050 373f fa40 7821 1f4f 473f
00000010: 4a31 5e59 3c4d 573f bb37 d5e4 9177 613f
00000020: 42ec dce0 b145 673f 4dfe e467 0d10 6d3f
00000030: 824a f217 da6a 713f fa41 193d db4a 743f
00000040: 8c66 559c 9227 773f c9b5 3310 8900 7a3f
00000050: 611e 54e4 47d5 7c3f 6c7e 03e5 58a5 7f3f
00000060: a06a db35 2338 813f 03e5 5cb8 cd9a 823f
00000070: 19be 16cb 71fa 833f 3c59 309c d556 853f
00000080: 34d4 55be bfaf 863f 22a0 f52e f704 883f
00000090: ffe1 895f 4356 893f dd23 353c 6ca3 8a3f
000000a0: 7ad5 a031 3aec 8b3f 5dbb 7f36 7630 8d3f
000000b0: 93fc 93d3 e96f 8e3f b46d bc28 5faa 8f3f
000000c0: 6771 027b d06f 903f 3e4f 9452 bd07 913f
000000d0: dcbf 1627 dc9c 913f f893 e45f 132f 923f
000000e0: aec3 aac4 49be 923f bc1d 1580 664a 933f
000000f0: 6597 ee24 51d3 933f 6a74 b1b0 f158 943f
00000100: ba0a 7890 30db 943f 17d3 25a5 f659 953f
00000110: 7aa4 4346 2dd5 953f 8d81 1647 be4c 963f
00000120: f921 acfa 93c0 963f 2fd7 5837 9930 973f
00000130: 1676 485a b99c 973f b341 074d e004 983f
00000140: 499f 4188 fa68 983f c452 9818 f5c8 983f
00000150: 16e1 14a2 bd24 993f f49b 3f64 427c 993f
00000160: 7b43 8b3e 72cf 993f c785 3bb4 3c1e 9a3f
00000170: b7e3 e2ef 9168 9a3f de48 a8c7 62ae 9a3f
00000180: 1b1c 70c1 a0ef 9a3f f5a1 5016 3e2c 9b3f
00000190: cb8a b1b6 2d64 9b3f e95e e64d 6397 9b3f
000001a0: 176d d245 d3c5 9b3f 71d1 ebca 72ef 9b3f
000001b0: 165f cccf 3714 9c3f 0cef 5910 1934 9c3f
000001c0: 13d6 8615 0e4f 9c3f 2fd3 f538 0f65 9c3f
000001d0: 144b d6a7 1576 9c3f 3523 3c66 1b82 9c3f
000001e0: e906 2252 1b89 9c3f 33bb a426 118b 9c3f
000001f0: 76e1 fb7e f987 9c3f e37a 7bd8 d17f 9c3f
00000200: 4dcd 1196 9872 9c3f 645a 1902 4d60 9c3f
00000210: 1d8a f250 ef48 9c3f 7546 64a3 802c 9c3f
00000220: 8b66 3e08 030b 9c3f ef36 6e7e 79e4 9b3f
00000230: 593b fff5 e7b8 9b3f 4dcf 8e52 5388 9b3f
00000240: 9fca da6b c152 9b3f ade7 500f 3918 9b3f
00000250: 245e 7700 c2d8 9a3f a982 68f9 6494 9a3f
00000260: bea5 45ac 2b4b 9a3f 2bbc e0c1 20fd 993f
00000270: 6b2a e3da 4faa 993f 2f20 3f8f c552 993f
00000280: c4d1 1b6d 8ff6 983f e9eb a5f8 bb95 983f
00000290: 313c b9aa 5a30 983f bab9 0eef 7bc6 973f
000002a0: e5fd 1f24 3158 973f c955 8397 8ce5 963f
000002b0: db60 6f84 a16e 963f f5a0 0512 84f3 953f
000002c0: 9fff 7e4f 4974 953f a64a 2a32 07f1 943f
000002d0: 0ca1 3991 d469 943f d69c 7d22 c9de 933f
000002e0: 8864 c176 fd4f 933f c990 7bf5 8abd 923f
000002f0: 8625 cbd8 8b27 923f 6e33 1e28 1b8e 913f
00000300: 7a79 d8b2 54f1 903f 7f71 9c0c 5551 903f
00000310: 25eb 190c 735c 8f3f 40e0 594f 4010 8e3f
00000320: 550e 5859 4fbe 8c3f e4ff 4ef5 de66 8b3f
00000330: 5cd4 ed38 2f0a 8a3f be8f ee75 81a8 883f
00000340: 5265 992b 1842 873f 8f46 52f9 36d7 853f
00000350: 0e92 bb8d 2268 843f af4f 0098 20f5 823f
00000360: a24a 99b8 777e 813f ded3 bb70 6f04 803f
00000370: b0a7 1422 a00e 7d3f 4fc2 af50 c50e 7a3f
00000380: 0c03 0bea e109 773f 2fde 27a1 8a00 743f
00000390: 42a2 d83d 55f3 703f c2ae 2ef2 b0c5 6b3f
000003a0: 8e53 28af 579f 653f f5d0 ba1e 9ee9 5e3f
000003b0: f98e 05e0 908e 523f fffc b068 afbf 383f
000003c0: 3861 5066 afbf 38bf f98e 05e0 908e 52bf
000003d0: e6f7 521f 9ee9 5ebf 8e53 28af 579f 65bf
000003e0: c2ae 2ef2 b0c5 6bbf 42a2 d83d 55f3 70bf
000003f0: 2fde 27a1 8a00 74bf fd29 a3ea e109 77bf
00000400: 93b8 8950 c50e 7abf 0177 5621 a00e 7dbf
00000410: ded3 bb70 6f04 80bf a24a 99b8 777e 81bf
00000420: af4f 0098 20f5 82bf 5288 958d 2268 84bf
00000430: 4b50 78f9 36d7 85bf ed73 d22b 1842 87bf
00000440: e08a db75 81a8 88bf 3ad9 0039 2f0a 8abf
00000450: 49f1 15f5 de66 8bbf 7709 4559 4fbe 8cbf
00000460: b8f3 a54f 4010 8ebf 68e1 f30b 735c 8fbf
00000470: 7f71 9c0c 5551 90bf e9fb e1b2 54f1 90bf
00000480: 21ac 0128 1b8e 91bf d3ac e7d8 8b27 92bf
00000490: c990 7bf5 8abd 92bf cc5a 9b76 fd4f 93bf
000004a0: d69c 7d22 c9de 93bf 2d9c 2691 d469 94bf
000004b0: f3d1 4632 07f1 94bf a990 c14f 4974 95bf
000004c0: 169c f211 84f3 95bf fd5b 5c84 a16e 96bf
000004d0: eb50 7097 8ce5 96bf 767b 1624 3158 97bf
000004e0: e645 3eef 7bc6 97bf 313c b9aa 5a30 98bf
000004f0: 7a69 9cf8 bb95 98bf c4d1 1b6d 8ff6 98bf
00000500: 0d25 528f c552 99bf 492f f6da 4faa 99bf
00000510: 4db7 cdc1 20fd 99bf bea5 45ac 2b4b 9abf
00000520: 1805 72f9 6494 9abf f9d1 4700 c2d8 9abf
00000530: 1c6a 5a0f 3918 9bbf 39d9 136c c152 9bbf
00000540: 2143 5f52 5388 9bbf 4faa bcf5 e7b8 9bbf
00000550: 1132 5b7e 79e4 9bbf 2575 7708 030b 9cbf
00000560: 7ed7 a6a3 802c 9cbf 3f85 df50 ef48 9cbf
00000570: 8655 0602 4d60 9cbf 0046 f595 9872 9cbf
00000580: 2771 55d8 d17f 9cbf e563 057f f987 9cbf
00000590: 8142 c126 118b 9cbf e906 2252 1b89 9cbf
000005a0: 571e 2966 1b82 9cbf 144b d6a7 1576 9cbf
000005b0: 5b5f 2539 0f65 9cbf 615d a315 0e4f 9cbf
000005c0: bf67 3d10 1934 9cbf 86e1 d5cf 3714 9cbf
000005d0: be58 08cb 72ef 9bbf 5b63 ac45 d3c5 9bbf
000005e0: 9cd7 c94d 6397 9bbf f616 e1b6 2d64 9bbf
000005f0: 4329 6d16 3e2c 9bbf 810d 37c1 a0ef 9abf
00000600: 223f 82c7 62ae 9abf 4861 d9ef 9168 9abf
00000610: c785 3bb4 3c1e 9abf c8ca a73e 72cf 99bf
00000620: f49b 3f64 427c 99bf 16e1 14a2 bd24 99bf
00000630: a357 ab18 f5c8 98bf b821 4b88 fa68 98bf
00000640: b341 074d e004 98bf c9ee 2b5a b99c 97bf
00000650: 94c8 1f37 9930 97bf b62b d2fa 93c0 96bf
00000660: db08 3347 be4c 96bf bd9a 1d46 2dd5 95bf
00000670: 38ce 12a5 f659 95bf 7614 9e90 30db 94bf
00000680: d9f6 bab0 f158 94bf 22a1 1425 51d3 93bf
00000690: e7a9 4480 664a 93bf f2b9 84c4 49be 92bf
000006a0: f893 e45f 132f 92bf 1fb6 f026 dc9c 91bf
000006b0: add1 9d52 bd07 91bf 4576 157b d06f 90bf
000006c0: 5d55 5d28 5faa 8fbf 4f06 bad3 e96f 8ebf
000006d0: b4d3 de36 7630 8dbf 9cd0 8d31 3aec 8bbf
000006e0: ff1e 223c 6ca3 8abf 78f5 d55f 4356 89bf
000006f0: 449b e22e f704 88bf 21b2 d0bd bfaf 86bf
00000700: 1a5e 439c d556 85bf b4cc 4fcb 71fa 83bf
00000710: 25e0 49b8 cd9a 82bf 3b79 1436 2338 81bf
00000720: 3661 91e4 58a5 7fbf 2b01 e2e3 47d5 7cbf
00000730: 42c9 7f10 8900 7abf f7a0 399d 9227 77bf
00000740: b64b 3f3d db4a 74bf 5b06 e816 da6a 71bf
00000750: 5bd7 4c67 0d10 6dbf cad8 90e0 b145 67bf
00000760: 344b 21e5 9177 61bf 3b58 f659 3c4d 57bf
00000770: 16f3 4720 1f4f 47bf 837d 238e 1050 37bf
00000780: b663 c14d 7653 373f 30ad b0cb 8452 473f
00000790: 4d88 79d0 a150 573f 46fa a5c0 1d7a 613f
000007a0: 1f4a ba94 1649 673f ce8f 8d90 4a14 6d3f
000007b0: 4e95 c0a9 646d 713f 7cbb d482 d14d 743f
000007c0: 121d 4240 f42a 773f bfac b2b0 5504 7a3f
000007d0: 8ab2 8211 7fd9 7c3f a901 1c23 faa9 7f3f
000007e0: d57c 599a a83a 813f 0dba db97 879d 823f
000007f0: c179 16d4 5ffd 833f 43d4 2378 f759 853f
0.00035572437458416417 0.0007113363271305233 0.0014222230288139675 0.002132210682851158 0.002840850275700941 0.003547693427350207 0.004252292564290829 0.00495420112709199
0.005652973840676655 0.006348166850540912 0.007039337947623987 0.007726046795340485 0.008407855111206175 0.009084326924141189 0.00975502873447369 0.010419529751783167
0.011077402111121605 0.01172822105463928 0.012371565201861221 0.013007016742124062 0.01363416160539076 0.014252589739013716 0.014861895341253628 0.015461677008309894
0.016051537998110457 0.016631086507074892 0.01719993580417155 0.017757704475247466 0.018304016712764763 0.018838502471479876 0.01936079776682877 0.019870544824119575
0.02036739236610672 0.020850995855158674 0.021321017659748233 0.02177712735067554 0.02221900193674917 0.022646326068034014 0.02305879224342363 0.02345610113280978
0.02383796173708611 0.024204091669235664 0.024554217355416595 0.02488807427280544 0.025205407206900326 0.02550597047855321 0.02578952814721777 0.026055854259603765
0.02630473309184476 0.0265359593505838 0.026749338412978923 0.0269446865364377 0.027121831070513993 0.027280610690426813 0.027420875604632654 0.027542487738613494
0.027645320953260177 0.027729261256769163 0.027794206971132843 0.027840068926738588 0.027866770637507896 0.027874248489008834 0.02786245191143296 0.027831343496354754
0.027780899199979548 0.027711108449091873 0.0276219742924103 0.027513513538968987 0.027385756853254988 0.027238748876292126 0.0270725482840207 0.026887227930003466
0.026682874877858805 0.026459590492073626 0.026217490461787687 0.025956704828902364 0.02567737807240688 0.025379669030538714 0.025063750967812142 0.024729811542585075
0.02437805274435491 0.024008690882947468 0.023621956510677392 0.02321809431639974 0.02279736311902338 0.022360035655614206 0.021906398494906703 0.021436751937842186
0.020951409794860983 0.020450699269143023 0.01993496071227789 0.019404547433990192 0.018859825490242815 0.018301173432420357 0.01772898207381026 0.01714365417824431
0.016545604148740158 0.01593525781128013 0.015313051993179958 0.014679434224703525 0.014034862436353249 0.013379804478859066 0.012714737820468773 0.012040149127478968
0.011356533842603742 0.01066439579361436 0.00996424670251719 0.00925660575743578 0.008541999169357443 0.007820959689960046 0.007094026107816662 0.006361742746762446
0.005624659039938928 0.0048833289351857675 0.004138310408543124 0.0033901649453208236 0.0026394569952210073 0.001886753477191636 0.0011326231761694101 0.00037763626523097665
-0.0003776362630687649 -0.0011326231761694101 -0.0018867534793538475 -0.0026394569952210073 -0.0033901649453208236 -0.004138310408543124 -0.0048833289351857675 -0.005624659048587774
-0.006361742744600235 -0.007094026097005602 -0.007820959689960046 -0.008541999169357443 -0.00925660575743578 -0.009964246698192767 -0.010664395797938783 -0.011356533849090378
-0.012040149125316757 -0.012714737822630984 -0.01337980447237243 -0.014034862434191038 -0.01467943423335237 -0.015313051988855533 -0.01593525781128013 -0.01654560415090237
-0.017143654171757675 -0.017728982080296895 -0.018301173432420357 -0.01885982548159397 -0.019404547433990192 -0.019934960707953465 -0.020450699275629657 -0.020951409809996466
-0.02143675193351776 -0.02190639849058228 -0.022360035651289783 -0.022797363116861168 -0.023218094327210802 -0.023621956510677392 -0.024008690880785256 -0.02437805274435491
-0.024729811546909498 -0.025063750972136565 -0.02537966902621429 -0.02567737807240688 -0.025956704831064575 -0.02621749045097663 -0.026459590494235838 -0.026682874890832074
-0.026887227919192406 -0.027072548268885218 -0.027238748871967703 -0.027385756866228256 -0.027513513554104467 -0.02762197428808588 -0.02771110844476745 -0.027780899193492914
-0.02783134348770591 -0.02786245191359517 -0.027874248495495472 -0.027866770637507896 -0.027840068922414165 -0.027794206971132843 -0.027729261267580223 -0.027645320959746814
-0.02754248773212686 -0.02742087560679487 -0.027280610696913447 -0.027121831061865147 -0.026944686529951065 -0.02674933842378998 -0.026535959357070437 -0.026304733078871493
-0.02605585425095492 -0.025789528145055557 -0.02550597047855321 -0.02520540721338696 -0.02488807427280544 -0.024554217355416595 -0.02420409167356009 -0.02383796173924832
-0.02345610113280978 -0.023058792236936996 -0.022646326055060742 -0.02221900194539802 -0.02177712735716218 -0.021321017651099384 -0.020850995850834247 -0.020367392374755565
-0.019870544826281786 -0.01936079777547762 -0.018838502482290933 -0.018304016704115918 -0.017757704475247466 -0.0171999357955227 -0.016631086509237104 -0.01605153800243488
-0.015461676997498836 -0.01486189534557805 -0.014252589749824775 -0.01363416160322855 -0.01300701673996185 -0.012371565210510069 -0.011728221052477068 -0.011077402095986124
-0.010419529753945379 -0.009755028740960327 -0.009084326921978978 -0.008407855117692811 -0.007726046788853849 -0.007039337941137351 -0.006348166854865335 -0.005652973853649926
-0.004954201129254201 -0.004252292549155347 -0.0035476934230257834 -0.0028408502735387297 -0.0021322106850133696 -0.001422223030976179 -0.0007113363249683115 -0.00035572437458416417
0.0003559268786879581 0.0007117412964182997 0.0014230327814393096 0.002133424864211339 0.002842468360378505 0.0035497146931664286 0.00425471612473889 0.004957025911877074
0.005656198602202582 0.00635179016823456 0.007043358193339908 0.007730462167956289 0.008412663660406864 0.009089526483390587 0.009760616931825507 0.01042550406826071
