Final images/k_current_L_200_Delta0_0.2_Delta1_0.2_lambda_0.5_mu_1_tJ_1_theta_0.npy (npy, 144128 bytes, 1 tensors)

array f8 [75, 240]
0	0x3f4b33f88f38af3f	0.0008301700276595949
1	0x3f5b33c59a8dd4fc	0.0016602925990956688
2	0x3f6b335fbf7bc720	0.003320395477083418
3	0x3f7466087f42a561	0.004980118934477446
4	0x3f7b31c855942b76	0.006639273219898869
5	0x3f80fe5e3c372289	0.008297668659808426
6	0x3f846358fd9612d9	0.009955115546071468
7	0x3f87c7bafaf51c30	0.011611424239744123
8	0x3f8b2b6ac0d49148	0.013266405114855787
9	0x3f8e8e4ed9a03c8e	0.01491986848489393
10	0x3f90f826e9715a71	0.016571624754158912
11	0x3f92a8a71edbbd69	0.018221484430737265
12	0x3f94589b5517e560	0.019869257992444544
13	0x3f9607f6d3703fda	0.021514755873852077
14	0x3f97b6ace3c8e4be	0.023157788660886018
15	0x3f9964b0d08b0e04	0.024798166969743476
16	0x3f9b11f5e5764d45	0.02643570149446119
17	0x3f9cbe6f6dd816e5	0.028070202903129355
18	0x3f9e6a10b608236f	0.0297014819243801
19	0x3fa00a6686b4f981	0.0313293494641469
20	0x3fa0df4be1516a8b	0.03295361638511903
21	0x3fa1b3b212d7385c	0.03457409362782535
22	0x3fa28792c40be99d	0.03619059222360763
23	0x3fa35ae79eeed547	0.03780292334651363
24	0x3fa42daa4d3cc148	0.039410898140320116
25	0x3fa4ffd479cfbc96	0.04101432787853658
26	0x3fa5d15fd0959cbc	0.04261302396008079
27	0x3fa6a245fd8f3c23	0.04420679779251937
28	0x3fa77280ae26d1b1	0.04579546094774701
29	0x3fa8420990bdd397	0.04737882511009344
30	0x3fa910da546a6643	0.048956702046052424
31	0x3fa9deeca8be4dc8	0.05052890357833523
32	0x3faaac3a3e98236c	0.05209524168100796
33	0x3fab78bcc819d332	0.053655528475167094
34	0x3fac446df840011d	0.05520957618137088
35	0x3fad0f4782eb8b97	0.0567571971239637
36	0x3fadd9431d40a3ce	0.058298203774320365
37	0x3faea25a7d80c3f5	0.05983240873354837
38	0x3faf6a875b56c2bb	0.06135962476708331
39	0x3fb018e1b7911288	0.06287966472252482
40	0x3fb07c04395f68a1	0.0643923416204495
41	0x3fb0dea811051884	0.06589746871495278
42	0x3fb140ca1c7f1ab7	0.06739485927310339
43	0x3fb1a2673ab36361	0.06888432677386681
44	0x3fb2037c4bb8348a	0.0703656849729716
45	0x3fb264062f90cb5f	0.07183874760884866
46	0x3fb2c401c77a355e	0.07330332870534081
47	0x3fb3236bf5a3fe16	0.07475924250683649
48	0x3fb382419c63bad4	0.07620630329231953
49	0x3fb3e07f9f655882	0.07764432565213222
50	0x3fb43e22e347421e	0.07907312439716249
51	0x3fb49b284cd2ad99	0.08049251437721806
52	0x3fb4f78cc2487108	0.08190231078373611
53	0x3fb5534d2ac41a7d	0.0833023290070773
54	0x3fb5ae666e11250f	0.08469238459760596
55	0x3fb608d574f70c57	0.08607229333488085
56	0x3fb6629729394c6f	0.08744187122765522
57	0x3fb6bba875c6ee1c	0.08880093455712096
58	0x3fb7140646817834	0.09014929982501557
59	0x3fb76bad8816e5e2	0.09148678371902677
60	0x3fb7c29b28573c8d	0.09281320319063209
61	0x3fb818cc168a21c3	0.09412837553293855
62	0x3fb86e3d428aa0c9	0.09543211817311027
63	0x3fb8c2eb9d7717a8	0.09672424883237218
64	0x3fb916d419b5f861	0.09800458553033443
65	0x3fb969f3aaec4680	0.09927294657634356
66	0x3fb9bc4745bfc747	0.10052915051326493
67	0x3fba0dcbe03adb42	0.10177301620829574
68	0x3fba5e7e716d65e9	0.10300436276647641
69	0x3fbaae5bf1d5686b	0.10422300962582802
70	0x3fbafd615b2f7580	0.10542877651410798
71	0x3fbb4b8ba85568e7	0.10662148341853915
72	0x3fbb98d7d63a67e4	0.10780095081500424
73	0x3fbbe542e2357149	0.10896699927019883
74	0x3fbc30c9cb4e32a7	0.11011944974434106
75	0x3fbc7b69927ad821	0.11125812364738909
76	0x3fbcc51f395cb9ab	0.11238284254498036
77	0x3fbd0de7c35da40d	0.11349342841789696
78	0x3fbd55c035850def	0.11458970362314579
79	0x3fbd9ca5960abbdf	0.11567149079449689
80	0x3fbde294ecc41c4a	0.11673861294194512
81	0x3fbe278b431142a1	0.11779089343441253
82	0x3fbe6b85a3cea3b1	0.118828155986775
83	0x3fbeae811b5515a4	0.11985022465986234
84	0x3fbef07ab779cffe	0.12085692386045818
85	0x3fbf316f87e4018a	0.12184807841913972
86	0x3fbf715c9da4358f	0.1228235134951403
87	0x3fbfb03f0b0e4a16	0.12378305454175406
88	0x3fbfee13e48aa577	0.1247265274966106
89	0x3fc0156c1fcf7b87	0.1256537585568049
90	0x3fc0334499a90867	0.12656457426971032
91	0x3fc05091ec562409	0.1274588016497378
92	0x3fc06d52a4ee5eda	0.12833626797941272
93	0x3fc08985512fb3da	0.12919680084396995
94	0x3fc0a5287fccfcba	0.1300402282740601
95	0x3fc0c03ac00095d9	0.13086637854682584
96	0x3fc0dabaa18ebee0	0.13167508019022645
97	0x3fc0f4a6b545fba0	0.1324661622165566
98	0x3fc10dfd8c4cc66e	0.1332394537981147
99	0x3fc126bdb87264d2	0.13399478441423313
100	0x3fc13ee5cbec5680	0.13473198373019457
101	0x3fc15674598aa2b8	0.13545088169236918
102	0x3fc16d67f49b50fb	0.1361513084763216
103	0x3fc183bf308db14f	0.13683309431815835
104	0x3fc19978a16b9b46	0.1374960697350735
105	0x3fc1ae92db0cf9ad	0.13814006515344826
106	0x3fc1c30c71852685	0.13876491110777436
107	0x3fc1d6e3f91bc934	0.13937043822768092
108	0x3fc1ea1805a8cc86	0.1399564769395491
109	0x3fc1fca72acb0cac	0.14052285756597394
110	0x3fc20e8ffbb1a93d	0.1410694102263025
111	0x3fc21fd10aea1870	0.14159596474582115
112	0x3fc23068ea0f526b	0.14210235050872497
113	0x3fc2405629a3c787	0.14258839638892715
114	0x3fc24f97589f4317	0.14305393054248647
115	0x3fc25e2b03d20345	0.14349878012219555
116	0x3fc26c0fb48c00d2	0.14392277065053932
117	0x3fc27943e9e155ed	0.144325722884488
118	0x3fc285c5c662aee0	0.14470741450110491
119	0x3fb28bd9d83079bf	0.07244645622311106
120	0xbfb28bd9d82bb888	-0.07244645621878665
121	0xbfc285c5c66c314f	-0.1447074145184026
122	0xbfc27943e9da341a	-0.14432572287151474
123	0xbfc26c0fb47dbd2b	-0.14392277062459277
124	0xbfc25e2b03d463e1	-0.14349878012651998
125	0xbfc24f9758a664ea	-0.14305393055545973
126	0xbfc2405629ad49f6	-0.14258839640622484
127	0xbfc23068ea1413a3	-0.14210235051737383
128	0xbfc21fd10ae55739	-0.14159596473717231
129	0xbfc20e8ffbaf48a1	-0.14106941022197808
130	0xbfc1fca72ac18a3c	-0.14052285754867622
131	0xbfc1ea1805a66bea	-0.13995647693522467
132	0xbfc1d6e3f92a0cdb	-0.13937043825362747
133	0xbfc1c30c71878721	-0.1387649111120988
134	0xbfc1ae92dafeb606	-0.1381400651275017
135	0xbfc19978a16b9b46	-0.1374960697350735
136	0xbfc183bf3099945a	-0.13683309433978047
137	0xbfc16d67f4942f28	-0.13615130846334833
138	0xbfc15674598f63f0	-0.13545088170101804
139	0xbfc13ee5cbec5680	-0.13473198373019457
140	0xbfc126bdb86b42ff	-0.13399478440125986
141	0xbfc10dfd8c5187a5	-0.13323945380676352
142	0xbfc0f4a6b54d1d73	-0.13246616222952987
143	0xbfc0dabaa189fda8	-0.1316750801815776
144	0xbfc0c03abfeb305f	-0.13086637850790603
145	0xbfc0a5287fd67f29	-0.13004022829135778
146	0xbfc08985513df781	-0.1291968008699165
147	0xbfc06d52a4f0bf75	-0.12833626798373712
148	0xbfc05091ec562409	-0.1274588016497378
149	0xbfc0334499a6a7cb	-0.1265645742653859
150	0xbfc0156c1fc5f918	-0.12565375853950722
151	0xbfbfee13e485e440	-0.12472652749228619
152	0xbfbfb03f0b26102c	-0.12378305456337618
153	0xbfbf715c9da4358f	-0.1228235134951403
154	0xbfbf316f87e8c2c1	-0.12184807842346414
155	0xbfbef07ab7750ec7	-0.12085692385613377
156	0xbfbeae811b3d4f8e	-0.11985022463824022
157	0xbfbe6b85a3cea3b1	-0.118828155986775
158	0xbfbe278b431f8648	-0.1177908934473858
159	0xbfbde294ecbf5b12	-0.1167386129376207
160	0xbfbd9ca595ee3491	-0.11567149076855034
161	0xbfbd55c035935196	-0.11458970363611906
162	0xbfbd0de7c37a2b5a	-0.1134934284438435
163	0xbfbcc51f394e7605	-0.1123828425320071
164	0xbfbc7b69927616ea	-0.11125812364306467
165	0xbfbc30c9cb52f3de	-0.11011944974866547
166	0xbfbbe542e2272da2	-0.10896699925722556
167	0xbfbb98d7d643ea53	-0.10780095082365308
168	0xbfbb4b8ba8686dc6	-0.10662148343583686
169	0xbfbafd615b1c70a2	-0.10542877649681029
170	0xbfbaae5bf1da29a2	-0.10422300963015244
171	0xbfba5e7e7168a4b1	-0.10300436276215198
172	0xbfba0dcbe0361a0b	-0.10177301620397132
173	0xbfb9bc4745dc4e95	-0.10052915053921148
174	0xbfb969f3aaec4680	-0.09927294657634356
175	0xbfb916d419b5f861	-0.09800458553033443
176	0xbfb8c2eb9d7717a8	-0.09672424883237218
177	0xbfb86e3d42779beb	-0.09543211815581258
178	0xbfb818cc16809f54	-0.09412837552428971
179	0xbfb7c29b28658034	-0.09281320320360537
180	0xbfb76bad881224aa	-0.09148678371470234
181	0xbfb7140646817834	-0.09014929982501557
182	0xbfb6bba875d9f2fb	-0.08880093457441866
183	0xbfb66297293e0da7	-0.08744187123197965
184	0xbfb608d574df4641	-0.08607229331325873
185	0xbfb5ae666dfe2030	-0.08469238458030826
186	0xbfb5534d2acd9cec	-0.08330232901572615
187	0xbfb4f78cc256b4af	-0.08190231079670938
188	0xbfb49b284cc469f3	-0.0804925143642448
189	0xbfb43e22e3343d40	-0.0790731243798648
190	0xbfb3e07f9f81dfd0	-0.07764432567807877
191	0xbfb382419c5a3865	-0.07620630328367069
192	0xbfb3236bf5a3fe16	-0.07475924250683649
193	0xbfb2c401c79b7de3	-0.07330332873561178
194	0xbfb264062f8748f0	-0.07183874760019981
195	0xbfb2037c4bb8348a	-0.0703656849729716
196	0xbfb1a2673ac1a707	-0.06888432678684007
197	0xbfb140ca1c6c15d9	-0.0673948592558057
198	0xbfb0dea811051884	-0.06589746871495278
199	0xbfb07c04397befee	-0.06439234164639604
200	0xbfb018e1b78c5151	-0.0628796647182004
201	0xbfaf6a875b30b8ff	-0.06135962474978562
202	0xbfaea25a7d5aba38	-0.059832408716250673
203	0xbfadd9431d4a263d	-0.05829820377864479
204	0xbfad0f47831b17c2	-0.056757197145585817
205	0xbfac446df819f760	-0.05520957616407318
206	0xbfab78bcc82cd810	-0.05365552848381594
207	0xbfaaac3a3eb4aab9	-0.05209524169398123
208	0xbfa9deeca8a1c67b	-0.05052890356536196
209	0xbfa910da54576165	-0.04895670203740358
210	0xbfa8420990bdd397	-0.04737882511009344
211	0xbfa77280ae305420	-0.04579546095207143
212	0xbfa6a245fdb545df	-0.04420679780981706
213	0xbfa5d15fd08c1a4d	-0.04261302395575637
214	0xbfa4ffd4798d2b8d	-0.04101432784826562
215	0xbfa42daa4d29bc6a	-0.03941089813167127
216	0xbfa35ae79f1e6172	-0.037802923368135746
217	0xbfa28792c42870ea	-0.0361905922365809
218	0xbfa1b3b212bab10f	-0.03457409361485208
219	0xbfa0df4be13e65ac	-0.03295361637647018
220	0xbfa00a6686be7bf1	-0.03132934946847133
221	0xbf9e6a10b6673bc6	-0.029701481946002216
222	0xbf9cbe6f6d9f084b	-0.028070202890156087
223	0xbf9b11f5e5895224	-0.026435701498785616
224	0xbf9964b0d1103018	-0.024798167000014443
225	0xbf97b6ace3a2db02	-0.023157788652237173
226	0xbf9607f6d2eb1dc7	-0.021514755843581115
227	0xbf94589b54b8cd09	-0.019869257970822427
228	0xbf92a8a71f60df7c	-0.018221484461008228
229	0xbf90f826e9bd6dea	-0.016571624771456607
230	0xbf8e8e4ed8e20be0	-0.014919868463271813
231	0xbf8b2b6ac016609a	-0.01326640509323367
232	0xbf87c7bafaf51c30	-0.011611424239744123
233	0xbf846358fe2e39cb	-0.009955115563369163
234	0xbf80fe5e3c1118cd	-0.008297668655484003
235	0xbf7b31c855942b76	-0.006639273219898869
236	0xbf7466087ef691e8	-0.004980118930153023
237	0xbf6b335fc0ac1504	-0.0033203954857322655
238	0xbf5b33c59a8dd4fc	-0.0016602925990956688
239	0xbf4b33f87c33d109	-0.0008301699930642069
240	0x3f4b384fda69bb14	0.0008306875141224934
241	0x3f5b381cffe5925c	0.0016613276671587828
242	0x3f6b37b72dbdcca9	0.0033224656780759987
243	0x3f74694a16db6ad2	0.004983224307319305
244	0x3f7b361fdccc94a7	0.006643413985135605
245	0x3f810115008d712b	0.008302845076905449
246	0x3f84669acb1ea679	0.009961327861520918
247	0x3f87cb87dba4811e	0.011618672743282373
248	0x3f8b2fc2c2303d7f	0.013274690200005377
249	0x3f8e93320af61ade	0.014929190597070482
250	0x3f90fade22f0a5f1	0.016581984407968823
251	0x3f92aba401f3a3ad	0.018232882136462503
252	0x3f945bddeac5b371	0.01988169427334036
253	0x3f960b7f2770f6de	0.021528231413177383
254	0x3f97ba7b01d985d9	0.023172304141899722
255	0x3f9968c4c4edbc70	0.02481372310597546
