Final images/k_current_L_100_Delta0_0.4_Delta1_0.2_lambda_0.5_mu_-2_tJ_0.5_theta_piover4.npy (npy, 288128 bytes, 1 tensors)

array f8 [150, 240]
00000000: e887 81ce 57c0 243f b300 c2ee 80bf 343f
00000010: 5788 5d39 d3bd 443f f9bf e5c1 8a18 4f3f
00000020: 769b 15f8 1cb7 543f a698 3f1f 9ade 593f
00000030: 706c 12f5 e601 5f3f 914d 6e0c 1710 623f
00000040: af9c 4b60 4d9c 643f 02da bd67 2c25 673f
00000050: c820 807b 4aaa 693f 021c e463 3e2b 6c3f
00000060: 293f 5069 9fa7 6e3f 3050 b2af 828f 703f
00000070: 56e9 0f58 84c8 713f 2e94 4136 a1fe 723f
00000080: e5bc b52b a631 743f 7730 1979 6061 753f
00000090: 99fe b1c5 9d8d 763f c90d 8a25 2cb6 773f
000000a0: d1c2 e51f dada 783f 60ca 3fb6 76fb 793f
000000b0: c3dd 316b d117 7b3f 2374 1149 ba2f 7c3f
000000c0: 5560 40e8 0143 7d3f bfb2 8776 7951 7e3f
000000d0: d687 26be f25a 7f3f d157 2416 a02f 803f
000000e0: a73b 016c 1aaf 803f 0148 df44 d22b 813f
000000f0: 7ae2 f6e0 b1a5 813f 18e0 f7df a31c 823f
00000100: 1cfb c944 9390 823f f4b2 f778 6b01 833f
00000110: 72b3 3550 186f 833f afdb 650c 86d9 833f
00000120: 05f7 6960 a140 843f 6146 3074 57a4 843f
00000130: 8b09 c0e8 9504 853f fdab dcda 4a61 853f
00000140: c95c 4be7 64ba 853f d775 5a2e d30f 863f
00000150: ef56 3957 8561 863f 9e6c fb93 6baf 863f
00000160: 3a7a ada4 76f9 863f 9414 29db 973f 873f
00000170: 429a de1e c181 873f 72f1 baef e4bf 873f
00000180: 4011 346a f6f9 873f 7255 844a e92f 883f
00000190: 6a5e 15f0 b161 883f 35ec d760 458f 883f
000001a0: 10cd e74c 99b8 883f 26a0 8411 a4dd 883f
000001b0: f610 eebb 5cfe 883f 15e3 790d bb1a 893f
000001c0: da23 4a7e b732 893f 714d ca3f 4b46 893f
000001d0: f021 0740 7055 893f 8281 f32c 2160 893f
000001e0: 99f7 8f76 5966 893f 96ec a051 1568 893f
000001f0: 3be1 8aba 5165 893f b100 8d77 0c5e 893f
00000200: 72b7 0e1b 4452 893f c4c7 e305 f841 893f
00000210: 7354 6a69 282d 893f ec4b 2d49 d613 893f
00000220: d777 157d 03f6 883f b7d4 bfb2 b2d3 883f
00000230: fa6b dd6e e7ac 883f 56b5 af0e a681 883f
00000240: 0cd6 ffc8 f351 883f b3f3 61af d61d 883f
00000250: a947 81ae 55e5 873f 54cd d48e 78a8 873f
00000260: c050 d8f4 4767 873f d91c c161 cd21 873f
00000270: a0cf d232 13d8 863f 61bf f6a0 248a 863f
00000280: 7a95 24c1 0d38 863f cbcf 7382 dbe1 853f
00000290: f8b6 f5ad 9b87 853f a90b 72e5 5c29 853f
000002a0: 650a 82a1 2ec7 843f 8591 3030 2161 843f
000002b0: c69d f8b2 45f7 833f d4c6 c31c ae89 833f
000002c0: a00d 342f 6d18 833f db36 1d78 96a3 823f
000002d0: a3f9 524e 3e2b 823f 2155 0fcf 79af 813f
000002e0: ed7f c9d9 5e30 813f b485 c10c 04ae 803f
000002f0: 8a5d 6fc1 8028 803f fc5a 5d0f da3f 7f3f
00000300: a082 6443 c328 7e3f 8988 13fe ef0b 7d3f
00000310: a726 0d70 94e9 7b3f dea9 7810 e6c1 7a3f
00000320: c23e 7592 1b95 793f 70f0 5cd9 6c63 783f
00000330: 59ce 9fed 122d 773f c9d2 a7f0 47f2 753f
00000340: c871 660f 47b3 743f 266c ec75 4c70 733f
00000350: 1968 1d42 9529 723f eb62 cb75 5fdf 703f
00000360: ef0a c0d0 d323 6f3f b304 5871 e882 6c3f
00000370: 7973 a47b 7ddc 693f e811 bcf1 1431 673f
00000380: b967 9409 3281 643f 9207 b20e 59cd 613f
00000390: f0fd 5085 1e2c 5e3f f57b 0b77 b5b7 583f
000003a0: 700b 818c 843e 533f 8f08 ce0f 3583 4b3f
000003b0: 45fe e325 0e84 403f fe72 ecf9 d306 263f
000003c0: c50e 4dfc d306 26bf 3725 7c26 0e84 40bf
000003d0: 9ee1 350f 3583 4bbf f7f7 348c 843e 53bf
000003e0: f57b 0b77 b5b7 58bf f0fd 5085 1e2c 5ebf
000003f0: 9207 b20e 59cd 61bf fd5d 6e09 3281 64bf
00000400: e811 bcf1 1431 67bf 7973 a47b 7ddc 69bf
00000410: 3af1 0b71 e882 6cbf ac14 e6d0 d323 6fbf
00000420: a86c f175 5fdf 70bf f76c 3042 9529 72bf
00000430: 4867 d975 4c70 73bf ea6c 530f 47b3 74bf
00000440: eacd 94f0 47f2 75bf 37d3 b2ed 122d 77bf
00000450: b3e6 36d9 6c63 78bf e439 6292 1b95 79bf
00000460: 57bd c410 e6c1 7abf 6330 3370 94e9 7bbf
00000470: 8988 13fe ef0b 7dbf c27d 5143 c328 7ebf
00000480: fc5a 5d0f da3f 7fbf 8a5d 6fc1 8028 80bf
00000490: b485 c10c 04ae 80bf 7efd bfd9 5e30 81bf
000004a0: ff59 22cf 79af 81bf 3477 494e 3e2b 82bf
000004b0: fd31 0a78 96a3 82bf a00d 342f 6d18 83bf
000004c0: d4c6 c31c ae89 83bf 3520 02b3 45f7 83bf
000004d0: 160f 2730 2161 84bf 650a 82a1 2ec7 84bf
000004e0: 8710 85e5 5c29 85bf 6739 ffad 9b87 85bf
000004f0: 5c4d 6a82 dbe1 85bf 7a95 24c1 0d38 86bf
00000500: d041 00a1 248a 86bf 314d c932 13d8 86bf
00000510: 489f ca61 cd21 87bf c050 d8f4 4767 87bf
00000520: 97c3 ae8e 78a8 87bf 18ca 8aae 55e5 87bf
00000530: 007b 7eaf d61d 88bf 0cd6 ffc8 f351 88bf
00000540: e632 a60e a681 88bf 1c67 ca6e e7ac 88bf
00000550: 2657 c9b2 b2d3 88bf 46fa 1e7d 03f6 88bf
00000560: 0e47 1a49 d613 89bf 7354 6a69 282d 89bf
00000570: c4c7 e305 f841 89bf 0335 051b 4452 89bf
00000580: 2083 9677 0c5e 89bf aa63 94ba 5165 89bf
00000590: 96ec a051 1568 89bf 2a75 8676 5966 89bf
000005a0: f203 fd2c 2160 89bf 5fa4 1040 7055 89bf
000005b0: 02cb c03f 4b46 89bf 49a6 537e b732 89bf
000005c0: 8465 830d bb1a 89bf 180c dbbb 5cfe 88bf
000005d0: 489b 7111 a4dd 88bf efd1 fa4c 99b8 88bf
000005e0: 13f1 ea60 458f 88bf 8c59 02f0 b161 88bf
000005f0: 9450 714a e92f 88bf 1e16 476a f6f9 87bf
00000600: 72f1 baef e4bf 87bf d317 d51e c181 87bf
00000610: 0397 32db 973f 87bf 3a7a ada4 76f9 86bf
00000620: 0def 0494 6baf 86bf ef56 3957 8561 86bf
00000630: 68f3 502e d30f 86bf c95c 4be7 64ba 85bf
00000640: fdab dcda 4a61 85bf fa8b c9e8 9504 85bf
00000650: 6146 3074 57a4 84bf 49ed 4360 a140 84bf
00000660: afdb 650c 86d9 83bf 50b8 4850 186f 83bf
00000670: 8530 ee78 6b01 83bf 8b7d d344 9390 82bf
00000680: 8762 01e0 a31c 82bf 7ae2 f6e0 b1a5 81bf
00000690: 0148 df44 d22b 81bf a73b 016c 1aaf 80bf
000006a0: d157 2416 a02f 80bf d687 26be f25a 7fbf
000006b0: e0ad 7476 7951 7ebf 5560 40e8 0143 7dbf
000006c0: 0279 2449 ba2f 7cbf a1e2 446b d117 7bbf
000006d0: 82c5 2cb6 76fb 79bf f3bd d21f dada 78bf
000006e0: c90d 8a25 2cb6 77bf 99fe b1c5 9d8d 76bf
000006f0: 5535 2c79 6061 75bf 07b8 a22b a631 74bf
00000700: 0c99 5436 a1fe 72bf 34ee 2258 84c8 71bf
00000710: 7446 8caf 828f 70bf 293f 5069 9fa7 6ebf
00000720: be25 0a64 3e2b 6cbf 0c17 5a7b 4aaa 69bf
00000730: 46d0 9767 2c25 67bf f392 2560 4d9c 64bf
00000740: c66a e00c 1710 62bf e97f 5ef5 e601 5fbf
00000750: 2e85 f31e 9ade 59bf 68c2 adf8 1cb7 54bf
00000760: 0799 4dc1 8a18 4fbf 8213 9537 d3bd 44bf
00000770: b300 c2ee 80bf 34bf 03f7 03d8 57c0 24bf
00000780: ceca 8809 2dbf 243f 0ac9 ba2f 56be 343f
00000790: d655 f38d a8bc 443f 7fad 58f8 ca16 4f3f
000007a0: 7888 02a7 f2b5 543f c53d db8d 25dd 593f
000007b0: 5064 6b5c 2800 5f3f 7d01 e8dd 120f 623f
000007c0: 6f7f 8076 249b 643f 49a2 71f0 de23 673f
000007d0: f26e 07a8 d8a8 693f 7e6d db6c a829 6c3f
000007e0: 2966 878c e5a5 6e3f b744 7def 938e 703f
000007f0: d29e aaea 83c7 713f 330b c042 8ffd 723f
0.0001583201585644838 0.0003165902878734625 0.0006329804771037045 0.0009489705587792933 0.001264360704533477 0.0015789513681681382 0.0018925433580878857 0.0022049379508161733
0.002515936970997133 0.002825342873559623 0.003132958863719979 0.0034385889586050497 0.003742038107254948 0.0040431122717059925 0.004341618508073649 0.004637365087636387
0.004930161575756408 0.005219818923773648 0.005506149576035257 0.005788967559627386 0.0060680885784314 0.0063433301147478305 0.00661451152983922 0.006881454160148545
0.007143981409193219 0.007401918854594568 0.007655094350782895 0.00790333812305369 0.008146482869191575 0.008384363867580904 0.008616819074505278 0.008843689224690407
0.009064817940495788 0.009280051831376458 0.009489240596588042 0.009692237141946195 0.009888897661990645 0.010079081757825738 0.010262652554960968 0.010439476780069507
0.01060942488531537 0.010772371151058486 0.010928193783154209 0.011076775029712767 0.011218001270831047 0.011351763129946492 0.011477955584109915 0.01159647804831174
0.01170723449332256 0.011810133539749332 0.01190508855749713 0.011992017763068666 0.01207084432551267 0.012141496452912359 0.012203907475630587 0.012258015965231498
0.012303765813401247 0.012341106304382095 0.012369992212271946 0.012390383896161653 0.012402247362839168 0.012405554345710262 0.012400282388043684 0.012386414907837514
0.01236394126484772 0.012332856826535628 0.012293163029690945 0.012244867428000426 0.012187983755833116 0.012122531967160162 0.012048538275555732 0.011966035197441254
0.011875061580194156 0.011775662638905482 0.011667889965028726 0.01155180154692085 0.011427461776328918 0.011294941468931107 0.011154317844876804 0.011005674516894439
0.010849101502183645 0.010684695166197763 0.01051255821831941 0.010332799675102882 0.010145534805137755 0.009950885089047965 0.009748978161112098 0.00953994775088366
0.009323933604270362 0.00910108141001891 0.008871542706739904 0.008635474807230427 0.008393040677390185 0.008144408835678664 0.007889753249328963 0.007629253193804027
0.007363093134956117 0.007091462584158611 0.006814555964248881 0.0065325724495246245 0.006245715812226828 0.00595419425172504 0.005658220232351485 0.005358010307180813
0.005053784922349931 0.0047457682365133255 0.004434187927325106 0.004119274989272208 0.003801263525020963 0.0034803905389258704 0.0031568957175651083 0.002831021220005992
0.0025030114453672117 0.0021731128122732335 0.0018415735296598533 0.0015086433524442698 0.0011745733663850143 0.0008396157351031763 0.0005040234644013228 0.00016805017090684016
-0.00016805017198794604 -0.0005040234654824287 -0.0008396157340220705 -0.0011745733653039084 -0.0015086433524442698 -0.0018415735296598533 -0.0021731128122732335 -0.002503011444286106
-0.002831021220005992 -0.0031568957175651083 -0.0034803905367636586 -0.003801263526102069 -0.00411927499143442 -0.004434187928406211 -0.00474576823543222 -0.0050537849212688255
-0.005358010306099706 -0.00565822023343259 -0.005954194249562827 -0.006245715811145722 -0.006532572453849048 -0.0068145559664110926 -0.007091462584158611 -0.007363093133875011
-0.007629253193804027 -0.007889753249328963 -0.008144408835678664 -0.008393040676309079 -0.008635474809392639 -0.008871542705658798 -0.009101081407856699 -0.009323933604270362
-0.00953994775088366 -0.009748978162193203 -0.009950885087966859 -0.010145534805137755 -0.010332799677265093 -0.010512558219400515 -0.010684695165116657 -0.010849101502183645
-0.011005674517975544 -0.011154317843795699 -0.011294941470012212 -0.011427461776328918 -0.011551801542596425 -0.011667889966109832 -0.011775662642148799 -0.011875061580194156
-0.011966035196360147 -0.01204853827339352 -0.012122531968241267 -0.012187983756914222 -0.012244867425838215 -0.012293163029690945 -0.012332856826535628 -0.012363941263766614
-0.01238641490891862 -0.01240028238912479 -0.012405554345710262 -0.012402247361758063 -0.01239038389724276 -0.012369992213353052 -0.01234110630330099 -0.012303765814482353
-0.012258015966312603 -0.012203907473468376 -0.012141496450750147 -0.012070844327674883 -0.011992017765230878 -0.011905088555334918 -0.011810133537587121 -0.011707234495484772
-0.01159647804831174 -0.011477955583028809 -0.011351763131027598 -0.011218001270831047 -0.011076775030793873 -0.010928193783154209 -0.01077237114997738 -0.01060942488531537
-0.010439476780069507 -0.010262652556042074 -0.010079081757825738 -0.009888897657666222 -0.009692237141946195 -0.009489240598750254 -0.009280051830295353 -0.009064817941576894
-0.008843689225771513 -0.008616819074505278 -0.008384363867580904 -0.008146482869191575 -0.00790333812305369 -0.007655094350782895 -0.007401918853513462 -0.007143981409193219
-0.0068814541612296515 -0.006614511530920326 -0.006343330113666725 -0.0060680885773502944 -0.005788967559627386 -0.005506149576035257 -0.005219818924854754 -0.004930161574675302
-0.004637365088717493 -0.004341618509154755 -0.004043112269543781 -0.003742038107254948 -0.0034385889596861554 -0.0031329588626388735 -0.002825342872478517 -0.002515936969916027
-0.002204937954059491 -0.0018925433591689916 -0.0015789513670870325 -0.001264360706695689 -0.0009489705576981874 -0.0006329804738603869 -0.0003165902878734625 -0.0001583201628889073
0.00015828537722624995 0.00031652073060252416 0.0006328413982383217 0.0009487620415646185 0.0012640828754588978 0.001578604387237324 0.0018921274328731648 0.0022044533245663676
0.002515383926961982 0.0028247217447197365 0.0031322700090025074 0.0034378327899113317 0.0037412150743250283 0.004042222855631986 0.004340663241840752 0.0046363445399062895
