Final images/k_current_L_100_Delta0_-0.4_Delta1_-0.4_lambda_0.5_mu_-2_tJ_0.5_theta_piover4.npy (npy, 288128 bytes, 1 tensors)

array f8 [150, 240]
000000 ba 58 d6 f5 f6 3a 5c 3f 71 be 1f 80 7d 3a 6c 3f
       0.001723042652292102 0.003445859068044226
000010 11 a1 54 89 8a 39 7c 3f bf ff cc 18 f8 29 85 3f
       0.006890813024519341 0.01033395600973097
000020 eb 12 69 15 be 35 8c 3f 35 ae 1a 94 ce 9f 91 3f
       0.013774380710978437 0.017211177625240565
000030 e1 dc bf 6c 8d 23 95 3f 05 e9 dd 19 de a5 98 3f
       0.020643434298077138 0.024070234612261227
000040 49 9c 58 d4 82 26 9c 3f 52 fd 25 7c 3d a5 9f 3f
       0.027490658007220756 0.030903778746048723
000050 0d f9 93 c5 e7 90 a1 3f 1f 60 c0 03 fd 4d a3 3f
       0.03430866515008022 0.03770437880319854
000060 ed fb 46 bb be 09 a5 3f 66 31 7d e7 0c c4 a6 3f
       0.04108997379397992 0.04446449590486416
000070 51 b6 59 35 c7 7c a8 3f 6a ee 92 fc cc 33 aa 3f
       0.04782698179483858 0.05117645819833856
000080 64 26 38 38 fd e8 ab 3f 98 12 59 7f 36 9c ad 3f
       0.054511941063606156 0.05783243469753535
000090 6e a9 9c fd 56 4d af 3f 1d 12 ba 35 1e 7e b0 3f
       0.06113693090294957 0.06442440807047274
0000a0 0d 00 27 03 62 54 b1 3f 59 45 3d 44 65 29 b2 3f
       0.06769383027040039 0.07094414630889413
0000b0 f2 62 76 10 16 fd b2 3f 71 01 6d 35 62 cf b3 3f
       0.07417428876795976 0.07738317303028965
0000c0 10 b0 73 32 37 a0 b4 3f 06 43 29 34 82 6f b5 3f
       0.08056969625221222 0.08373273633447917
0000d0 0c b9 ea 0f 30 3d b6 3f 78 f0 04 3f 2d 09 b7 3f
       0.08687115086170055 0.08998377598340024
0000e0 6b 22 fe d9 65 d3 b7 3f 89 4a 93 93 c5 9b b8 3f
       0.09306942531669342 0.09612688877977339
0000f0 a6 54 8e b3 37 62 b9 3f bc 7a 9d 11 a7 26 ba 3f
       0.09915493138972184 0.10215229206140014
000100 9f 6d d7 0f fe e8 ba 3f 6d bc 3a 95 26 a9 bb 3f
       0.10511768233066342 0.10804978507324998
000110 14 71 02 08 0a 67 bc 3f a0 3d bf 47 91 22 bd 3f
       0.11094725318475113 0.11380870820652556
000120 82 52 55 a7 a4 db bd 3f 93 ad dd e6 2b 92 be 3f
       0.11663273892674833 0.11941789995551337
000130 82 3d 5a 2d 0e 46 bf 3f 3d 74 27 02 32 f7 bf 3f
       0.12216271025885386 0.12486565163222081
000140 f6 1c 38 a3 be 52 c0 3f 0d c2 39 97 6a a8 c0 3f
       0.12752516717612367 0.13013965972960798
000150 ab a6 46 1d 8f fc c0 3f a2 cd 1c 18 1e 4f c1 3f
       0.1327074902485966 0.13522697617882523
000160 47 b6 7b 09 09 a0 c1 3f e3 6d 80 0e 41 ef c1 3f
       0.1376963897995884 0.14011395652856526
000170 4a 56 f6 db b6 3c c2 3f 53 37 b3 ba 5a 88 c2 3f
       0.14247785320610468 0.14478620640005122
000180 a1 6f d1 83 1c d2 c2 3f 7e 08 f6 9c eb 19 c3 3f
       0.14703709064894802 0.149228526726862
000190 f9 f9 97 f4 b6 5f c3 3f 0c 29 4f fe 6c a3 c3 3f
       0.1513584799103709 0.15342485825960528
0001a0 89 87 2a af fb e4 c3 3f 1b 17 12 7a 50 24 c4 3f
       0.15542551091226312 0.1573582263992471
0001b0 58 4f 54 4c 58 61 c4 3f 60 2f 41 8a ff 9b c4 3f
       0.15922073103922219 0.16101068735803903
0001c0 c2 73 f5 0b 32 d4 c4 3f 40 e2 5b 1a db 09 c5 3f
       0.1627256925957266 0.16436327731186573
0001d0 e6 56 72 6c e5 3c c5 3f 29 7f c5 24 3b 6d c5 3f
       0.1659209041142084 0.16739596648675928
0001e0 33 f8 56 cf c5 9a c5 3f f5 7b fb 5f 6e c5 c5 3f
       0.16878578781137463 0.170087620607745
0001f0 6c d4 0f 31 1d ed c5 3f 91 a8 d0 02 ba 11 c6 3f
       0.17129864593121924 0.17241597306685155
000200 09 06 61 fb 2b 33 c6 3f c9 f4 74 a7 59 51 c6 3f
       0.17343663954129365 0.17435761143307207
000210 93 e4 dd fb 28 6c c6 3f a8 76 02 58 7f 83 c6 3f
       0.17517578409368592 0.17588798329682231
000220 4c cf 6e 89 41 97 c6 3f 2a 98 81 d0 53 a7 c6 3f
       0.17649096689785393 0.1769814270111863
000230 d2 05 7d e6 99 b3 c6 3f 75 ec 0b 05 f7 bb c6 3f
       0.17735599283518738 0.1776112341538895
000240 9b ed 60 ef 4d c0 c6 3f 69 cd 28 fd 80 c0 c6 3f
       0.17774366558465435 0.1777497516755873
000250 9a de 6b 27 72 bc c6 3f 09 0f a4 17 03 b4 c6 3f
       0.17762591290351254 0.17736853269899935
000260 6b 01 1a 39 15 a7 c6 3f 0f 32 de cc 89 95 c6 3f
       0.17697396553195274 0.1764385462123674
000270 2c 41 68 00 42 7f c6 3f 30 ea 37 07 1f 64 c6 3f
       0.17575860042462332 0.1749304566618135
000280 27 28 97 37 02 44 c6 3f d1 67 9f 2a cd 1e c6 3f
       0.1739504596174026 0.17281498509583895
000290 28 b9 c6 df 61 f4 c5 3f be 02 1e e4 a2 c4 c5 3f
       0.171520456567529 0.1700633634427699
0002a0 ee 64 57 7d 73 8f c5 3f e0 23 b0 d8 b7 54 c5 3f
       0.16844028110680348 0.1666478927657229
0002b0 ab 82 e6 3d 55 14 c5 3f 88 3d 33 46 32 ce c4 3f
       0.16468301317674636 0.16254261424772332
0002c0 eb 96 36 17 37 82 c4 3f db c4 ed a1 4d 30 c4 3f
       0.16022385247668267 0.1577240982692619
0002d0 8c ff 56 e5 61 d8 c3 3f 97 50 a2 34 62 7a c3 3f
       0.15504096697077008 0.15217235155126183
0002e0 cb d7 a4 80 3f 16 c3 3f c5 d9 02 a4 ed ab c2 3f
       0.14911645680848404 0.14587183483463498
0002f0 25 0c a2 b1 63 3b c2 3f a3 17 aa 44 9c c4 c1 3f
       0.14243742154585096 0.1388125739360336
000300 9c e0 59 d1 95 47 c1 3f e1 7f be f5 52 c4 c0 3f
       0.13499710771771312 0.13099133490777518
000310 b5 b3 51 c9 da 3a c0 3f dc 39 ad 54 72 56 bf 3f
       0.12679610090290586 0.1224128205042016
000320 5a 16 51 0f fe 2a be 3f 68 fc 76 4b 85 f3 bc 3f
       0.11784351228660608 0.113090830730458
000330 22 60 8d ba 3f b0 bb 3f b0 df 41 a4 70 61 ba 3f
       0.10815809540270085 0.10304931650341476
000340 6c b5 dc 41 67 07 b9 3f 7a 7f b7 03 7f a2 b7 3f
       0.09776921613657458 0.09232324448339382
000350 48 82 73 be 1f 33 b6 3f a4 25 00 bd bd b9 b4 3f
       0.08671759032905257 0.08095918525955043
000360 72 67 ae b4 d9 36 b3 3f 8d e2 d4 99 00 ab b1 3f
       0.07505570088542671 0.06901553874639373
000370 41 ce e2 52 cb 16 b0 3f 8a 9e 15 92 bc f5 ac 3f
       0.06284781240065575 0.05656232150323344
000380 a9 72 0a ac d1 af a9 3f 9e 8c f9 1d 49 5d a6 3f
       0.05016951775653428 0.04368046275046676
000390 fa bb 96 db a8 ff a2 3f 52 79 f5 67 0f 31 9f 3f
       0.03710677795913138 0.03046058723463691
0003a0 99 5c 59 51 16 53 98 3f c6 67 27 1e ca 68 91 3f
       0.023754452433732174 0.017001302805375727
0003b0 ce 9f 36 13 44 eb 84 3f 37 f9 0a f6 1b e9 6b 3f
       0.010214359127374364 0.003407053576977816
0003c0 7b ef e4 f5 1b e9 6b bf 3e 22 40 13 44 eb 84 bf
       -0.0034070535758967103 -0.010214359128455471
0003d0 c6 67 27 1e ca 68 91 bf 99 5c 59 51 16 53 98 bf
       -0.017001302805375727 -0.023754452433732174
0003e0 52 79 f5 67 0f 31 9f bf 95 1c 99 db a8 ff a2 bf
       -0.03046058723463691 -0.03710677796021248
0003f0 9e 8c f9 1d 49 5d a6 bf 0e 12 08 ac d1 af a9 bf
       -0.04368046275046676 -0.05016951775545318
000400 ee 3d 13 92 bc f5 ac bf a5 6d e0 52 cb 16 b0 bf
       -0.05656232150215233 -0.06284781239849353
000410 db 12 d6 99 00 ab b1 bf c0 97 af b4 d9 36 b3 bf
       -0.06901553874747483 -0.07505570088650781
000420 40 86 02 bd bd b9 b4 bf 31 13 77 be 1f 33 b6 bf
       -0.08095918526171264 -0.08671759033229588
000430 43 be b2 03 7f a2 b7 bf 1e 85 db 41 67 07 b9 bf
       -0.09232324447906941 -0.09776921613549347
000440 fe 0f 43 a4 70 61 ba bf d4 2f 8c ba 3f b0 bb bf
       -0.10304931650449586 -0.10815809540161975
000450 52 8d 7a 4b 85 f3 bc bf be b5 4e 0f fe 2a be bf
       -0.11309083073370133 -0.11784351228444387
000460 f2 a8 a9 54 72 56 bf bf dc 4b 52 c9 da 3a c0 bf
       -0.12241282050095828 -0.12679610090398696
000470 08 18 bf f5 52 c4 c0 bf 9c e0 59 d1 95 47 c1 bf
       -0.13099133490885628 -0.13499710771771312
000480 ca af aa 44 9c c4 c1 bf 73 3c a3 b1 63 3b c2 bf
       -0.1388125739371147 -0.14243742154801317
000490 13 0a 04 a4 ed ab c2 bf a4 3f a4 80 3f 16 c3 bf
       -0.1458718348367972 -0.14911645680740293
0004a0 71 b8 a1 34 62 7a c3 bf 8c ff 56 e5 61 d8 c3 bf
       -0.15217235155018075 -0.15504096697077008
0004b0 db c4 ed a1 4d 30 c4 bf eb 96 36 17 37 82 c4 bf
       -0.1577240982692619 -0.16022385247668267
0004c0 3a 0d 32 46 32 ce c4 bf 84 ea e5 3d 55 14 c5 bf
       -0.1625426142455611 -0.16468301317566525
0004d0 e0 23 b0 d8 b7 54 c5 bf c7 cc 56 7d 73 8f c5 bf
       -0.1666478927657229 -0.16844028110572237
0004e0 be 02 1e e4 a2 c4 c5 bf 76 e9 c7 df 61 f4 c5 bf
       -0.1700633634427699 -0.17152045656969123
0004f0 d1 67 9f 2a cd 1e c6 bf 4e c0 97 37 02 44 c6 bf
       -0.17281498509583895 -0.1739504596184837
000500 09 52 37 07 1f 64 c6 bf de 10 67 00 42 7f c6 bf
       -0.1749304566607324 -0.1757586004224611
000510 5d 62 df cc 89 95 c6 bf 92 99 1a 39 15 a7 c6 bf
       -0.17643854621452962 -0.17697396553303385
000520 30 a7 a4 17 03 b4 c6 bf 9a de 6b 27 72 bc c6 bf
       -0.17736853270008046 -0.17762591290351254
000530 f4 04 27 fd 80 c0 c6 bf c2 85 61 ef 4d c0 c6 bf
       -0.17774975167234397 -0.17774366558573546
000540 75 ec 0b 05 f7 bb c6 bf 84 d5 7b e6 99 b3 c6 bf
       -0.1776112341538895 -0.17735599283302517
000550 03 00 81 d0 53 a7 c6 bf 73 67 6f 89 41 97 c6 bf
       -0.1769814270101052 -0.17649096689893504
000560 f6 a6 03 58 7f 83 c6 bf ba 7c de fb 28 6c c6 bf
       -0.17588798329898453 -0.17517578409476703
000570 c9 f4 74 a7 59 51 c6 bf e2 6d 60 fb 2b 33 c6 bf
       -0.17435761143307207 -0.17343663954021254
000580 91 a8 d0 02 ba 11 c6 bf 45 3c 0f 31 1d ed c5 bf
       -0.17241597306685155 -0.17129864593013813
000590 f5 7b fb 5f 6e c5 c5 bf 5a 90 57 cf c5 9a c5 bf
       -0.170087620607745 -0.16878578781245573
0005a0 29 7f c5 24 3b 6d c5 bf 34 87 73 6c e5 3c c5 bf
       -0.16739596648675928 -0.16592090411637062
0005b0 40 e2 5b 1a db 09 c5 bf 74 43 f4 0b 32 d4 c4 bf
       -0.16436327731186573 -0.1627256925935644
0005c0 60 2f 41 8a ff 9b c4 bf 58 4f 54 4c 58 61 c4 bf
       -0.16101068735803903 -0.15922073103922219
0005d0 1b 17 12 7a 50 24 c4 bf b0 1f 2b af fb e4 c3 bf
       -0.1573582263992471 -0.15542551091334422
0005e0 81 f1 50 fe 6c a3 c3 bf d2 61 97 f4 b6 5f c3 bf
       -0.1534248582628486 -0.1513584799092898
0005f0 e2 a7 f3 9c eb 19 c3 bf a1 6f d1 83 1c d2 c2 bf
       -0.14922852672253756 -0.14703709064894802
000600 c8 ff b4 ba 5a 88 c2 bf 4a 56 f6 db b6 3c c2 bf
       -0.14478620640329454 -0.14247785320610468
000610 95 3d 7f 0e 41 ef c1 bf 47 b6 7b 09 09 a0 c1 bf
       -0.14011395652640304 -0.1376963897995884
000620 f0 fd 1d 18 1e 4f c1 bf f8 d6 47 1d 8f fc c0 bf
       -0.13522697618098745 -0.1327074902507588
000630 98 f9 37 97 6a a8 c0 bf cf 84 37 a3 be 52 c0 bf
       -0.13013965972636465 -0.12752516717504256
000640 ef 43 26 02 32 f7 bf bf 82 3d 5a 2d 0e 46 bf bf
       -0.1248656516311397 -0.12216271025885386
000650 7c 3e e1 e6 2b 92 be bf 34 22 54 a7 a4 db bd bf
       -0.11941789995875668 -0.11663273892566722
000660 52 0d be 47 91 22 bd bf b0 d1 04 08 0a 67 bc bf
       -0.11380870820544445 -0.11094725318691334
000670 6d bc 3a 95 26 a9 bb bf b5 dc d3 0f fe e8 ba bf
       -0.10804978507324998 -0.1051176823274201
000680 58 db 9f 11 a7 26 ba bf f4 84 8f b3 37 62 b9 bf
       -0.10215229206356236 -0.09915493139080295
000690 a0 b9 8f 93 c5 9b b8 bf b9 52 ff d9 65 d3 b7 bf
       -0.09612688877653008 -0.09306942531777453
0006a0 2a c0 03 3f 2d 09 b7 bf 23 28 e7 0f 30 3d b6 bf
       -0.08998377598231913 -0.08687115085845724
0006b0 a2 a3 2b 34 82 6f b5 bf ac 10 76 32 37 a0 b4 bf
       -0.08373273633664138 -0.08056969625437443
0006c0 71 01 6d 35 62 cf b3 bf f2 62 76 10 16 fd b2 bf
       -0.07738317303028965 -0.07417428876795976
0006d0 59 45 3d 44 65 29 b2 bf bf cf 25 03 62 54 b1 bf
       -0.07094414630889413 -0.06769383026931929
0006e0 1d 12 ba 35 1e 7e b0 bf 41 cb a3 fd 56 4d af bf
       -0.06442440807047274 -0.061136930906192884
0006f0 98 12 59 7f 36 9c ad bf 90 04 31 38 fd e8 ab bf
       -0.05783243469753535 -0.054511941060362834
000700 6a ee 92 fc cc 33 aa bf ed 16 5c 35 c7 7c a8 bf
       -0.05117645819833856 -0.04782698179591969
000710 66 31 7d e7 0c c4 a6 bf ed fb 46 bb be 09 a5 bf
       -0.04446449590486416 -0.04108997379397992
000720 1f 60 c0 03 fd 4d a3 bf 72 98 91 c5 e7 90 a1 bf
       -0.03770437880319854 -0.03430866514899912
000730 52 fd 25 7c 3d a5 9f bf 49 9c 58 d4 82 26 9c bf
       -0.030903778746048723 -0.027490658007220756
000740 05 e9 dd 19 de a5 98 bf 50 5f c9 6c 8d 23 95 bf
       -0.024070234612261227 -0.02064343430023935
000750 35 ae 1a 94 ce 9f 91 bf eb 12 69 15 be 35 8c bf
       -0.017211177625240565 -0.013774380710978437
000760 e1 fa b9 18 f8 29 85 bf ef a5 67 89 8a 39 7c bf
       -0.010333956007568758 -0.006890813025600447
000770 ea d1 6b 80 7d 3a 6c bf d6 0a a6 f4 f6 3a 5c bf
       -0.003445859070206438 -0.0017230426479676784
000780 e8 9f f3 74 e4 39 5c 3f 23 ab c3 01 6b 39 6c 3f
       0.0017227870010234573 0.0034453477838857368
000790 59 55 04 0e 78 38 7c 3f c9 98 7e 40 2a 29 85 3f
       0.006889790500527703 0.010332422345367924
0007a0 2e 3d 9e a7 ab 34 8c 3f cb 25 ca 15 23 9f 91 3f
       0.0137723360565177 0.017208622174200088
0007b0 7c 12 58 ab bf 22 95 3f 3b a5 62 1a ee a4 98 3f
       0.020640368302354592 0.024066658363755194
0007c0 81 2f e6 9c 70 25 9c 3f 92 b3 c1 13 09 a4 9f 3f
       0.027486571861615076 0.030899183112001412
0007d0 d4 e2 c5 7c 3c 90 a1 3f a2 7c cb aa 40 4d a3 3f
       0.034303560477331324 0.03769876561067888
0007e0 76 8c 12 57 f1 08 a5 3f 47 b6 69 7d 2e c3 a6 3f
       0.041083852652513395 0.044457867440411074
0007f0 12 7b 70 cb d7 7b a8 3f 2a fb 4c 99 cc 32 aa 3f
       0.047819846710117755 0.051168817246880785
