Final images/k_current_TRITOPS_S_Eu_L_100_Delta0_0.4_Delta1_0.2_lambda_0.5_mu_2_tJ_0.5_theta_0.npy (npy, 144128 bytes, 1 tensors)

array f8 [75, 240]
000000 d0 b2 0c 06 d9 19 b6 bf d2 4c 18 b2 11 03 b6 bf
       -0.08633190534301183 -0.08598433111210405
000010 7d 23 95 27 0a d4 b5 bf 7b 0b 39 60 1c a2 b5 bf
       -0.08526671854373365 -0.08450486516180249
000020 c5 0f 0c 9a 5e 6d b5 bf 7a ba 0d 03 e6 35 b5 bf
       -0.08370009671131047 -0.0828536755995887
000030 ea 13 1f 4f c7 fb b4 bf 40 dd 64 b9 16 bf b4 bf
       -0.08196683580088374 -0.08104078317852714
000040 43 91 c1 05 e8 7f b4 bf 46 9f b5 82 4e 3e b4 bf
       -0.08007669582872716 -0.07907572451733555
000050 13 37 82 0b 5d fa b3 bf 2b b9 5c 0a 26 b4 b3 bf
       -0.07803899317715617 -0.07696759942038926
000060 f7 d4 d8 7a bb 6b b3 bf 6c d7 92 ec 2e 21 b3 bf
       -0.07586261510080648 -0.07472508693430563
000070 ea ba de 85 91 d4 b2 bf c5 af 5a 06 f4 85 b2 bf
       -0.07355603712378991 -0.07235646395810054
000080 cb 1d e3 c9 66 35 b2 bf 8a e4 81 cb f9 e2 b1 bf
       -0.07112734249960011 -0.06986962526743148
000090 a6 d0 32 a8 bc 8e b1 bf 51 ba cb a1 be 38 b1 bf
       -0.06858424288185691 -0.0672721047410303
0000a0 a7 8b 03 a2 0e e1 b0 bf da d7 3d 3d bb 87 b0 bf
       -0.06593409972587826 -0.0645710968509258
0000b0 84 fe 85 b5 d2 2c b0 bf ef 0c d2 fa c5 a0 af bf
       -0.06318394595836635 -0.06177347838186075
0000c0 b9 a3 6a 75 f3 e4 ae bf 18 b8 c0 92 48 26 ae bf
       -0.06034050758655191 -0.05888582984367491
0000d0 3a e0 9f 7c df 64 ad bf 7b 71 12 d4 d1 a0 ac bf
       -0.0574102248792205 -0.05591445649881429
0000e0 ec de ba b6 38 da ab bf 10 0e 07 c4 2c 11 ab bf
       -0.05439927321043378 -0.0528654088298276
0000f0 ec 32 80 22 c6 45 aa bf dd 59 d3 84 1c 78 a9 bf
       -0.05131358309890807 -0.04974450227171066
000100 c2 e2 a0 2e 47 a8 a8 bf 9c 49 80 f9 5c d6 a7 bf
       -0.04815885967440671 -0.04655733628910072
000110 93 15 a0 59 74 02 a7 bf bb d1 8b 62 a3 2c a6 bf
       -0.044940601292221015 -0.04330931261020817
000120 b9 ae 97 cb ff 54 a5 bf f2 6c 6d f4 9e 7b a4 bf
       -0.04166411743412141 -0.04000565274938052
000130 a5 b5 56 e9 95 a0 a3 bf c5 ec 6a 67 f9 c3 a2 bf
       -0.03833454583523669 -0.03665141475127024
000140 bc cd e7 e0 dd e5 a1 bf c8 29 13 81 57 06 a1 bf
       -0.034956868843348116 -0.03325150919552616
000150 ee b4 55 30 7a 25 a0 bf 3f 06 30 30 b3 86 9e bf
       -0.03153592910789792 -0.029810714546334657
000160 1f fc 05 4d 12 c0 9c bf cc bf a6 24 38 f7 9a bf
       -0.028076444579252176 -0.026333691823026403
000170 2a 52 34 bd 4a 2c 99 bf dd 87 6b bc 6f 5f 97 bf
       -0.024583022878760165 -0.022824998736616798
000180 e2 d2 9f 6e cc 90 95 bf c6 ab 32 ce 85 c0 93 bf
       -0.02106017518231596 -0.01928910323173818
000190 50 34 f7 89 c0 ee 91 bf 8a 83 37 0c a1 1b 90 bf
       -0.017512329502825275 -0.015730396624238398
0001a0 5f 9f 69 02 97 8e 8c bf 3c 57 e7 bb c7 e3 88 bf
       -0.013943843613745064 -0.01215320627390392
0001b0 16 4e 2c cd 1b 37 85 bf da ce 32 69 da 88 81 bf
       -0.010359017561802946 -0.00856180795231103
0001c0 47 ed dd f7 94 b2 7b bf a5 00 75 6a 65 51 74 bf
       -0.006762105853222628 -0.004960437923102888
0001d0 d2 61 54 57 66 dd 69 bf 9d 83 df ea 2b 2c 56 bf
       -0.0031573294496747084 -0.0013533047563145447
0001e0 01 29 d1 62 69 90 3d 3f 40 69 f5 0f ea 79 62 3f
       0.0004511124887513069 0.0022553988962218663
0001f0 26 16 ed d3 33 a0 70 3f 50 99 3c 55 36 02 78 3f
       0.004059030964361143 0.005861484754666371
000200 d1 49 1d af 6f 62 7f 3f 67 1f 72 59 29 60 83 3f
       0.007662235513480956 0.00946075729576963
000210 04 d6 6c e4 a8 0d 87 3f d4 ff a9 6a 6f b9 8a 3f
       0.01125652262781341 0.013049002115849286
000220 b0 b0 a7 8f 35 63 8e 3f 2a e7 29 ce 59 05 91 3f
       0.014837664076331997 0.01662197418998016
000230 da 34 64 b8 d0 d7 92 3f 53 50 0e 3c db a8 94 3f
       0.018401395086631613 0.02017538599064068
000240 f9 24 b2 cd 54 78 96 3f 46 05 31 99 18 46 98 3f
       0.021943402342491123 0.023704895353380516
000250 8d 42 44 7c 01 12 9a 3f 1e b5 cc fe e9 db 9b 3f
       0.025459311685212916 0.027206093003021008
000260 3d df 8a 4b ac a3 9d 3f c4 d1 d7 29 22 69 9f 3f
       0.028944675551172628 0.030674489787956963
000270 32 8f cf 7a 12 96 a0 3f 2a 82 1e cc 46 76 a1 3f
       0.03239495991854681 0.03410550347985393
000280 72 bd 6b 40 1a 55 a2 3f 45 5f 60 ce 78 32 a3 3f
       0.035805530895113416 0.0374944450306303
000290 36 e5 c6 27 4e 0e a4 3f cb dc 66 b5 85 e8 a4 3f
       0.03917164073522843 0.04083650435807725
0002a0 48 20 10 93 0a c1 a5 3f 67 82 63 8b c7 97 a6 3f
       0.042488413288140736 0.044126735463355264
0002b0 28 af 70 13 a7 6c a7 3f ca cd 58 46 93 3f a8 3f
       0.0457508288603477 0.04736004098631559
0002c0 a9 96 c1 e0 75 10 a9 3f c8 72 6e 3c 38 df a9 3f
       0.048953708349285315 0.05053115594566787
0002d0 e6 f6 4a 4b c3 ab aa 3f 19 38 d9 92 ff 75 ab 3f
       0.05209169668294837 0.053634630847781924
0002e0 c9 80 24 27 d5 3d ac 3f 88 0a c7 a5 2b 03 ad 3f
       0.05515924551787205 0.05666481398249795
0002f0 e6 b7 ef 30 ea c5 ad 3f cb 29 d9 69 f7 85 ae 3f
       0.058150595163041705 0.05961583296864922
000300 bd fb d8 6b 39 43 af 3f c2 56 cd c6 95 fd af 3f
       0.06105975572108189 0.06248157550605306
000310 25 42 c5 bc 78 5a b0 3f 69 45 37 76 98 b4 b0 3f
       0.0638804875245645 0.06525566946154061
000320 85 5b d4 f5 1b 0d b1 3f 81 92 c0 d0 f4 63 b1 3f
       0.06660628081986715 0.06793146225443004
000330 9d 41 44 48 14 b9 b1 3f 20 8f f4 46 6b 0c b2 3f
       0.0692303348953431 0.07050199968631121
000340 7c b2 cd 5d ea 5d b2 3f b6 2c 27 c1 81 ad b2 3f
       0.07174553671002032 0.07296000447893189
000350 14 53 ef 45 21 fb b2 3f d1 0e bc 5e b8 46 b3 3f
       0.07414443929094389 0.07529785454613182
000360 7b e0 e9 18 36 90 b3 3f 45 ae e5 19 89 d7 b3 3f
       0.0764192400764631 0.07750756151443124
000370 da 2c 61 9c 9f 1c b4 3f 47 d9 c9 6d 67 5f b4 3f
       0.07856175964223003 0.07958074980146988
000380 f3 ed ac eb cd 9f b4 3f 2e 4e 73 01 c0 dd b4 3f
       0.08056342128559617 0.08150863681230966
000390 90 76 30 26 2a 19 b5 3f b0 f4 8d 5a f8 51 b5 3f
       0.08241523201328449 0.08328201494983278
0003a0 1d c2 40 27 16 88 b5 3f 19 fb 6d 9b 6e bb b5 3f
       0.08410776575397745 0.08489123625438956
0003b0 b9 3e b1 4b ec eb b5 3f e6 c5 c5 bd 71 03 a6 3f
       0.08563114974935616 0.04299502793845615
0003c0 ae 04 c1 bd 71 03 a6 bf f0 ff b5 4b ec eb b5 bf
       -0.042995027936293936 -0.08563114975368058
0003d0 7d 9a 6b 9b 6e bb b5 bf e5 00 3c 27 16 88 b5 bf
       -0.08489123625222735 -0.08410776574965302
0003e0 4c 55 90 5a f8 51 b5 bf 2c d7 32 26 2a 19 b5 bf
       -0.083282014951995 -0.0824152320154467
0003f0 65 0f 78 01 c0 dd b4 bf 57 8d aa eb cd 9f b4 bf
       -0.08150863681663408 -0.08056342128343395
000400 ab 78 c7 6d 67 5f b4 bf 76 8d 63 9c 9f 1c b4 bf
       -0.07958074979930767 -0.07856175964439224
000410 a9 4d e3 19 89 d7 b3 bf 7b e0 e9 18 36 90 b3 bf
       -0.07750756151226902 -0.0764192400764631
000420 35 ae b9 5e b8 46 b3 bf b0 b3 f1 45 21 fb b2 bf
       -0.0752978545439696 -0.0741444392931061
000430 ed ed 2b c1 81 ad b2 bf 17 13 d0 5d ea 5d b2 bf
       -0.0729600044832563 -0.07174553671218252
000440 20 8f f4 46 6b 0c b2 bf 66 80 3f 48 14 b9 b1 bf
       -0.07050199968631121 -0.06923033489101868
000450 e5 31 be d0 f4 63 b1 bf 85 5b d4 f5 1b 0d b1 bf
       -0.06793146225226783 -0.06660628081986715
000460 69 45 37 76 98 b4 b0 bf 25 42 c5 bc 78 5a b0 bf
       -0.06525566946154061 -0.0638804875245645
000470 8a 95 c8 c6 95 fd af bf f4 bc dd 6b 39 43 af bf
       -0.06248157550389084 -0.0610597557232441
000480 3a ac e2 69 f7 85 ae bf ae f6 ea 30 ea c5 ad bf
       -0.05961583297297364 -0.05815059516087949
000490 bf cb cb a5 2b 03 ad bf 92 bf 1f 27 d5 3d ac bf
       -0.05666481398466016 -0.055159245515709845
0004a0 e1 76 d4 92 ff 75 ab bf 1d b8 4f 4b c3 ab aa bf
       -0.05363463084561971 -0.05209169668511058
0004b0 90 b1 69 3c 38 df a9 bf 71 d5 bc e0 75 10 a9 bf
       -0.05053115594350566 -0.0489537083471231
0004c0 93 0c 54 46 93 3f a8 bf 60 70 75 13 a7 6c a7 bf
       -0.04736004098415338 -0.04575082886250992
0004d0 d7 04 6d 8b c7 97 a6 bf 48 20 10 93 0a c1 a5 bf
       -0.044126735467679694 -0.042488413288140736
0004e0 94 1b 62 b5 85 e8 a4 bf 36 e5 c6 27 4e 0e a4 bf
       -0.04083650435591504 -0.03917164073522843
0004f0 45 5f 60 ce 78 32 a3 bf 72 bd 6b 40 1a 55 a2 bf
       -0.0374944450306303 -0.035805530895113416
000500 2a 82 1e cc 46 76 a1 bf 32 8f cf 7a 12 96 a0 bf
       -0.03410550347985393 -0.03239495991854681
000510 55 4f ce 29 22 69 9f bf 3d df 8a 4b ac a3 9d bf
       -0.03067448978579475 -0.028944675551172628
000520 af 32 c3 fe e9 db 9b bf 6b 47 57 7c 01 12 9a bf
       -0.027206093000858796 -0.02545931168953734
000530 46 05 31 99 18 46 98 bf ac 9d 95 cd 54 78 96 bf
       -0.023704895353380516 -0.02194340233600449
000540 31 55 21 3c db a8 94 bf da 34 64 b8 d0 d7 92 bf
       -0.020175385994965104 -0.018401395086631613
000550 2a e7 29 ce 59 05 91 bf b0 b0 a7 8f 35 63 8e bf
       -0.01662197418998016 -0.014837664076331997
000560 f5 fa 96 6a 6f b9 8a bf c0 df 92 e4 a8 0d 87 bf
       -0.013049002113687072 -0.011256522632137833
000570 45 24 85 59 29 60 83 bf d1 49 1d af 6f 62 7f bf
       -0.00946075729793184 -0.007662235513480956
000580 0c a3 62 55 36 02 78 bf 26 16 ed d3 33 a0 70 bf
       -0.005861484756828583 -0.004059030964361143
000590 c7 55 a9 0f ea 79 62 bf c8 c4 31 65 69 90 3d bf
       -0.0022553988940596545 -0.00045111249091351864
0005a0 9d 83 df ea 2b 2c 56 3f 3c 9c 38 58 66 dd 69 3f
       0.0013533047563145447 0.0031573294561613435
0005b0 e9 f6 4e 6a 65 51 74 3f 47 ed dd f7 94 b2 7b 3f
       0.004960437920940677 0.006762105853222628
0005c0 b8 d3 45 69 da 88 81 3f 59 44 06 cd 1b 37 85 3f
       0.008561807954473241 0.010359017557478522
0005d0 3c 57 e7 bb c7 e3 88 3f 3d a4 7c 02 97 8e 8c 3f
       0.01215320627390392 0.013943843615907276
0005e0 f9 05 41 0c a1 1b 90 3f 50 34 f7 89 c0 ee 91 3f
       0.01573039662640061 0.017512329502825275
0005f0 57 29 29 ce 85 c0 93 3f e2 d2 9f 6e cc 90 95 3f
       0.019289103229575968 0.02106017518231596
000600 dd 87 6b bc 6f 5f 97 3f 08 57 47 bd 4a 2c 99 3f
       0.022824998736616798 0.024583022883084588
000610 cc bf a6 24 38 f7 9a 3f 41 f7 f2 4c 12 c0 9c 3f
       0.026333691823026403 0.028076444574927754
000620 61 01 1d 30 b3 86 9e 3f 26 76 5a 30 7a 25 a0 3f
       0.029810714542010234 0.03153592911006013
000630 37 ac 1c 81 57 06 a1 3f 85 0c e3 e0 dd e5 a1 3f
       0.033251509199850586 0.03495686884118591
000640 c5 ec 6a 67 f9 c3 a2 3f dd 76 5b e9 95 a0 a3 3f
       0.03665141475127024 0.038334545837398905
000650 61 ef 76 f4 9e 7b a4 3f b9 ae 97 cb ff 54 a5 3f
       0.04000565275370494 0.04166411743412141
000660 4c 4f 82 62 a3 2c a6 3f 93 15 a0 59 74 02 a7 3f
       0.04330931260588375 0.044940601292221015
000670 65 88 7b f9 5c d6 a7 3f 8a 21 9c 2e 47 a8 a8 3f
       0.04655733628693851 0.048158859672244494
000680 dd 59 d3 84 1c 78 a9 3f ec 32 80 22 c6 45 aa 3f
       0.04974450227171066 0.05131358309890807
000690 10 0e 07 c4 2c 11 ab 3f ec de ba b6 38 da ab 3f
       0.0528654088298276 0.05439927321043378
0006a0 b3 32 17 d4 d1 a0 ac 3f 3a e0 9f 7c df 64 ad 3f
       0.055914456500976505 0.0574102248792205
0006b0 e1 f6 bb 92 48 26 ae 3f 81 e2 65 75 f3 e4 ae 3f
       0.0588858298415127 0.0603405075843897
0006c0 26 ce d6 fa c5 a0 af 3f 20 5f 88 b5 d2 2c b0 3f
       0.06177347838402296 0.06318394596052856
0006d0 da d7 3d 3d bb 87 b0 3f a7 8b 03 a2 0e e1 b0 3f
       0.0645710968509258 0.06593409972587826
0006e0 51 ba cb a1 be 38 b1 3f 0b 70 30 a8 bc 8e b1 3f
       0.0672721047410303 0.06858424287969471
0006f0 8a e4 81 cb f9 e2 b1 3f 67 7e e5 c9 66 35 b2 3f
       0.06986962526743148 0.07112734250176232
000700 c5 af 5a 06 f4 85 b2 3f ea ba de 85 91 d4 b2 3f
       0.07235646395810054 0.07355603712378991
000710 6c d7 92 ec 2e 21 b3 3f 5b 74 d6 7a bb 6b b3 3f
       0.07472508693430563 0.07586261509864427
000720 8f 58 5a 0a 26 b4 b3 3f af 97 84 0b 5d fa b3 3f
       0.07696759941822705 0.07803899317931838
000730 e2 ff b7 82 4e 3e b4 3f 43 91 c1 05 e8 7f b4 3f
       0.07907572451949776 0.08007669582872716
000740 40 dd 64 b9 16 bf b4 3f ea 13 1f 4f c7 fb b4 3f
       0.08104078317852714 0.08196683580088374
000750 7a ba 0d 03 e6 35 b5 3f c5 0f 0c 9a 5e 6d b5 3f
       0.0828536755995887 0.08370009671131047
000760 df aa 36 60 1c a2 b5 3f 7d 23 95 27 0a d4 b5 3f
       0.08450486515964027 0.08526671854373365
000770 6e ad 1a b2 11 03 b6 3f d0 b2 0c 06 d9 19 b6 3f
       0.08598433111426626 0.08633190534301183
000780 ae a9 a8 d2 97 12 b6 bf ca 87 73 78 e4 fb b5 bf
       -0.08622120755231918 -0.08587482395844784
000790 48 58 13 7e 04 cd b5 bf 13 88 ed b9 3d 9b b5 bf
       -0.08515956953064674 -0.08440004147772155
0007a0 75 9a 15 a2 a6 66 b5 bf c8 73 86 61 54 2f b5 bf
       -0.08359757859362012 -0.0827534425829547
0007b0 47 a7 da a9 5b f5 b4 bf ab 20 6c b4 d0 b8 b4 bf
       -0.08186886689022997 -0.08094505696147063
0007c0 ae 2e f4 43 c7 79 b4 bf 08 d6 4c a6 52 38 b4 bf
       -0.07998319062260847 -0.07898441848814042
0007d0 65 ef 5c b6 85 f4 b3 bf 9d 45 82 de 72 ae b3 bf
       -0.07794986440870628 -0.07688062603326391
0007e0 f4 e8 d0 1a 2c 66 b3 bf a1 d4 99 fb c2 1b b3 bf
       -0.07577777533234437 -0.07464235918617358
0007f0 e7 a2 2a a8 48 cf b2 bf db d6 64 e1 cd 80 b2 bf
       -0.07347540002468698 -0.07227789643078657
